Auto_TF_to_uC/Converted_model_files/CIFAR10_model.tflite (tflite, 311260 bytes, 14 tensors)

sequential_6/conv2d_24/Conv2D/ReadVariableOp f4 [24, 3, 3, 3]
00000000: e9df 84bd 5a14 c9bd 7d6a 64be e78c 3abe
00000010: 6ffd 86bd e4a9 753d 2c93 2f3e 930f 6dbc
00000020: 186c 0e3d bfe6 04be 5f0b 80be e64f efbd
00000030: 01b6 bbbd 80f7 e8bd 2506 1f3e 9e25 663e
00000040: 579d 5f3e 64f9 073e 15ae 07be 3edf aa3d
00000050: d65d c7bd 639b da3d bcc3 d23c e996 abbb
00000060: 0054 023e 8318 3c3e a791 da3d b6b1 9b3c
00000070: 0ac2 c93d f60c 103e 9f7e 563d 74bf 22be
00000080: b811 18be 243d 453e c777 f4bd 909f e73c
00000090: a74f 19be 3842 c03b 7bd6 333e 2590 6a3d
000000a0: 952b bd3c 22c8 113e 5ae4 4a3e 04fe 063e
000000b0: e03e 04be 1a2d 88be 381a 87be 2dd6 f6bd
000000c0: 8258 8abd b5cf 95bd 2f5b f43d 478b a73a
000000d0: bfe3 4bbe 5352 97bd f3c3 bdbd 6531 233e
000000e0: 2598 9ebd 1649 5bbe f7d6 54bd b49f 53be
000000f0: 86f1 45be a136 2f3e 7c55 ecbd f811 0f3d
00000100: eeef f53c ce0e 833d 7821 0a3d e760 283e
00000110: e1db c4bc cf3e 103e 1a99 103e 9edb e6bd
00000120: a82b 10bd baf4 793d af2e a53d 33c6 1dbd
00000130: 59be d73d 9af9 ecbd 9780 053e 635c 5b3b
00000140: 2034 823b bbba 4cbe 1fab a63d 62d4 da3d
00000150: 4eca 30be 8a57 edb8 2cb4 283e 5f99 1cbe
00000160: a1c5 c53d b7ee 38bc 8451 86be dbb6 68bd
00000170: b7be 03be 24ee 6cbd 2840 4c3e 6f08 3c3e
00000180: 9928 66ba a579 8c3d c35b 483e 78d3 42bd
00000190: 897e 21be b902 dd3d 588a 583d bbb6 363e
000001a0: 10be 983c 8f71 03bd 2024 193d 4f75 f6bd
000001b0: f59b 11be a7a0 2c3e c573 7abd 54f0 8cbe
000001c0: 5970 9f3c 410f 4a3e 975c f3bd 3799 01bc
000001d0: 8663 dd3d 9bb2 8dbe 6b85 ca3d 29f2 f83d
000001e0: c053 95be c48d 1d3e 629d 303e 6430 96bd
000001f0: f910 1b3e 9cea 9abd 2818 93be f6d4 7cbd
00000200: 7edd c63c 8257 49bd f513 a4bd aad9 853d
00000210: 8712 353d c92d 7dbd a144 11bd c31f e63d
00000220: 62a1 143e 96b3 283e 2dc9 babd 242c 23bc
00000230: f197 12bd bdde 94bd 871f b23d 0042 e73d
00000240: 9f96 fbbd 2ed7 97bc d4c9 163e 1401 0ebe
00000250: e1e6 29b9 8658 1d3e bb56 0abe 520c 293d
00000260: 9ca4 d43b f246 64be 80d3 53bd f785 673d
00000270: edcd 32be de4f 96bd de38 263e a397 2ebe
00000280: 7001 933d dbcc 263d 25ce 4d3e a3b2 81be
00000290: cf4a e53c 9453 363e 4620 42be 4417 25bd
000002a0: 5bfb 05bd 42a1 f4bd b309 0c3e 5309 523d
000002b0: c102 75be ba8c 8c3d efc9 033e b1be 0ebe
000002c0: 8e09 e13d 832b 303e f8e0 45be fb70 743d
000002d0: 6f3d efbc b654 1ebc d822 7e3d d568 093c
000002e0: fb08 babc 8229 91bc cab1 2fbd 8fba 02be
000002f0: 2840 5f3e 2046 3b3e fce3 eebc 747f 133e
00000300: 1a29 693e 1e70 9a3e 434c de3d 7641 94bd
00000310: ea5a 073e 7392 8bbd 50df 81be 2dc5 9bbe
00000320: 0966 95be 983f 28bc 58b1 9b3c ad59 d33c
00000330: 45af c4bc 879a 2f3e 81ef 273e 6767 d03d
00000340: 6316 b1bd 09cc e2bd f07b 3bbe 54b8 8ebd
00000350: 8129 02be a3b4 edbd 6ab7 103e 66f5 cabb
00000360: 4cc7 613d b258 913c 6135 b03d 8f96 82bd
00000370: 95e2 77bd 275e 5bbe bc52 89be 544f 52be
00000380: 2635 5bbc 3c18 05be 35ef 953d 6418 f13c
00000390: aa56 5ebc 7874 b03d 955b 58bd 3d94 99bd
000003a0: d874 d23c 3db2 2a3e bf12 e13c decf fdbd
000003b0: f60f 353e 302a 96bd 7495 6a3d 666f a63d
000003c0: 81f5 1f3c 6661 153e 2e44 6f3e 8e94 6e3e
000003d0: aae8 993d fd24 6d3d 4290 43bd 7e3c 453d
000003e0: 924c 293e d7e9 03be 621a 443d f0c7 1a3e
000003f0: d41b fdbc dfcb 6fbd e906 fdbc aabd b3be
-0.0648802 -0.09818335 -0.22306247 -0.18217812 -0.06591307 0.059976473 0.17145985 -0.014469045
0.034771055 -0.12978648 -0.25008675 -0.11685161 -0.09165574 -0.11375332 0.15529688 0.22475287
0.21837364 0.13278729 -0.13250001 0.08343361 -0.09734695 0.10674169 0.025728099 -0.0052364958
0.12727356 0.18368725 0.10672312 0.019005638 0.09851463 0.14067444 0.05236685 -0.15893346
-0.14850509 0.19261605 -0.11936908 0.028274328 -0.14971791 0.005867269 0.17562287 0.057266373
0.02309207 0.14236501 0.19813672 0.13182837 -0.1291461 -0.2659691 -0.2638719 -0.120525695
-0.06755163 -0.073150076 0.119314544 0.0012782597 -0.19911097 -0.07388749 -0.0926589 0.15936811
-0.07743863 -0.21414599 -0.05196282 -0.2066639 -0.19330415 0.17110683 -0.11539742 0.034929246
0.030021634 0.06399308 0.033723325 0.16443215 -0.024030628 0.1408646 0.14120904 -0.112723574
-0.035197884 0.061024405 0.08065545 -0.038519096 0.10534353 -0.11571045 0.13037334 0.0033471815
0.003973499 -0.19993107 0.081381075 0.1068504 -0.17264673 -0.00011317346 0.1647498 -0.15292881
0.09656835 -0.011287383 -0.26234066 -0.05681501 -0.1286572 -0.057844296 0.19946349 0.18362592
-0.0008779853 0.06859139 0.19566254 -0.047564954 -0.15770926 0.10791535 0.05286631 0.17843144
0.018645316 -0.03209072 0.037387967 -0.120340936 -0.14219649 0.16858159 -0.061145563 -0.27527106
0.019462751 0.19732381 -0.118828945 -0.007910064 0.10809998 -0.27675328 0.09888729 0.121555634
-0.2916546 0.1538611 0.17247537 -0.073334485 0.15143193 -0.075642794 -0.28729367 -0.061726533
0.024275538 -0.04915572 -0.08011619 0.06535657 0.044207122 -0.061811242 -0.03546584 0.11236527
0.14514688 0.16474757 -0.091204025 -0.009959254 -0.035789434 -0.072690465 0.086974196 0.112918854
-0.12284588 -0.018535223 0.14725429 -0.13867599 -0.00016203105 0.153658 -0.13509648 0.041271515
0.0064893495 -0.22292688 -0.051715374 0.056524243 -0.17461367 -0.07339452 0.1623263 -0.17050032
0.071780086 0.04072271 0.20098169 -0.25331602 0.027989773 0.1780532 -0.18957624 -0.04030539
-0.032710414 -0.1194482 0.13675575 0.051278424 -0.23926832 0.06862779 0.1287 -0.1393993
0.109881505 0.17204098 -0.193241 0.05967806 -0.029204099 -0.009663751 0.06204495 0.00838681
-0.02270936 -0.017719988 -0.042894162 -0.12766479 0.21801817 0.1828847 -0.029161446 0.14404088
0.22769585 0.30163664 0.108543895 -0.07239048 0.13218275 -0.06815042 -0.25365686 -0.3042387
-0.2917941 -0.010269068 0.019005463 0.025799597 -0.024009356 0.17148791 0.16399957 0.101759724
-0.08646848 -0.11074073 -0.18308997 -0.069687515 -0.12711145 -0.11606719 0.14132467 -0.0061938046
0.055121705 0.017742489 0.08603931 -0.06376373 -0.06051882 -0.21422635 -0.26820934 -0.20538074
-0.013379371 -0.12997526 0.07321016 0.029430576 -0.013570467 0.08615965 -0.052821714 -0.07498977
0.025690481 0.16669555 0.02747476 -0.12393163 0.1768187 -0.073322654 0.057271436 0.08126716
0.009763123 0.14587936 0.23365852 0.23298857 0.0751508 0.057896603 -0.047744997 0.048153393
0.16533116 -0.12882172 0.047876723 0.15115333 -0.030897059 -0.058544036 -0.030887084 -0.3510564

sequential_6/conv2d_24/Conv2D_bias f4 [24]
00000000: e450 2a3d 1896 a73d 7ed6 303b d741 d33c
00000010: 898f 84bd faa3 5f3c 83ef ce3c 3974 0f3d
00000020: 11b8 f5ba 1a68 f83d 5b6a 98bd 7217 f43c
00000030: f1ec 4abd 303e 243c 7bba 35bd e156 af3c
00000040: a2a7 c43b 79c6 cc3c 52f3 643d 9820 443d
00000050: 8e3a 84bd 2e0e 96ba 1dd0 903d 5a47 083d
0.04158105 0.08182925 0.0026983316 0.02578823 -0.0647269 0.013649935 0.025260692 0.035022948
-0.0018746873 0.12129231 -0.07442161 0.029796336 -0.04954237 0.010024592 -0.044367295 0.021403732
0.0060014287 0.024996983 0.05589611 0.047882646 -0.06456481 -0.0011448318 0.070709445 0.03327117

sequential_6/conv2d_25/Conv2D/ReadVariableOp f4 [24, 3, 3, 24]
00000000: 00e0 c3bd 9e32 9f3d 306d a4bd bcef 5abe
00000010: cb1b a8bd d171 b6be d9fc a83d 7af9 47be
00000020: ada9 12be 8476 d4bd 221e 3dbe e203 613e
00000030: 57a7 a8bd 396a 4b3e 769f f8bd 90fe 4dbe
00000040: d573 533d d282 963d 7323 e5bc 8b91 e6bd
00000050: 6a80 a0bb 12c7 5b3e e6ee a5be 5179 e1be
00000060: 9277 d3bd ba5c 273d 4784 3a3d 9519 c8be
00000070: 2c2f 2d3d 8d4b 47be 7294 a43d 7a58 96bd
00000080: b469 27be 80c3 bcbd 1a2b 603d 92dc 153c
00000090: f370 8cbd 7f64 453e de98 b93d 64fc 43be
000000a0: 6819 85ba 1ced 60bd 4860 a33c d391 95bd
000000b0: 3a76 13be f5f0 b73d fe87 3ebe 77c2 90be
000000c0: 6443 23be 2925 bfbd e94e 24be 311c 18be
000000d0: 53a0 313d 909e bcbd fa5a 283e 2c75 283c
000000e0: 761d 003b 5ff0 06bd 2441 b73d 6f1f c73c
000000f0: b630 77bd 2c1d 073e 8d96 a03d 6964 60bc
00000100: ead7 b63a 9128 b3bd e368 39bd 7b0f b2be
00000110: a97b fdbd ca8a b5bc 8c91 53be 7a1e fbbd
00000120: 51e8 cd3d cb81 973d a28f b8bb e6d1 9bbd
00000130: 54e8 3cbe 35b9 b7bd c79f db3d 9662 68be
00000140: 08d7 9bbd 1b2b 98bd a9fd 1dbe 1e48 c63d
00000150: c460 8cbd c33a 743d 9440 013e 2289 063e
00000160: 4449 8f3d 0d4b 373e ef74 49bd fa52 bcbd
00000170: b46d 45be fa56 07be 19e2 d23d 758e 9abe
00000180: 3d19 b13d b74a ba3c 8e72 06be 6434 d4be
00000190: 4167 55be 1464 59bd 70f5 6e3e def6 413c
000001a0: e61b e73c 8162 cdbd 34f6 453c f60e 06be
000001b0: 2fe5 2abd 5602 523d 4fa9 b7bd 5cb0 a7bd
000001c0: f974 fc3d e320 d83c 28b3 1e3d ebab fcbd
000001d0: 2172 28be edb3 b6bd d126 8e3d cd51 50bd
000001e0: c98b 093d 069b 88bd e07d a4bd d5fd a5bd
000001f0: 5057 0dbe 872d ee3d e9b7 f63c 7d38 263e
00000200: 4763 ed3d 2b8b 89bd 38c6 753c 8ec9 88be
00000210: f109 5abd 911e 5b3d 8daf 983d acb7 803d
00000220: 125d b5bd f1f0 813d d507 2a3d ca7a 56be
00000230: 3d3c 14be 26e7 91bd 5148 933d df33 b0bb
00000240: fcc2 ed3d f0af a6bc 9202 00bd 19e9 913e
00000250: 73e3 b3bd f68e 653c 7b31 22be 2dbf c2bd
00000260: 14c0 b23d 1e9e ae3d 00c2 ffbd 5130 2dbc
00000270: 4e9c 57bd 3039 1abe 915f 2e3d 3e3e 433e
00000280: 0fbd 5cbd ea58 643d e1cf e2bb 4e47 683d
00000290: 6928 25bd 065d 58bd 11c8 bb3d 66e4 473b
000002a0: 9dc2 4c3d 821a 8dbc 22c5 6bbd b299 a43d
000002b0: 7924 073d 6a45 f93d dc2d dabd c744 1f3e
000002c0: 5ddc a73d 87ee f83c b853 bdbb cc1e ce3c
000002d0: c04b 413c 969f a4bd a685 b9bd 835f b43c
000002e0: 1427 31be d588 21be fdb3 ad3d aa36 753b
000002f0: f7ed de3d 4024 e03d 1125 a33e 7fdb 3a3e
00000300: a84b b83d c34a 12bc b0d7 29be 6db4 9d3e
00000310: 0ed0 1b3d 1e7a 203e ce44 44be 3447 793e
00000320: 556f 1ebd 8474 ba3b ed37 1abd f5a0 85be
00000330: c760 8dbb 6c2f 98be 1412 31bd 8a80 993e
00000340: c768 c8bd 3ad8 36bd 999e a4bc 000c 6c3d
00000350: 9c30 21be 2aca 983d 2707 5b3e 8554 4d3e
00000360: d01a e73d 3804 c0bd bfe0 e13c bc14 023e
00000370: f3a7 013e d7c0 75bc 4cbc 79be c285 dcb9
00000380: 9982 023e 8490 05be c484 e93d 7cd4 1d3e
00000390: 4c8e d83d e967 fcbb cd5b 103d 5106 953d
000003a0: 9e6c bf3a bfe0 cbbd 3849 b0ba 79cd 3fba
000003b0: 6d17 b7bd 4071 aabd 188e 17bd 7c49 bf3d
000003c0: ff96 c43d 7a65 efbd 3fcd 33bd 8395 d13d
000003d0: 2c8d 7abe 359c 70bd 6ea7 9ebd 02cf 093e
000003e0: 907d 8c3d b443 19bd 9667 dcbd 121b e93c
000003f0: 4c43 d6ba e2a7 febd ff63 cb3d ee45 b83d
-0.09564209 0.07773326 -0.08028638 -0.21380514 -0.08208426 -0.3563371 0.08251352 -0.19528762
-0.14322539 -0.103741676 -0.18468526 0.21974137 -0.082350425 0.1986474 -0.1213979 -0.20116639
0.051624138 0.07349171 -0.027971005 -0.11258229 -0.0048981206 0.21462658 -0.32408828 -0.4403787
-0.103255406 0.040859915 0.045536306 -0.39082018 0.042281315 -0.19462414 0.08036126 -0.07341094
-0.16348916 -0.09216976 0.054728605 0.009146826 -0.06857481 0.19276617 0.0906236 -0.19139248
-0.0010154666 -0.054913625 0.019943371 -0.073032044 -0.14400569 0.08981506 -0.18606564 -0.28273365
-0.15943676 -0.093332596 -0.16045727 -0.14854504 0.043365788 -0.09209931 0.16440955 0.010281842
0.001954881 -0.03294408 0.089479715 0.02430698 -0.06034919 0.13194722 0.07841215 -0.013695815
0.0013949845 -0.08747972 -0.045266043 -0.34777436 -0.12377102 -0.022160906 -0.2066099 -0.12261672
0.100540765 0.07397803 -0.0056323567 -0.07608394 -0.18448001 -0.08970872 0.107238345 -0.22693858
-0.07609373 -0.07430097 -0.15428795 0.09681724 -0.06854394 0.059626352 0.12622291 0.1313825
0.06996396 0.17899723 -0.049183782 -0.09195514 -0.1928013 -0.13216773 0.10297031 -0.3018681
0.08647392 0.022740705 -0.13129637 -0.4144622 -0.2084017 -0.053073958 0.23335814 0.011838643
0.028211545 -0.10028554 0.012082625 -0.13091645 -0.041722473 0.05127176 -0.0896784 -0.08187935
0.12326998 0.02638287 0.038745075 -0.12337478 -0.16449787 -0.08921037 0.069409974 -0.05085926
0.033580575 -0.066701934 -0.08031821 -0.08105055 -0.13802838 0.116297774 0.030116992 0.16232486
0.11591201 -0.06715997 0.015000872 -0.26716274 -0.053232137 0.053495947 0.07455359 0.06285033
-0.088556424 0.06344784 0.041511375 -0.20945278 -0.14476104 -0.07124166 0.07191528 -0.0053772773
0.11609456 -0.020347565 -0.03125245 0.28498152 -0.08783617 0.014011135 -0.15839188 -0.0950912
0.08728042 0.08526252 -0.124881744 -0.010570602 -0.0526393 -0.15060878 0.042571608 0.19066712
-0.053891238 0.055748858 -0.0069217538 0.056708626 -0.04032174 -0.05282309 0.09169019 0.0030501126
0.049990285 -0.017224554 -0.057561047 0.080371276 0.032993767 0.12171443 -0.10653278 0.1555358
0.08196328 0.030387176 -0.0057778023 0.02516117 0.011797845 -0.08038251 -0.090586945 0.0220182
-0.17300063 -0.15774854 0.08481596 0.0037416616 0.10885232 0.10944414 0.31864217 0.18247794
0.08998805 -0.008928957 -0.16586185 0.30801716 0.038040213 0.15671584 -0.19166872 0.24343568
-0.038680393 0.0056901593 -0.03765099 -0.26099363 -0.0043145153 -0.2972368 -0.04323013 0.2998088
-0.0978561 -0.044639803 -0.020095157 0.05762863 -0.157412 0.07460435 0.21389447 0.20051773
0.11284411 -0.09375805 0.027572988 0.12703222 0.12661724 -0.01499959 -0.24388236 -0.00042061327
0.12745132 -0.1304341 0.11402276 0.15413088 0.10574016 -0.0077028167 0.035243798 0.072765954
0.0014604514 -0.09954976 -0.0013449555 -0.00073166896 -0.08940015 -0.08322382 -0.037000746 0.09340188
0.09599113 -0.11689277 -0.04389691 0.10233595 -0.24467915 -0.05874272 -0.077467784 0.13457873
0.06859887 -0.037418082 -0.10761945 0.028455291 -0.001634696 -0.12434365 0.09931182 0.08997713

sequential_6/conv2d_25/Conv2D_bias f4 [24]
00000000: 3124 7c3d 0704 263e d829 873c 4b14 cd3c
00000010: 31d1 083d a926 18bd 0d34 febc 0bf3 fcbc
00000020: cff0 04bc bd6a 853c c9b2 dabd 2d3c a8bd
00000030: f05b cbbc 8a57 173d f5b7 34be ed2c 833c
00000040: 7ebd b0bb 6838 643d c44e 903d 3177 5cbd
00000050: 85ce 65bd 3e53 3a3d 1a21 2d3d 262c e9bc
0.061557952 0.16212474 0.016499445 0.02503409 0.033402625 -0.037146244 -0.03103068 -0.03087761
-0.008114054 0.016286248 -0.10678632 -0.082146026 -0.024824113 0.036948718 -0.17648299 0.016012633
-0.005393683 0.055717856 0.07046273 -0.053824607 -0.056105155 0.045489542 0.042267896 -0.028463434

sequential_6/conv2d_26/Conv2D/ReadVariableOp f4 [32, 3, 3, 24]
00000000: 6b3e 253e 1491 8bbd 2599 133c 6c51 1ebd
00000010: fbd3 f33d 93a1 483d d5c4 f13d 961b 4dbd
00000020: c2d3 d6bd 7bcc 65bd 11d5 2cbe 1e96 82be
00000030: 0163 1d3c 0b8b 933c 3773 653d 20bf 91bd
00000040: cb12 f33d 6c55 5e3e 091b 043e ac5d 38bd
00000050: 7d3a 7e3d fb1a b83d c7cf 19be 5af8 0bbd
00000060: 241c 8a3d 6546 d93d 99aa c7bd a807 f73d
00000070: df7e 473e 25f9 8dbe 5aec 773e d61c 053e
00000080: e506 2cbe 2959 d43d 7d00 0bbe 7385 4fbe
00000090: b1b5 fe3d e081 f0bd 9a65 b0be f458 28bd
000000a0: 2765 02be 9e86 90bc 1e0f 4d3e d66a 2ebd
000000b0: fe98 a7bd b419 953d 9dc4 32bd b7ae 15be
000000c0: c7b7 043e f8cf 3ebd 83ae c23d d7ca 893c
000000d0: 4c5d 263e 9671 983d 42b1 753d bea3 bd3d
000000e0: c6e5 353d 099d 64be 914b 43be b44a 2fbe
000000f0: 5d1d 423d 8857 71be 6b6c e53d 09ed 013e
00000100: a579 9d3a 9011 863d 07ad 403e fec6 e93d
00000110: 1c6f 273e 79cd 8b3e bded 2f3d f47c 4ebd
00000120: 7ab4 a63d 263b 973d 1e74 4e3d 443c 81bd
00000130: 75c0 383e df06 523e 3dcc b9bd 00f5 933d
00000140: 3529 4cbc 2c82 f1bc 55c4 1b3c 646c 7abd
00000150: f32c 863d 164c 56bd 71d7 863c 4443 ee3d
00000160: d920 803d f619 313e 9e26 46bc bc66 cdbd
00000170: 37b6 533e 20fc 0f3e 0cd6 603d cb39 a53c
00000180: b7a5 74bd 45a0 963c f33d 383d a691 3dbd
00000190: 090a e03d b3a8 d6bd c9a5 53ba 2735 6fbc
000001a0: 3570 d03b c5fe 46be c9be e2bd 2e39 09be
000001b0: cb34 e7bd 9a2c 9abd 0fc6 afbe 6b3a 6abd
000001c0: 181c 4d3b ca1b 06be 70e0 02bc 489c 5b3d
000001d0: c6b3 7ebd 0d49 d03d 3bb9 7c3c 552a 5f3d
000001e0: 5bbf e33d e9c2 49bb 93fe e3bd de39 a6bd
000001f0: 4ed4 f2bc 5835 20be 763b bb3d c8f1 e4bc
00000200: 8a12 293d 0cdb 5bbd 2c4c 623d 65c8 47bd
00000210: 25b4 623d 41b3 653d 0af9 11be 7d4d 47be
00000220: 3bbc 253d 8340 8cbd b0d9 0dbd 4d2d 813d
00000230: 71f2 eabc 66e6 3c3c 4af9 693c c352 5c3b
00000240: 60a0 8dbe bcee 2f3e c017 d13c 2b2f 21bd
00000250: 764d 68be dc67 82bc 2550 26be 69c3 913d
00000260: 3852 963d 85b2 1b3e 2884 c7bc 2d6a c7bb
00000270: 4548 86bd dba3 0cbd 19c7 bdbd d3c7 6b3c
00000280: 270d 0dbe e228 0cbe 4ddd 3e3d 67b3 913b
00000290: 8686 493e ce88 58ba bcc5 12be 1f66 22be
000002a0: df32 3abe b8a6 c13d 496d 1a3d 422c 32be
000002b0: 158e d4bc c1b1 23be 9f19 9ebd 6e10 dbbb
000002c0: f9aa 86bb bf0b 70be 4ac3 723c b1e7 1e3e
000002d0: 3af7 41bc d811 273e e23f a6bd e6d7 1f3d
000002e0: bced 18be 4c90 46bd 03b8 5ebd 63f2 863c
000002f0: a91e 2ebd a42d 83be b6c0 6bbe 2336 8b3b
00000300: 2ea7 e9bd 11ce 1a3e b792 e1bc 6188 2dbe
00000310: e548 adbd 0662 b1be 9c52 78bd f1c1 663d
00000320: 03d3 833d 5d0d 81be a7b4 dfbd 59c5 df3b
00000330: 81cf 1cbe 1566 17be 0831 3cbd c7cc 81be
00000340: f8f3 0fbc f338 2dbe 7d6b 113d f192 203d
00000350: 591c b4bb fd89 f5bd 996c 393c 2654 4fbd
00000360: 849d 9abe 40c1 cf3c 673b ab3d 8286 00be
00000370: 203b fcb7 ee76 debc 9eec 14be c46d 91bd
00000380: 6753 963d 957b c53d 943f 09be bf44 153d
00000390: 354c 44bc 5276 93bc f1af ecbe 771c 7cbc
000003a0: c019 aabc 527a a03d f182 1b3d 6b96 cdbd
000003b0: aee2 383e 3787 37be 475e 25bd f831 933d
000003c0: b757 44be 15a5 1a3e 0370 313e 82fb 57be
000003d0: d2bc 50bd 8755 40be f3fe 5abd 8664 233e
000003e0: f286 393e cbb6 223e f12c 16bd 76d5 2cbd
000003f0: 1765 5bbe 18cf 183d 6119 32be 61b3 99bc
0.16137092 -0.06814781 0.0090086805 -0.03865187 0.119056664 0.048982214 0.11805121 -0.050075136
-0.10489608 -0.05610321 -0.16878153 -0.25505155 0.009606124 0.018010637 0.05601808 -0.07116532
0.11868819 0.21712273 0.12900938 -0.045011207 0.062067498 0.08989521 -0.15020667 -0.034172393
0.06743649 0.1060913 -0.09749336 0.12062007 0.19481991 -0.27729145 0.24211255 0.12999281
-0.16799505 0.103685685 -0.13574405 -0.2026575 0.12436999 -0.11743522 -0.34452516 -0.041100457
-0.12733899 -0.017642315 0.20025298 -0.042582355 -0.08183478 0.07280293 -0.043644536 -0.1461743
0.1296073 -0.046585053 0.09505942 0.016820354 0.16246527 0.0744354 0.0599835 0.09259747
0.044408582 -0.22325529 -0.19071795 -0.1711834 0.047391284 -0.23568547 0.1120232 0.12688078
0.0012014402 0.065463185 0.18816005 0.11414908 0.16350979 0.273052 0.042951334 -0.050412133
0.08139892 0.073843285 0.050403707 -0.06310323 0.18042167 0.20510434 -0.090721585 0.072244644
-0.012460996 -0.029481016 0.009507258 -0.061138526 0.06551542 -0.052318655 0.016460152 0.11633924
0.06256265 0.1729506 -0.012094168 -0.10029361 0.20674978 0.14061022 0.05489163 0.02016916
-0.05972835 0.01838697 0.044980954 -0.04628148 0.10939414 -0.104813956 -0.0008073715 -0.014600075
0.0063610324 -0.19433124 -0.11071546 -0.13400719 -0.11289366 -0.07528038 -0.34330794 -0.057184618
0.0031297263 -0.13096538 -0.00798808 0.05361584 -0.062183164 0.10170183 0.015425022 0.05448373
0.111204825 -0.0030786342 -0.111325406 -0.08116506 -0.02964225 -0.15645349 0.09142201 -0.027947322
0.041277446 -0.053675696 0.055248424 -0.048775095 0.05534758 0.056079153 -0.14255157 -0.19463153
0.040462714 -0.06848242 -0.03463143 0.063074686 -0.028680058 0.011529541 0.014280627 0.0033618666
-0.2766142 0.17180914 0.02552402 -0.039351624 -0.22685799 -0.015918665 -0.1624151 0.0711735
0.07339901 0.15204819 -0.02435501 -0.006085655 -0.06556753 -0.034335952 -0.092664905 0.0143909035
-0.13774548 -0.1368747 0.046597768 0.0044464353 0.19680223 -0.00082601316 -0.14333242 -0.15859269
-0.18183468 0.09455627 0.03770188 -0.17399696 -0.025946656 -0.15985776 -0.077197306 -0.006685308
-0.004109737 -0.23441981 0.014817068 0.15518071 -0.011838729 0.163154 -0.081176534 0.039024256
-0.14934438 -0.048477456 -0.054374706 0.016473 -0.04250971 -0.2562076 -0.23022732 0.004248397
-0.1140884 0.1511767 -0.02753578 -0.16946556 -0.08461169 -0.34645098 -0.060625657 0.0563373
0.06436732 -0.25205508 -0.109231286 0.0068289456 -0.15313531 -0.14785035 -0.045945197 -0.25351545
-0.008786194 -0.16916256 0.0355029 0.039202634 -0.0054965434 -0.1198921 0.011317396 -0.05061736
-0.301983 0.025360703 0.083609395 -0.1255131 -3.0068273e-05 -0.02715632 -0.14543387 -0.07101014
0.073401265 0.09642712 -0.1340316 0.036442515 -0.01198106 -0.018000755 -0.46227983 -0.015387646
-0.020764232 0.07835831 0.037966672 -0.100384556 0.18055221 -0.17922674 -0.040373113 0.07187265
-0.19174086 0.15102036 0.17327885 -0.21092036 -0.050961323 -0.18782626 -0.053465795 0.15956315
0.18117884 0.15890042 -0.036663953 -0.04219576 -0.21425281 0.037306875 -0.17392494 -0.018762292

sequential_6/conv2d_26/Conv2D_bias f4 [32]
00000000: e8c0 d73d e182 9a3d 84f7 c93d 2ad2 4ebd
00000010: d0ad cc3d 9d47 253e 26a9 a43c dacd 833d
00000020: 60e1 7cba fa2b 0dbd c139 723e aa0a 473d
00000030: 5388 9cbd 5538 21be f272 8bbb 8bcf 14be
00000040: c83e a9bd 581e aa3b 8633 a2bd d222 2fbd
00000050: 770c 2d3d fe44 813e 4071 7d3e 73e0 7b3e
00000060: c130 06bc 0963 aabd 8898 f13b b200 81bd
00000070: 47b7 d03d 87b1 a73d b543 d93d 68ff 6d3d
0.10534841 0.075444944 0.09861663 -0.050493397 0.099940896 0.161406 0.020100188 0.064357474
-0.00096466206 -0.034465767 0.23654844 0.048594154 -0.07643189 -0.15744145 -0.004255646 -0.14532296
-0.08263928 0.0051916055 -0.079199836 -0.042757817 0.042248216 0.2524795 0.24750233 0.2459734
-0.008190335 -0.08319671 0.0073729195 -0.06298961 0.101912074 0.081881575 0.10608617 0.058104903

sequential_6/conv2d_27/Conv2D/ReadVariableOp f4 [32, 3, 3, 32]
00000000: 403f 06be 9b5e 4c3d b827 cabd 2316 11bd
00000010: bff8 35bd 299f c33a 6e28 62bd 2c29 28bd
00000020: e1de 41bb 0aa2 57bc 6c63 b9bd 13f3 56bd
00000030: 40bc ba3a 8235 0fbe 44bb f3bd d6a5 553d
00000040: ed65 b8bd 8255 163d 4737 03bd b50d d3bd
00000050: ce86 0abe 8bc7 aabc 213c 21be 1ba2 f63b
00000060: 98bc abbd 1dda 3cbd 1afd a1bc 1146 9cbc
00000070: 8173 303b f26d 50bd b736 18be 6c04 903d
00000080: 8833 ccbd 21f8 9dbd c333 25bd f0d1 babc
00000090: fc15 8bbd da2f 823d d3fc 8c3c 32f6 b33c
000000a0: 7309 01be 347c 0dbe 7de9 1fbd 80f8 2b3d
000000b0: d05e 34bc c6ab b0bd d2ee 7a3c 0aab b8bc
000000c0: 0dbe 00be 4ced 8f3d aa94 ccbd 5d4c f1bc
000000d0: f40d 543d 083f 8bbd 6789 c3bd 58bc 133d
000000e0: f76d 73bb f75a 583d fdc7 1dbd e3dd 59bd
000000f0: 05aa 353d 708c c2bc 6d25 debd 1020 eabd
00000100: 986a 7cbd 893b 583d b755 06be 166a 233d
00000110: 1da1 09be 5ca7 0fbd e244 a9bd e983 12bd
00000120: 5431 09bc a06f 15be 18e5 87bc 64d0 2f3d
00000130: 505c 863d a4f3 7ebd 11c0 96bb 1575 44bc
00000140: 7854 eabd acec 33bd 7b30 e5bd 7199 453d
00000150: 5f21 0eba eed5 9cbc 26ac 6bbd 7242 3dbd
00000160: 63eb 88bd 5e2a 5c3c 1a41 75bc 551b ccbd
00000170: 12f6 403d be1a b3bd 236f 1ebe d825 88bd
00000180: 6bd8 6fbd b2c7 ce3c ee27 cebd 036d afbd
00000190: c2a0 92bc 6878 bcbd 2cd7 be3b 00d3 2fbc
000001a0: e79b 3ebc 664d 3dbd f60d 7bbd 2e28 a6bd
000001b0: 44f8 6c3d 1ba5 ecbd 92f0 95bd 0a4f 87ba
000001c0: 0dd5 923d 3a16 5cbd 60fd 12bd 187f 02bd
000001d0: b975 203d b313 05ba f0cb 42bd 262a 3dbc
000001e0: ad15 39bd 6653 70bd b5de 46bd 5089 9c3d
000001f0: 369e 8bbd d953 703c 9282 8bbd de70 743d
00000200: 12f9 bfbc 0eb3 9abd 07f6 fcbd 8ea5 c4bd
00000210: 69b3 2dbc 02b0 003c 16da bd3d 770b cebd
00000220: 68e9 b2bc 758d c2bc 5b20 963d 7845 553d
00000230: 5878 4ebd 61f8 12be 0634 8bbd b11e 89bd
00000240: 5c14 aebd 3842 b9bd 46e5 c1bd 4434 afbd
00000250: cdba f63b e36e a53d 8726 463c 4b2e 25bd
00000260: ea2b c6bd 41f3 c03d 38ba dbbd f42b 323d
00000270: 28b2 4dbc 790d a7bd f0ff ffbd 54eb 0abe
00000280: 8cb0 023d 6d41 8abd b951 f33c dd69 0f3d
00000290: f486 9cbd 13f3 9e3a c955 aebc b40f 1bbe
000002a0: 7080 58bc 5f0f 33bd 4ce1 04bd 2f41 babc
000002b0: c0de 1e3d 0ae4 96bc 1357 4c3d 47f8 65ba
000002c0: 05d9 b5bc 51d1 8ebd ef83 3dbc f26a d43c
000002d0: f0ab 6bbd 4f73 84bd 2c94 2f3d f3f5 17be
000002e0: d49a cdbb 25bb acbd 2886 313d 23e3 0fbc
000002f0: 68df 8b3d 86c6 04be e0b7 4c3d e869 ffbb
00000300: 8e3f 84bd 44f1 f1bd efac 98bd 99a8 f6bb
00000310: 4ae4 c93b 594e 203b db34 6dbd 53d7 bcbc
00000320: b2ac d23c 55f0 55bd be0b 8abc 474d aabd
00000330: 7003 e73b 0983 1bbe 9d47 15be c14a 00bd
00000340: 3b38 d5bd 174f 35bd ca41 5ebd 98f3 a3bc
00000350: b7de c4bd ed5e 09be 2f37 a1bd aee4 eabd
00000360: 1c84 173d 4155 b0bd 529d 06be b9cb dfb9
00000370: 3a94 a8bd 5426 dabc 5579 22bd 5e2b a3bc
00000380: fbd5 883d 741f dcbc b5b1 293d cfcb 98bc
00000390: 45a2 3ebc d786 89bd 7ad8 763d c7bf 0abe
000003a0: 3ebf d23c 4d54 9f3b 778e b83d 4898 f43c
000003b0: 82ff 8f3d 86a7 35bd aa8f bcbd 5c65 cbbd
000003c0: 18be 43bc 67fd 92bd 2ed0 51bd a18f 163d
000003d0: d6b6 683d d7f1 6bbd 8f01 07be 0daf fbbc
000003e0: 34f2 853b f7d2 36bd 1f44 8fbd 377a 2ebd
000003f0: c7ba 0d3e 00f5 4cbc 9edd 9dbd ce26 653d
-0.13110065 0.04989491 -0.09870857 -0.0354215 -0.044426676 0.0014924753 -0.055214338 -0.04105489
-0.002958231 -0.013161192 -0.09052166 -0.052477907 0.0014246777 -0.13985255 -0.119009525 0.052160107
-0.09003816 0.03670264 -0.03203514 -0.10305349 -0.13527986 -0.020847103 -0.15745594 0.0075266487
-0.08385581 -0.046106447 -0.019774009 -0.019076379 0.0026924314 -0.050886102 -0.14864622 0.070320934
-0.09970766 -0.077133425 -0.040332567 -0.022805184 -0.067913026 0.06356783 0.0172104 0.021967981
-0.12601261 -0.13816911 -0.03904103 0.041985035 -0.011008933 -0.08626513 0.015315728 -0.022542495
-0.12572499 0.07027683 -0.09989293 -0.029455358 0.05177112 -0.06799132 -0.09547692 0.03606829
-0.0037144402 0.052821126 -0.0385208 -0.053190123 0.044351596 -0.023748606 -0.10846982 -0.11431897
-0.061625093 0.052791152 -0.13118635 0.039896093 -0.13440366 -0.035071716 -0.082650915 -0.03577033
-0.008373577 -0.14593363 -0.016588733 0.042923346 0.06560576 -0.062244073 -0.004600533 -0.011990805
-0.114418924 -0.04392688 -0.111908875 0.048242036 -0.0005421843 -0.019144978 -0.05753722 -0.046205945
-0.066855215 0.0134378355 -0.014969135 -0.09966151 0.04710967 -0.08745335 -0.15472083 -0.06647843
-0.058556 0.025241707 -0.1006621 -0.08565714 -0.01789892 -0.09202653 0.0058239903 -0.010731459
-0.01163385 -0.04621639 -0.06129261 -0.081131324 0.057853952 -0.11554929 -0.07321276 -0.0010323238
0.071695425 -0.053732134 -0.03588617 -0.031859487 0.03917477 -0.0005076483 -0.04755777 -0.0115456935
-0.045186687 -0.058673285 -0.048552234 0.07643378 -0.06817286 0.014668428 -0.06812014 0.05967795
-0.023434196 -0.07553683 -0.123516135 -0.096018896 -0.010601857 0.0078544635 0.09270112 -0.100607805
-0.021839812 -0.023749093 0.0733039 0.052068204 -0.050407737 -0.14352562 -0.06797032 -0.06695307
-0.08499977 -0.09045833 -0.094675586 -0.08554891 0.0075295926 0.080777906 0.012094147 -0.04032735
-0.09676345 0.09421397 -0.10728878 0.04349895 -0.012554683 -0.081568666 -0.12499988 -0.13566333
0.03190665 -0.0675076 0.029702054 0.03501307 -0.07642928 0.0012126885 -0.02128114 -0.15142709
-0.013214216 -0.04371583 -0.032441422 -0.02273616 0.03878665 -0.018419284 0.049887728 -0.0008772653
-0.02219821 -0.06973518 -0.0115671 0.025929902 -0.05753702 -0.06467306 0.042865917 -0.14839916
-0.0062745605 -0.084341325 0.043340832 -0.008782181 0.06829721 -0.12966356 0.049980044 -0.0077946074
-0.064574346 -0.11813596 -0.074548595 -0.0075274226 0.0061612474 0.0024460761 -0.057911735 -0.023051893
0.025717113 -0.05223115 -0.016851302 -0.08315521 0.0070499703 -0.15186705 -0.145781 -0.03132129
-0.10411116 -0.04426488 -0.05426196 -0.020013615 -0.09612792 -0.13415118 -0.078718536 -0.114693984
0.036991224 -0.08610011 -0.1314595 -0.0004268566 -0.08231397 -0.026629604 -0.039666492 -0.01991814
0.066814385 -0.026870467 0.04142924 -0.018651871 -0.011635368 -0.06715172 0.060265042 -0.1354972
0.025725957 0.0048623444 0.09011548 0.02985777 0.07031156 -0.044349216 -0.09207089 -0.09931442
-0.011947177 -0.07177239 -0.051223926 0.03675807 0.05681499 -0.057603683 -0.13184188 -0.03072312
0.0040877108 -0.044634786 -0.06995415 -0.042597022 0.13840781 -0.012509584 -0.07708286 0.05594521

sequential_6/conv2d_27/Conv2D_bias f4 [32]
00000000: 4b04 5fbd 9c31 3e3e bfd0 3fbd 032d 90bd
00000010: 0499 76bd ef62 a03d f137 8abc 6e4f be3c
00000020: 2acc 75bd ed22 f5bc 52bb 833d 6985 01be
00000030: d21a 4b3d e23d 543d 4a24 133b 0c4b c63d
00000040: 12ad 6bbd 3d88 5dbd 13d4 4abd 9fc4 14bd
00000050: 665c 2f3e 8e0c 77bc ffda 1b3d a5e8 1e3e
00000060: a58d 15be edb5 e23d 408f 283b 07ef 3c3e
00000070: e93c 94bc b1bb eb3d 2ff4 903d 8f84 1d3d
-0.054447453 0.18573612 -0.046829935 -0.07039835 -0.06020452 0.0783137 -0.016872378 0.023231234
-0.06000916 -0.02992388 0.06432213 -0.12648548 0.049586125 0.05181683 0.002245205 0.09682283
-0.0575381 -0.054085005 -0.049518656 -0.036320325 0.17125091 -0.015078677 0.038050648 0.15518434
-0.14604814 0.11069856 0.002572015 0.18450557 -0.01809545 0.11510409 0.07077824 0.038456496

sequential_6/dense_16/MatMul/ReadVariableOp/transpose f4 [64, 800]
00000000: 204e 803c 4b77 7bbd d0f1 cd3b cbea a7bd
00000010: b462 d53c 09b0 2fbd a7d1 c6bd 56aa 5dbd
00000020: 463b 383d 4c5d dfbc b118 98bd 097e 113b
00000030: 7e1c 58bc d857 a9bd 96fb c5bc 8b38 45bd
00000040: 6189 aa3d 60ff 283d 2bf5 2cbd b8a2 f63b
00000050: 8172 7abd cbd1 513d 82bc 473d a010 ddbc
00000060: 0c0f e03c b3bf babd dee1 8cbd c1a6 1b3c
00000070: 5cae ecbc 17eb afbd 503b f9bc 0565 a2bd
00000080: 0070 a1ba ce24 8cbd 0038 f23c 2017 e23c
00000090: c670 0bbd 48af 40bd 4ef5 ccbd 8987 823d
000000a0: 7658 5f3d a05c 273b 2da3 43bd 3689 84bd
000000b0: b3ab 25bd 822c 673d 6f33 813d 5320 6fbd
000000c0: b03e 83bb 2084 b1bd a08b b0bc 8bb4 64bd
000000d0: d716 4ebd 5a94 613d 836e 8fbd 3bf8 0dbd
000000e0: 19be 9d3b f5b8 593d 7599 1fbd e21b 61bd
000000f0: c32e 9ebd 0623 57bc 604e 313d 1376 9cbd
00000100: 98ef 34bc 3189 9a3d b697 79bd 00cc a7bb
00000110: 0a10 323d 1ece 59bd fad0 52bc 0207 2f3d
00000120: d692 473d 9625 87bd 241d c73c 1d13 aabd
00000130: b997 cbbc 0b76 52bd 89c5 a23c 5b62 83bd
00000140: ab5e a83d fbbb 80bd b623 d8bc 8266 f4bc
00000150: 1043 5fbd 6ce9 983c 76b3 3cbd b340 93bd
00000160: e676 9ebd 3adb 8dbc 3e0d 12bd 06a9 afbd
00000170: 06f3 b9bd 3258 99bd a757 973c fadd fc3c
00000180: 5b92 3cbd da85 febc d6d6 aebd de09 993c
00000190: 96f4 57bd a21f b4bc 7100 afbd 93ad 87bd
000001a0: 8091 06bd 60e0 8ebd 2525 44bd fcb9 53bc
000001b0: 3dff 3b3d 5faf 72bb cb19 8abd b3b7 e0bc
000001c0: a6dd 573d 200b 4abd c0b8 143d 427e e73c
000001d0: 15ce 713d d014 83bb 76c3 d5bc c067 433c
000001e0: 77cf ae3c e79f c8bc 74b6 90bd 68fe 643c
000001f0: 2032 5fbd 1bc0 efbb 0f10 29bd 9aa1 b73c
00000200: e6f0 17bd 276b 493d 84da b13c c2bc b3bd
00000210: 0005 aa3c f28c 9ebd 8df6 32ba 1be1 2abd
00000220: ab39 59bd 683f 2f3c ac5a cebd 3e3d 60bd
00000230: 2ebc 893c 2588 0abd 6047 5fbd 82f3 303d
00000240: 2808 49bc a615 57bd 2e87 84bd b21f 443d
00000250: 5c36 433d d59f eebc 9b40 71bd ffbe c1bc
00000260: 8ff0 7bbd f134 a0bd 8d20 12bd e1a6 ea3c
00000270: 000b a7bb 787c 663c 2902 1a3d d016 59bd
00000280: d6a3 85bd a607 51bd 8e24 88bd 5b83 8b3d
00000290: 980b 3ebc 30bc 45bd 44ee 43bc 1416 6cbd
000002a0: 2027 69bd 4c44 a63c 5963 7d3c 1a77 2b3b
000002b0: 462a 26bd 3be2 8f3d 985e 59bc 516a cbbd
000002c0: 06c0 1c3d 00b9 cd3c e6ef 6d3d 46a4 133d
000002d0: 7420 aebd 4664 a039 cad5 1c3d 2837 a53c
000002e0: a3fe a7bd 4e39 7cbd a9f7 efbb 5171 d03c
000002f0: d638 24bd 880c b6bd e759 883c 6241 9cbd
00000300: 13d6 84bd 2820 69bc eb06 73bd 61fe acbd
00000310: 0022 143c 7781 a8bd b3e3 78bd 37ae 51bd
00000320: 2201 753d 9024 293d c4d6 20bd 2376 0b3d
00000330: 099d 53bc f959 7ebd 20bf c3bc 8cbb 84bd
00000340: 6038 0ebb 2a4f 4d3d 9302 a23d 4272 8dbd
00000350: c479 2e3d d82b 203c 4ce5 afbc 66b6 f6bc
00000360: 4cc0 e13c 2e30 9abd 3bb3 3abd f1e1 96bc
00000370: 93f0 83bd f7b7 6fbd a9af b0bd 9eb3 8c3d
00000380: 00e0 98b8 dbfd 76bd 3c9d e9bd a670 11bd
00000390: 6adf 283d d0c6 923d ec2e f9bc 4d22 02bd
000003a0: 0034 9f3a 0e67 97bd bebf aabd acd6 8abc
000003b0: da2b 0d3d e39f e6bd 404f 223d 9211 86bc
000003c0: 7389 a3bd cbaa a6bd 39f8 a23d 3707 723c
000003d0: 8395 80bd 1321 07bd e64f 06bd 7374 2d3d
000003e0: ca59 7ebd 1f30 87bd bc1c 343c c81f 2e3d
000003f0: db57 06bd 56dc 753d 6b65 363c 85fd 573c
0.015662253 -0.061393064 0.00628493 -0.0819908 0.026048042 -0.04289249 -0.09707957 -0.054117523
0.044978403 -0.027266167 -0.074265845 0.0022200367 -0.013190387 -0.08268708 -0.024167817 -0.048149627
0.08326984 0.04125917 -0.042225998 0.007526722 -0.061144356 0.051225465 0.04876376 -0.026985466
0.027350925 -0.09118595 -0.06879018 0.009500206 -0.028891735 -0.08589762 -0.03042379 -0.07929424
-0.0012316704 -0.068429574 0.029567719 0.027598917 -0.034043096 -0.04704216 -0.10007726 0.063735075
0.054527722 0.0025537387 -0.04776304 -0.064714834 -0.04044695 0.05643893 0.06308638 -0.058380436
-0.0040052757 -0.08667779 -0.021550953 -0.05583624 -0.05031475 0.05507312 -0.070035 -0.03466056
0.004813921 0.053154904 -0.038964707 -0.05495823 -0.07723763 -0.013130909 0.043287635 -0.07639708
-0.011043452 0.075456984 -0.0609357 -0.0051207542 0.043472327 -0.053175084 -0.012867207 0.042731293
0.048724018 -0.06598966 0.024305888 -0.08304427 -0.02485262 -0.051382106 0.019869583 -0.06415244
0.082211815 -0.062858544 -0.026384216 -0.029834036 -0.054507315 0.018665992 -0.046069585 -0.07190075
-0.07737522 -0.01731645 -0.03565716 -0.085771605 -0.09079556 -0.07487525 0.018474413 0.030867565
-0.046038013 -0.031069685 -0.085370705 0.018681463 -0.05272349 -0.02198774 -0.08545006 -0.066249035
-0.032853603 -0.0697639 -0.047886986 -0.01292276 0.04589771 -0.00370308 -0.06743201 -0.027431345
0.052701615 -0.049327016 0.036309004 0.028258447 0.059034426 -0.004000284 -0.02609418 0.011926591
0.021339161 -0.02449031 -0.0706605 0.013976671 -0.054491162 -0.007316602 -0.04127508 0.022415925
-0.037094973 0.049174454 0.021710642 -0.08776237 0.020754337 -0.07741727 -0.00068269 -0.041718584
-0.053033512 0.01069627 -0.10075888 -0.054745905 0.016813364 -0.033821244 -0.054511428 0.043200977
-0.012270011 -0.05251088 -0.06471096 0.04788179 0.047659263 -0.029128948 -0.058899503 -0.023650644
-0.06150871 -0.07822598 -0.035675574 0.028644027 -0.005097747 0.014067762 0.037599716 -0.05300027
-0.0652539 -0.051032685 -0.06647597 0.068121634 -0.011599444 -0.048275173 -0.011958662 -0.057638243
-0.056922078 0.020296238 0.015465581 0.002616352 -0.04056766 0.07025572 -0.013267182 -0.099323876
0.038269065 0.025112629 0.058090113 0.036045335 -0.08502284 0.00030592288 0.038289823 0.020167902
-0.08202865 -0.061578088 -0.0073232246 0.025444658 -0.040093265 -0.08889109 0.016644431 -0.07629658
-0.06486144 -0.014228858 -0.05933277 -0.084469564 0.009041309 -0.082278185 -0.060764026 -0.051191535
0.059815533 0.041294634 -0.039267316 0.03404821 -0.012915858 -0.062097523 -0.023894846 -0.06481084
-0.0021701083 0.050124325 0.07910647 -0.069065586 0.042596593 0.009776078 -0.021471642 -0.030116271
0.027557515 -0.07528721 -0.045581084 -0.018418284 -0.0644237 -0.058525052 -0.086272545 0.06870197
-7.289648e-05 -0.06030069 -0.11406943 -0.03550782 0.04122869 0.07166827 -0.030417882 -0.031770993
0.0012146235 -0.07392703 -0.08337353 -0.016948067 0.03446565 -0.11260965 0.03962636 -0.0163658
-0.07985201 -0.08138045 0.07957501 0.014772228 -0.06278517 -0.032990526 -0.03279104 0.042347383
-0.06209735 -0.06600975 0.010993179 0.042510778 -0.03279863 0.06002458 0.011132578 0.013183002

sequential_6/dense_16/MatMul_bias f4 [64]
00000000: 0ce1 1cbd 9ec1 3ebc e017 143e 1f81 803d
00000010: 664d 4b3d 62bc 3cbc 2625 d9bc f7b8 17bc
00000020: 6fe7 4ebb 9caa 323d 0daf 8bbc 4fd7 99bc
00000030: 6fb7 2a3e 67f0 9dbc 3cdf 2abd 7742 353d
00000040: 3b81 9ebd f653 473e ccfc 963d 3935 87bc
00000050: b023 bdbd 1588 3b3e e9ea 31bd f987 02bd
00000060: 2a97 37bc 509b a93d e65a 3bbd ccb2 90bc
00000070: 7a25 05be c9b9 17bd c8f7 9d3e f5f5 563e
00000080: 6d9b 05bd ecd6 63bd 8ca3 163e 6bd9 27bc
00000090: 1b33 68b9 2492 d7bd 9e75 04bc b69a 6fbe
000000a0: b8f6 2f3e 3887 083e 446a 39bd ec49 bb3c
000000b0: a152 1b3d 6995 ed3d f7d5 3dbc 09b6 9dbd
000000c0: cb82 7e3e a969 d23c ab4f 273e 0832 a0bc
000000d0: f209 393c 03bf 42bd 0871 823e 4e7d d5bd
000000e0: 8c36 123e 4876 88bc 7fdf 5bbc 4f01 e4bc
000000f0: db31 763d 1df2 33be dfb4 573d 781d a1bc
-0.03830056 -0.011642842 0.14462233 0.06274628 0.04963436 -0.011519523 -0.026506972 -0.009260408
-0.003157105 0.043619737 -0.017051244 -0.018779425 0.16671537 -0.019279672 -0.0417168 0.04425284
-0.077394925 0.19465622 0.07372436 -0.01650487 -0.092353225 0.1831363 -0.04343692 -0.031867955
-0.011205474 0.08281577 -0.045740984 -0.017663382 -0.13002577 -0.037042413 0.30853105 0.20992263
-0.03261893 -0.055624887 0.14710826 -0.010244708 -0.00022144282 -0.10525921 -0.008084683 -0.23398861
0.1718396 0.13332832 -0.04526736 0.022862397 0.037920598 0.11600763 -0.011586658 -0.07700736
0.24854581 0.025685148 0.16338985 -0.019555107 0.011293875 -0.047545444 0.2547686 -0.104242906
0.1427862 -0.016657963 -0.013419985 -0.027832655 0.06010614 -0.17572828 0.052662726 -0.019667372

sequential_6/dense_17/MatMul/ReadVariableOp/transpose f4 [48, 64]
00000000: 50db c13d 2df7 593e f5f6 4fbe e586 203e
00000010: 54fa c9bd c275 0abe faeb 24be 05e2 063c
00000020: 622b 803b 6842 da3d 2566 383e daa0 2abe
00000030: 4afd 83be 7c1b 08be cbe5 003e 7872 c0bc
00000040: 7376 7ebe d387 a7bc 495b 5a3c e012 babb
00000050: f51a af3e 1011 5abe aefb 12be e8d9 0b3e
00000060: d5b3 743e 3234 1ebd 233e 913d 8a2e 00be
00000070: ef64 e53e e374 06be 335a 41be 505f b3bc
00000080: 0ccc 3ebe faf1 323e f2f2 5abe 8df2 debd
00000090: bead bc3e 7b6c 3c3e a9af 7dbc 881b 2fbe
000000a0: 5d2a 0dbc 4158 67bc f560 693e 538a 3d3e
000000b0: 12f7 873d c681 c4bd 7920 9a3d 4e6e 943d
000000c0: 69d3 90be 8051 1bbd ec45 a3be fe31 783d
000000d0: 0091 34bd 5c91 3dbe d1d3 8b3d d423 2b3d
000000e0: 5656 82bd da49 a5bd b6f2 153d 8c23 d73d
000000f0: d912 d4bd 9625 2a3e 1a90 fa3e 0d8d 003d
00000100: 5087 473e b78c 2d3e d194 a13d ae6f 8abe
00000110: 7310 443d 9167 093d 1b09 4d3e 2420 12bc
00000120: acb8 3d3d 15ef 8e3d 23e4 0b3e 9465 ec3d
00000130: d821 b5be 57b6 783d dd29 453e a624 9b3d
00000140: 636b b4bd 89d5 f93d 8b5b 593d 2898 a63d
00000150: 3fb8 8fbe a3ea e4bd e948 8fbe 9beb 48be
00000160: 515a 8f3c 1508 973d bd9f 053e 9b18 88bd
00000170: c5d8 b4be bfd0 5abe 3a43 943c 5f5b de3a
00000180: 4d44 70be 1f40 e1bc 0ab7 58bb 0442 023e
00000190: 0cf6 10ba 0988 2ebe 906c f73d 499d cbbe
000001a0: 62a4 5e3d 2250 c0be b703 453c e03e 433e
000001b0: 18ae abbd e4c4 30be 4cb4 e0bd 1052 aebe
000001c0: f1cd e03e fe2f da3d 801a b63d cbe3 703d
000001d0: 019b c1be 51dd c3bd 8745 b33d b529 87be
000001e0: e52c de3e ca5b 343e 4770 363c ab8e a4bd
000001f0: 79b2 403e dc0a 0cbf 5eb4 4dbe fd82 513d
00000200: 5277 3fbd e11e 01be 5b75 583d fc57 d43d
00000210: 6fd0 b03d 14fe 523d 25dd 3dbd 595e 73bc
00000220: 1586 5b3e f64b 2dbe 1fda f1bc e28e 26be
00000230: 1ffc 733e be8e cebd 3e73 713d c188 20be
00000240: e6c5 883d 2d0e ffbe 3784 903a 641d 5cbe
00000250: 9e5f a23e 819c a5bd b690 f7bd cb70 443e
00000260: 1364 65be 11ea 92bd caf2 233e 7c61 e8bd
00000270: 1d46 0e3e c0f7 95bd f3ed c23e 82f5 f5b9
00000280: 62fc ee3d 43f6 433b 3841 38bd f59f 4cbd
00000290: 8218 033e 1dd8 55bc 79e0 06be a7a8 933e
000002a0: ad24 5abd a3bf af3e f3fb 53bc 28c4 06be
000002b0: e09b 05bd 1d80 61be 6d7c 8b3d d5d6 2f3e
000002c0: 25fc 48bd 5d4a b8bd f5fa 70be a8f5 05bd
000002d0: 63a2 7e3e 5b9c 613e b1c5 9a3d 30bd 063e
000002e0: 29ba f2be b0aa 353e bb3b 303e 1e6a 92bd
000002f0: 9780 df3d 40f7 ae3e 2ae6 763e 8278 3f3d
00000300: 0fc4 583e 25c3 843c 5662 6bbe db5b ed3d
00000310: c522 60bd c62e 0a3e 43da aabd 5844 05be
00000320: b59f 41be 04ba f23e cf65 ebbe a6db 583e
00000330: b033 9f3e 697a 323e ca94 163e 9f07 99bd
00000340: dcfa dbbd ba81 24bd 27ef 9abd ec25 e43d
00000350: c6dd debe dcb0 c23a b77e 083f d034 443e
00000360: a477 c63d 5e03 64be bccf 06be 0afc b3bc
00000370: 73dd ad3d b843 2a3e cc76 d6bc a90e 043e
00000380: 2296 25be 4b2d 1b3e 2208 03be c4fa 0a3e
00000390: 26d4 35be c952 c6bb 7833 95bd 99d5 86bd
000003a0: b681 c63d 1286 ec3d 6fd1 a0be 5999 093c
000003b0: e1c9 243c faae d4be 0c36 333e 88ad 0c3e
000003c0: 3643 2bbe df52 35be bac8 e33d eb87 29bd
000003d0: 0c5c 993d ba5b 0ebe 0742 8bbd 9363 b43e
000003e0: b2c0 96be 68d5 343e 6e83 a93c 830d 2cbe
000003f0: d348 86be bd00 3e3e 65e8 28bd 1747 02be
0.09465659 0.21285696 -0.2030905 0.15676458 -0.098621994 -0.13521484 -0.16105643 0.008232598
0.0039114216 0.10657197 0.18007715 -0.16662923 -0.25779182 -0.13291734 0.12587659 -0.023492083
-0.24849872 -0.020450508 0.013327428 -0.0056785196 0.34200254 -0.21295571 -0.1435382 0.13657343
0.23896725 -0.038623996 0.0709193 -0.12517753 0.4480357 -0.13130526 -0.18882065 -0.021896034
-0.18632525 0.17475119 -0.21381739 -0.10886107 0.36851305 0.18400757 -0.015483775 -0.17100346
-0.008616057 -0.014120162 0.22790892 0.18509798 0.06638922 -0.09595065 0.07525725 0.072476014
-0.28286293 -0.03791952 -0.31889284 0.06059455 -0.044083595 -0.18512481 0.0682751 0.041782215
-0.063641235 -0.08070727 0.03660842 0.10504827 -0.103551574 0.166159 0.48938066 0.031384517
0.19485211 0.1694821 0.078897126 -0.2703833 0.04786725 0.033546034 0.20023005 -0.008918796
0.046318695 0.06979195 0.13661246 0.11542812 -0.35377383 0.060720768 0.19254251 0.075753495
-0.08809545 0.12198932 0.053065818 0.0813449 -0.28070256 -0.11177566 -0.27985314 -0.19621126
0.01749912 0.073745884 0.13049217 -0.06645318 -0.35321632 -0.21368693 0.018098462 0.0016964487
-0.23463555 -0.027496396 -0.0033068084 0.12720495 -0.0005529828 -0.17044081 0.120812535 -0.39768437
0.054355986 -0.37561136 0.0120248115 0.19066954 -0.08382815 -0.17262608 -0.10971889 -0.34046984
0.4390712 0.10653685 0.08891773 0.05881099 -0.3781357 -0.09563697 0.08753496 -0.26399007
0.43393627 0.1761314 0.011135167 -0.08035024 0.18818082 -0.5470407 -0.20088336 0.05115031
-0.046744652 -0.12609436 0.052846294 0.10368344 0.086335056 0.05151184 -0.046353478 -0.014854037
0.21437867 -0.16923508 -0.029522954 -0.16265443 0.23826645 -0.1008582 0.058947794 -0.15677167
0.06678371 -0.49815503 0.0011025731 -0.21495587 0.31713575 -0.080864914 -0.12088148 0.19183652
-0.22401457 -0.07173551 0.16010585 -0.11346719 0.13893934 -0.07322645 0.38072166 -0.0004691296
0.11669232 0.0029901422 -0.044984072 -0.049957234 0.12802318 -0.013052014 -0.13171567 0.2883961
-0.053257633 0.34325895 -0.012938487 -0.13160765 -0.032619357 -0.22021528 0.06810842 0.17171796
-0.04906859 -0.08998559 -0.23533233 -0.03270498 0.24866633 0.22032301 0.07557238 0.13158107
-0.47407654 0.17740893 0.17210285 -0.071491465 0.109131984 0.34173012 0.24111238 0.046745785
0.2116854 0.016206333 -0.22986731 0.11589786 -0.05472066 0.13494405 -0.08342411 -0.13014352
-0.1890858 0.47407544 -0.4597611 0.21177539 0.31094122 0.17429508 0.14705196 -0.07472157
-0.10741207 -0.04016278 -0.07565146 0.111400455 -0.43528575 0.0014853734 0.5331835 0.19160771
0.096907884 -0.2226691 -0.13165182 -0.021970768 0.08489504 0.16627395 -0.026179694 0.12896217
-0.16170552 0.15153997 -0.12796071 0.13572222 -0.1775671 -0.006052349 -0.072852075 -0.06583709
0.09692709 0.115490094 -0.31409785 0.008398377 0.010057897 -0.41539747 0.17501086 0.13738072
-0.16724858 -0.17707394 0.1112227 -0.041389387 0.0748826 -0.13902178 -0.06799703 0.3523222
-0.2944389 0.17659533 0.020692553 -0.1680203 -0.26227435 0.18554969 -0.041237254 -0.12722431

sequential_6/dense_17/MatMul_bias f4 [48]
00000000: 63b7 033e be3c ce3e 8edb 1c3e 7979 283e
00000010: 453e a93e 3518 233e 1e2c a43e 2639 303e
00000020: 111f 043f 3e37 343d d036 493e bc4b 223e
00000030: 7f16 223e e123 6b3e 8d29 873d c43e 113e
00000040: 3281 973d dfc1 123e 154a 803e e094 983e
00000050: dcf9 bc3e 2692 b03e 7a89 ea3e 088f 4c3e
00000060: 4c88 c13d 50ac 943d 1fcd 503e a415 f1bb
00000070: 6c8a b73d df79 a53e 4a97 363e 2a5b c03e
00000080: d132 b43e 4c61 c43e e6a9 7e3d 7fc4 793e
00000090: ea8d d83d f379 0c3e a6bc 7f3e c571 e33e
000000a0: d865 263e d2c5 a13e 3773 063f ba91 edbd
000000b0: 4e1f 2a3e 01ee 693e 693c 513e afe2 613e
0.12862925 0.40280718 0.15318128 0.16452588 0.3305532 0.15927203 0.3206491 0.172093
0.51609904 0.043997996 0.19649816 0.15849203 0.15828894 0.22962905 0.06599722 0.141841
0.07397689 0.14331768 0.2505652 0.29801083 0.36909378 0.34486502 0.4580801 0.19976437
0.09449825 0.072594285 0.20390747 -0.007357316 0.08961949 0.32319543 0.1783115 0.37569553
0.3519502 0.38355482 0.062173747 0.24391364 0.10573943 0.13718395 0.24974307 0.44422737
0.16249788 0.31596237 0.52519554 -0.11600061 0.16613504 0.22844698 0.20433201 0.22059129

sequential_6/dense_18/MatMul/ReadVariableOp/transpose f4 [10, 48]
00000000: 18c0 e33d 7914 283d 84f2 dcbd 09df 253e
00000010: db38 47be df26 2b3d c362 8d3e 12c1 8a3e
00000020: 91f2 56bf 5db4 523e 8327 243e 7cf1 d4be
00000030: 08ca 2e3e 94d7 a7bd c037 4e3e 3ca3 f4be
00000040: b2c4 f6bd f79a 743e 69bd 7f3e c813 10bf
00000050: e703 11bf 03df 303e 1766 9c3d dac3 503e
00000060: 5cec b83e e574 bd3c 7a54 663d ba18 033e
00000070: a79f 21be c2df 483e 04d4 22bf 0566 6cbe
00000080: 890f 99be 472e 21be 2eff 233e 2928 6d3e
00000090: ae9b 183e 255d aabe c531 863e 47b6 c7be
000000a0: 1d59 193e 0f90 bebe 4688 c6be 2f1e 6ebe
000000b0: 9b8f 1dbe 33e0 7ebe 5e5f 85be 1358 1a3e
000000c0: f94e 0d3e 8ce4 11bf 8261 293e 7809 60be
000000d0: a943 28bf db86 e3bd b01e e7be aedb 9b3e
000000e0: e6ca 2cbf 01e7 b33e f386 583e e544 803e
000000f0: 7e6c 5c3e fae9 00bf 2be1 4d3d 8005 4f3e
00000100: 4efb 873e f6dc 86be 0475 5e3e a2be 09bf
00000110: 4e4f 55bf 014e c3be 709d 61bf 4854 04bf
00000120: 0cd5 03bf 6253 5bbe e8fe 663d fa81 493e
00000130: 02c6 723e 9018 b2be 54d2 17bd 77b5 cdbe
00000140: 7b01 863e ab80 7e3e faaa a1be 5727 fbbd
00000150: 4453 213e 1773 0e3c 08e1 a13e 89ab 64bf
00000160: ce08 69bd e52f 0ebe 55aa 86be 2870 a93e
00000170: 04b6 123e 3fc7 173e 323c a4be 30d0 2abf
00000180: 41f7 a13d 1057 febd 634a 043e 7bde a03d
00000190: fb76 9bbe 49df 6fbe 1097 813e 2ac1 1ebe
000001a0: 8df0 8bbe b891 a13e bfb3 153e 60db 33be
000001b0: 145e 58be 91dd f0bd 667a 89be 69d3 d6bd
000001c0: 3311 213e 8e21 ef3d 89db 5f3e 3df3 dabd
000001d0: 5a8a 323e 68a7 9a3e e2d1 913e 6187 263e
000001e0: 6e09 a63e f0b5 68be 39d1 5dbe 54b2 633e
000001f0: eb73 b0be 95ba 39be cf6f b43c 54fe a63e
00000200: ca05 95be a0a7 78bd a6ef 233e 212d ccbc
00000210: f074 cfbe b9b1 8d3e ad17 a7bd e2f3 663e
00000220: 81d5 8a3b 783e b3be 3184 5c3e 5d3e 89be
00000230: 784e e1be 9e8a 9f3e 33fa b4bd d87d 773e
00000240: c755 3abe 7860 193e fc1a 9dbe e9b0 0abe
00000250: a57c 1b3e ec6f 90be 383b 55be 45a1 f3be
00000260: e558 463e 8908 31be 09d4 4ebc 621d 853e
00000270: d222 8bbd 5de5 833d 690a 4abe 7057 b53d
00000280: c66d babd 984f 233e 1c51 0cbe 970e a63c
00000290: eb51 e33d 2be6 823e ff1a 8e3e e53c c8be
000002a0: 4447 093e 9c62 30bf 00f7 c2be 7631 87bd
000002b0: a084 b7bd db3f be3d c639 a43c b4a2 983e
000002c0: 65f1 773e d2c8 883e 5933 dfbd 3aa6 7f3e
000002d0: 9df2 1bbe 3957 e2bd 1cef 263d 4056 643e
000002e0: ec8d dabd 7fdb 3d3e b258 383e df5f d8be
000002f0: 390b 01bf 5f64 a23e 3f36 a2bd ee69 bbbd
00000300: e03a f4be c96e 223e 8c98 103e ac69 7bbe
00000310: e7a1 543e 92db a3be 1fc1 8c3e c2d1 e3bc
00000320: f87c 723e 281d 8bbe 3826 b9bd 52c1 39bd
00000330: 0380 2cbf c95d a0be 2d39 133e 283f 2ebf
00000340: 2271 35bf 6635 74be 052a 3b3e 5dd4 453e
00000350: 2300 2c3e 19d0 a63e 151e 973e f4f6 913b
00000360: ba25 81be 66e6 82bb 4779 dfbd 4d10 c6be
00000370: 4dfe 3bbf 996e e2be 497e d8be d544 ac3e
00000380: aecb 8c3e 0c61 653d 8f5b 15bf 2f91 bebd
00000390: cf62 10bf 624d aa3e 0130 633d 0a1f 863e
000003a0: 119b ef3d 1ee0 98bc 9303 643e ab9b 67be
000003b0: ebb9 c53d aadc f2be ea2c de3d 9194 703e
000003c0: afa7 c7be edc9 5cbe b7d2 47be 3d67 013e
000003d0: 7ff9 a03d 1e38 00bf e482 a3be f171 0abf
000003e0: db71 3cbd e903 b0be d7ff 17be 26f7 aa3e
000003f0: abcc d7be c7ee b03d f6d0 cd3d c490 523e
0.11120623 0.04103515 -0.10788444 0.16198362 -0.19455282 0.041785117 0.27614412 0.27100426
-0.83963877 0.20576616 0.16030698 -0.41590488 0.17069256 -0.08195415 0.20138454 -0.47780788
-0.120492354 0.2388724 0.24974598 -0.56280184 -0.5664658 0.17272572 0.076366596 0.20387211
0.36117828 0.023127029 0.056232907 0.12802401 -0.15783559 0.19616607 -0.6360476 -0.23085792
-0.29894665 -0.1574031 0.16015312 0.23159851 0.14903137 -0.3327419 0.26209846 -0.39006254
0.149754 -0.37219283 -0.38775843 -0.23253702 -0.15386812 -0.24890213 -0.26049322 0.1507266
0.13799657 -0.5698936 0.16541103 -0.21878612 -0.6572824 -0.11109706 -0.451406 0.3044104
-0.674971 0.3513718 0.21145229 0.25052562 0.21525761 -0.5035702 0.050263565 0.20216942
0.26558918 -0.26340455 0.21724325 -0.5380651 -0.83324134 -0.3814545 -0.88130856 -0.51691103
-0.5149696 -0.21418527 0.05639544 0.19678488 0.23708346 -0.34784365 -0.03706582 -0.4017751
0.26173005 0.2485377 -0.31575757 -0.12263363 0.1575442 0.008694432 0.31616998 -0.8932424
-0.056893162 -0.13885458 -0.26301828 0.3309338 0.14327246 0.148221 -0.32077175 -0.6672392
0.07908488 -0.124189496 0.12919001 0.07854935 -0.30364212 -0.2342502 0.25310564 -0.15503374
-0.27331963 0.31556487 0.14619349 -0.17564154 -0.21129638 -0.117610104 -0.26851195 -0.10489542
0.15729217 0.11676322 0.2186109 -0.10690925 0.1743559 0.30205846 0.2848044 0.1626258
0.3242907 -0.22725654 -0.21661843 0.22235996 -0.34463438 -0.18137582 0.02202597 0.32615912
-0.2910598 -0.060706735 0.16009387 -0.024923863 -0.40518904 0.27674654 -0.08158813 0.22553971
0.0042368774 -0.35008597 0.21534802 -0.26805392 -0.4400518 0.31160444 -0.08836784 0.241691
-0.18196784 0.14978206 -0.3068465 -0.13544048 0.15184267 -0.2821039 -0.20823371 -0.47583976
0.19369848 -0.17288412 -0.012623795 0.2599898 -0.06793751 0.06440232 -0.19730534 0.08854568
-0.09102969 0.15948331 -0.13702816 0.020270629 0.11099609 0.2556623 0.2775497 -0.3910896
0.13406092 -0.68900466 -0.3807907 -0.06601231 -0.08960843 0.09289523 0.02004708 0.29811633
0.24213178 0.26715714 -0.10898466 0.24965754 -0.15229268 -0.11051793 0.040755376 0.22298527
-0.10671601 0.18540762 0.18002585 -0.42260644 -0.5040775 0.31717202 -0.07920503 -0.09151064
-0.47701168 0.15862574 0.14120692 -0.2455203 0.20764886 -0.32003456 0.2749109 -0.027809981
0.23680484 -0.27170682 -0.09040493 -0.04535038 -0.6738283 -0.31321552 0.1437728 -0.6806512
-0.7087575 -0.23848495 0.18277748 0.19319291 0.16796927 0.3258064 0.29515138 0.004454488
-0.25224096 -0.003994751 -0.10911804 -0.38684312 -0.7343491 -0.44225004 -0.42283848 0.33646265
0.27499145 0.056000754 -0.5834283 -0.09305035 -0.5640077 0.33262163 0.055465702 0.26195556
0.116994984 -0.018661555 0.22266988 -0.22617976 0.09654602 -0.47433978 0.108484104 0.23494174
-0.3899512 -0.21561404 -0.19513975 0.12637039 0.078600876 -0.5008563 -0.319358 -0.5408011
-0.04600702 -0.34377983 -0.14843689 0.33391684 -0.42148337 0.08639293 0.10049622 0.20563036

sequential_6/dense_18/MatMul_bias f4 [10]
00000000: ab8f 60bd af95 8cbe 5355 163d a1e6 b63e
00000010: 7ef3 5e3e 4822 2cbe 0c53 0a3d 556f 34be
00000020: 925f 223c 5b59 a0bd
-0.054824512 -0.2745795 0.036702465 0.3572283 0.21772572 -0.16809952 0.033770606 -0.17620595
0.009910481 -0.07829543
