Auto_TF_to_uC/Converted_model_files/EMNIST_model.tflite (tflite, 145472 bytes, 6 tensors)

sequential_39/dense_111/MatMul i1 [64, 1024] scale=0.005645888 zero_point=0
0	0x14	0.11291776
1	0x0f	0.08468832
2	0x12	0.10162598
3	0xf3	-0.07339654
4	0x06	0.033875328
5	0x2c	0.24841908
6	0xd6	-0.23712729
7	0xfe	-0.011291776
8	0xe6	-0.14679308
9	0xf2	-0.079042435
10	0xf6	-0.05645888
11	0xf8	-0.045167103
12	0x02	0.011291776
13	0x01	0.005645888
14	0x09	0.05081299
15	0xfe	-0.011291776
16	0x08	0.045167103
17	0x13	0.10727187
18	0xec	-0.11291776
19	0xef	-0.09598009
20	0x09	0.05081299
21	0x24	0.20325196
22	0xec	-0.11291776
23	0xe3	-0.16373076
24	0xfe	-0.011291776
25	0xfb	-0.02822944
26	0x0b	0.06210477
27	0xda	-0.21454374
28	0x0b	0.06210477
29	0xe2	-0.16937664
30	0xfb	-0.02822944
31	0x00	0.0
32	0x2b	0.24277318
33	0xfc	-0.022583552
34	0x04	0.022583552
35	0xec	-0.11291776
36	0xde	-0.19196019
37	0x19	0.1411472
38	0x12	0.10162598
39	0x0a	0.05645888
40	0x11	0.09598009
41	0xfb	-0.02822944
42	0xf7	-0.05081299
43	0xe6	-0.14679308
44	0xf8	-0.045167103
45	0x03	0.016937664
46	0xf4	-0.067750655
47	0xf9	-0.039521217
48	0x02	0.011291776
49	0xfb	-0.02822944
50	0xf2	-0.079042435
51	0x07	0.039521217
52	0xf5	-0.06210477
53	0xcb	-0.29923207
54	0x2a	0.23712729
55	0x06	0.033875328
56	0x03	0.016937664
57	0xef	-0.09598009
58	0xe9	-0.12985542
59	0xee	-0.10162598
60	0xf5	-0.06210477
61	0xf4	-0.067750655
62	0xf1	-0.08468832
63	0x05	0.02822944
64	0x02	0.011291776
65	0x0f	0.08468832
66	0x0b	0.06210477
67	0x01	0.005645888
68	0x08	0.045167103
69	0x29	0.2314814
70	0xf0	-0.09033421
71	0xec	-0.11291776
72	0xe7	-0.1411472
73	0x08	0.045167103
74	0x02	0.011291776
75	0xe6	-0.14679308
76	0x05	0.02822944
77	0xf6	-0.05645888
78	0x08	0.045167103
79	0x01	0.005645888
80	0xfa	-0.033875328
81	0xf7	-0.05081299
82	0xfc	-0.022583552
83	0x08	0.045167103
84	0xfc	-0.022583552
85	0xfe	-0.011291776
86	0xfd	-0.016937664
87	0x05	0.02822944
88	0x0b	0.06210477
89	0xed	-0.10727187
90	0x03	0.016937664
91	0xe9	-0.12985542
92	0xf3	-0.07339654
93	0xde	-0.19196019
94	0xec	-0.11291776
95	0xeb	-0.118563645
96	0x02	0.011291776
97	0xf6	-0.05645888
98	0x07	0.039521217
99	0x02	0.011291776
100	0x0f	0.08468832
101	0x0e	0.079042435
102	0x0f	0.08468832
103	0xfd	-0.016937664
104	0x13	0.10727187
105	0xc4	-0.33875328
106	0xc8	-0.31616974
107	0x05	0.02822944
108	0xfb	-0.02822944
109	0xfd	-0.016937664
110	0xf6	-0.05645888
111	0x0a	0.05645888
112	0x19	0.1411472
113	0xe2	-0.16937664
114	0x0e	0.079042435
115	0xff	-0.005645888
116	0x03	0.016937664
117	0xe2	-0.16937664
118	0x1d	0.16373076
119	0xfb	-0.02822944
120	0x00	0.0
121	0xeb	-0.118563645
122	0x11	0.09598009
123	0x06	0.033875328
124	0xdc	-0.20325196
125	0xf8	-0.045167103
126	0xfb	-0.02822944
127	0xfb	-0.02822944
128	0x05	0.02822944
129	0x0e	0.079042435
130	0xff	-0.005645888
131	0x04	0.022583552
132	0x1b	0.15243897
133	0x0c	0.067750655
134	0x02	0.011291776
135	0xf3	-0.07339654
136	0x10	0.09033421
137	0x02	0.011291776
138	0xf6	-0.05645888
139	0xd2	-0.25971085
140	0xf9	-0.039521217
141	0xf9	-0.039521217
142	0xf3	-0.07339654
143	0xf9	-0.039521217
144	0x05	0.02822944
145	0x06	0.033875328
146	0xfe	-0.011291776
147	0x09	0.05081299
148	0xf7	-0.05081299
149	0x03	0.016937664
150	0x03	0.016937664
151	0x04	0.022583552
152	0x0c	0.067750655
153	0xef	-0.09598009
154	0xfb	-0.02822944
155	0xef	-0.09598009
156	0xf5	-0.06210477
157	0xdf	-0.1863143
158	0xfc	-0.022583552
159	0x05	0.02822944
160	0xee	-0.10162598
161	0x09	0.05081299
162	0xfe	-0.011291776
163	0x11	0.09598009
164	0x05	0.02822944
165	0x09	0.05081299
166	0x09	0.05081299
167	0x05	0.02822944
168	0x05	0.02822944
169	0xe3	-0.16373076
170	0xc9	-0.31052384
171	0xfc	-0.022583552
172	0x0d	0.07339654
173	0x0d	0.07339654
174	0xf9	-0.039521217
175	0xec	-0.11291776
176	0x04	0.022583552
177	0xf9	-0.039521217
178	0xfa	-0.033875328
179	0x0f	0.08468832
180	0xfd	-0.016937664
181	0xe7	-0.1411472
182	0x1f	0.17502253
183	0x07	0.039521217
184	0x09	0.05081299
185	0xf4	-0.067750655
186	0xf1	-0.08468832
187	0x08	0.045167103
188	0xf1	-0.08468832
189	0xff	-0.005645888
190	0xfb	-0.02822944
191	0x11	0.09598009
192	0x00	0.0
193	0x1d	0.16373076
194	0xe5	-0.15243897
195	0x0b	0.06210477
196	0x16	0.12420954
197	0x0f	0.08468832
198	0x15	0.118563645
199	0xef	-0.09598009
200	0x0b	0.06210477
201	0xf9	-0.039521217
202	0x04	0.022583552
203	0xee	-0.10162598
204	0x06	0.033875328
205	0x04	0.022583552
206	0xf7	-0.05081299
207	0xe9	-0.12985542
208	0x08	0.045167103
209	0xfc	-0.022583552
210	0x04	0.022583552
211	0x0b	0.06210477
212	0x05	0.02822944
213	0x26	0.21454374
214	0x04	0.022583552
215	0xf9	-0.039521217
216	0x08	0.045167103
217	0xf1	-0.08468832
218	0x00	0.0
219	0x10	0.09033421
220	0xed	-0.10727187
221	0xeb	-0.118563645
222	0xfb	-0.02822944
223	0x0a	0.05645888
224	0x07	0.039521217
225	0xf8	-0.045167103
226	0x14	0.11291776
227	0x15	0.118563645
228	0xf9	-0.039521217
229	0x03	0.016937664
230	0xfe	-0.011291776
231	0x09	0.05081299
232	0x06	0.033875328
233	0xe6	-0.14679308
234	0xcb	-0.29923207
235	0x17	0.12985542
236	0xfd	-0.016937664
237	0xf5	-0.06210477
238	0x16	0.12420954
239	0x00	0.0
240	0x2a	0.23712729
241	0xf8	-0.045167103
242	0x08	0.045167103
243	0x03	0.016937664
244	0xf6	-0.05645888
245	0xe2	-0.16937664
246	0x16	0.12420954
247	0x03	0.016937664
248	0x14	0.11291776
249	0x0b	0.06210477
250	0x0c	0.067750655
251	0x0b	0.06210477
252	0xf6	-0.05645888
253	0x00	0.0
254	0xfe	-0.011291776
255	0x07	0.039521217

sequential_39/dense_112/MatMul i1 [36, 64] scale=0.0069168275 zero_point=0
0	0x0e	0.09683558
1	0xed	-0.13141972
2	0xd9	-0.2697563
3	0x08	0.05533462
4	0xd1	-0.3250909
5	0x1e	0.20750482
6	0x25	0.25592262
7	0xe8	-0.16600385
8	0x19	0.17292069
9	0x05	0.03458414
10	0x0b	0.076085106
11	0x0a	0.06916828
12	0x10	0.11066924
13	0xdb	-0.25592262
14	0x1d	0.200588
15	0xf4	-0.08300193
16	0xcd	-0.3527582
17	0xdd	-0.24208896
18	0x02	0.013833655
19	0x07	0.04841779
20	0x14	0.13833655
21	0xea	-0.15217021
22	0x18	0.16600385
23	0xdd	-0.24208896
24	0xd6	-0.29050675
25	0xfd	-0.020750482
26	0xfa	-0.041500963
27	0xef	-0.11758607
28	0xf0	-0.11066924
29	0xff	-0.0069168275
30	0x1b	0.18675435
31	0xea	-0.15217021
32	0x0a	0.06916828
33	0xe6	-0.17983751
34	0xec	-0.13833655
35	0xdc	-0.2490058
36	0xd6	-0.29050675
37	0xe1	-0.21442166
38	0xde	-0.23517214
39	0x0c	0.08300193
40	0xf6	-0.06916828
41	0xe4	-0.19367117
42	0xcd	-0.3527582
43	0x16	0.15217021
44	0xf4	-0.08300193
45	0xe7	-0.17292069
46	0x04	0.02766731
47	0x1a	0.17983751
48	0xe8	-0.16600385
49	0xd3	-0.31125724
50	0xe4	-0.19367117
51	0xeb	-0.14525338
52	0xd0	-0.3320077
53	0xef	-0.11758607
54	0x05	0.03458414
55	0x1c	0.19367117
56	0x04	0.02766731
57	0x1f	0.21442166
58	0xe1	-0.21442166
59	0xe7	-0.17292069
60	0x0c	0.08300193
61	0xfa	-0.041500963
62	0x0e	0.09683558
63	0x08	0.05533462
64	0x09	0.06225145
65	0xe3	-0.200588
66	0xeb	-0.14525338
67	0x1f	0.21442166
68	0x03	0.020750482
69	0x0c	0.08300193
70	0xfb	-0.03458414
71	0xf2	-0.09683558
72	0xd5	-0.29742357
73	0x00	0.0
74	0xf5	-0.076085106
75	0xe9	-0.15908703
76	0x01	0.0069168275
77	0xda	-0.26283944
78	0x19	0.17292069
79	0x1c	0.19367117
80	0x1e	0.20750482
81	0x04	0.02766731
82	0x1b	0.18675435
83	0x10	0.11066924
84	0xfa	-0.041500963
85	0xd0	-0.3320077
86	0xc4	-0.41500965
87	0xec	-0.13833655
88	0xf5	-0.076085106
89	0xe3	-0.200588
90	0x18	0.16600385
91	0xad	-0.5740967
92	0xe3	-0.200588
93	0xdf	-0.2282553
94	0xc3	-0.42192647
95	0xf6	-0.06916828
96	0xc0	-0.44267696
97	0x14	0.13833655
98	0xf4	-0.08300193
99	0x22	0.23517214
100	0x08	0.05533462
101	0x11	0.11758607
102	0x00	0.0
103	0x03	0.020750482
104	0xf0	-0.11066924
105	0xfa	-0.041500963
106	0xe5	-0.18675435
107	0x10	0.11066924
108	0xdc	-0.2490058
109	0x18	0.16600385
110	0xda	-0.26283944
111	0x15	0.14525338
112	0x1e	0.20750482
113	0x14	0.13833655
114	0xe8	-0.16600385
115	0xe6	-0.17983751
116	0x14	0.13833655
117	0xef	-0.11758607
118	0xbf	-0.44959378
119	0xee	-0.1245029
120	0xe0	-0.22133848
121	0x1d	0.200588
122	0x23	0.24208896
123	0x16	0.15217021
124	0x11	0.11758607
125	0xfe	-0.013833655
126	0x06	0.041500963
127	0xea	-0.15217021
128	0xc5	-0.40809283
129	0xea	-0.15217021
130	0x17	0.15908703
131	0x0d	0.089918755
132	0x1f	0.21442166
133	0xfd	-0.020750482
134	0xff	-0.0069168275
135	0x1f	0.21442166
136	0xfc	-0.02766731
137	0xbb	-0.4772611
138	0x1f	0.21442166
139	0xe6	-0.17983751
140	0x03	0.020750482
141	0xd0	-0.3320077
142	0xe8	-0.16600385
143	0x09	0.06225145
144	0xef	-0.11758607
145	0x08	0.05533462
146	0x20	0.22133848
147	0x23	0.24208896
148	0xfa	-0.041500963
149	0xec	-0.13833655
150	0xe6	-0.17983751
151	0x15	0.14525338
152	0x12	0.1245029
153	0x23	0.24208896
154	0xeb	-0.14525338
155	0xe0	-0.22133848
156	0x04	0.02766731
157	0xe5	-0.18675435
158	0x05	0.03458414
159	0xee	-0.1245029
160	0xc6	-0.401176
161	0xe0	-0.22133848
162	0xe8	-0.16600385
163	0xe9	-0.15908703
164	0x1b	0.18675435
165	0xe2	-0.20750482
166	0xdb	-0.25592262
167	0xea	-0.15217021
168	0xf1	-0.10375241
169	0x0a	0.06916828
170	0x08	0.05533462
171	0x23	0.24208896
172	0x1f	0.21442166
173	0x10	0.11066924
174	0xed	-0.13141972
175	0x01	0.0069168275
176	0x10	0.11066924
177	0xf3	-0.089918755
178	0x11	0.11758607
179	0xd0	-0.3320077
180	0xe2	-0.20750482
181	0x11	0.11758607
182	0xdc	-0.2490058
183	0x1a	0.17983751
184	0x18	0.16600385
185	0xde	-0.23517214
186	0xec	-0.13833655
187	0x17	0.15908703
188	0xf0	-0.11066924
189	0xde	-0.23517214
190	0xcc	-0.35967502
191	0xcf	-0.33892456
192	0xd7	-0.28358993
193	0xce	-0.34584138
194	0x14	0.13833655
195	0xf0	-0.11066924
196	0xf3	-0.089918755
197	0xc5	-0.40809283
198	0x0e	0.09683558
199	0x02	0.013833655
200	0xf9	-0.04841779
201	0xca	-0.3735087
202	0xce	-0.34584138
203	0xc1	-0.43576014
204	0xe1	-0.21442166
205	0x12	0.1245029
206	0xeb	-0.14525338
207	0x06	0.041500963
208	0x06	0.041500963
209	0xad	-0.5740967
210	0xfc	-0.02766731
211	0x0c	0.08300193
212	0x1d	0.200588
213	0xf3	-0.089918755
214	0xdd	-0.24208896
215	0xbb	-0.4772611
216	0xcf	-0.33892456
217	0x2c	0.30434042
218	0xed	-0.13141972
219	0xb0	-0.5533462
220	0xe7	-0.17292069
221	0xdd	-0.24208896
222	0xe8	-0.16600385
223	0xd9	-0.2697563
224	0x12	0.1245029
225	0xd5	-0.29742357
226	0x10	0.11066924
227	0x1f	0.21442166
228	0x2b	0.29742357
229	0xfd	-0.020750482
230	0xda	-0.26283944
231	0xea	-0.15217021
232	0xd8	-0.2766731
233	0x24	0.2490058
234	0xee	-0.1245029
235	0x20	0.22133848
236	0xe2	-0.20750482
237	0x13	0.13141972
238	0xe1	-0.21442166
239	0x1b	0.18675435
240	0xd8	-0.2766731
241	0xbd	-0.46342745
242	0x10	0.11066924
243	0x1f	0.21442166
244	0xea	-0.15217021
245	0xff	-0.0069168275
246	0xd4	-0.30434042
247	0x1d	0.200588
248	0x1b	0.18675435
249	0xcb	-0.36659187
250	0xdf	-0.2282553
251	0xf1	-0.10375241
252	0x05	0.03458414
253	0x13	0.13141972
254	0x0b	0.076085106
255	0xfc	-0.02766731

sequential_39/conv2d_95/Conv2D i1 [32, 3, 3, 1]
0	0x71	113
1	0x04	4
2	0xdc	-36
3	0x42	66
4	0xcb	-53
5	0x81	-127
6	0x28	40
7	0xf9	-7
8	0xe2	-30
9	0x7f	127
10	0x59	89
11	0xff	-1
12	0xd7	-41
13	0x10	16
14	0x9a	-102
15	0xb4	-76
16	0xf3	-13
17	0xee	-18
18	0x1f	31
19	0x8f	-113
20	0xec	-20
21	0x81	-127
22	0xd8	-40
23	0x21	33
24	0xa5	-91
25	0x21	33
26	0x64	100
27	0x84	-124
28	0xa5	-91
29	0xcd	-51
30	0x6a	106
31	0x1c	28
32	0x5d	93
33	0x7f	127
34	0x08	8
35	0xd1	-47
36	0xa9	-87
37	0xdc	-36
38	0x90	-112
39	0x4b	75
40	0xff	-1
41	0x1a	26
42	0x1d	29
43	0x7f	127
44	0x42	66
45	0x92	-110
46	0x2f	47
47	0x4e	78
48	0x81	-127
49	0x07	7
50	0x7e	126
51	0x30	48
52	0xc1	-63
53	0x4d	77
54	0x81	-127
55	0x32	50
56	0xfd	-3
57	0x77	119
58	0x4f	79
59	0xe8	-24
60	0x26	38
61	0x05	5
62	0xd1	-47
63	0xf1	-15
64	0xd2	-46
65	0x90	-112
66	0x97	-105
67	0x10	16
68	0x0a	10
69	0x71	113
70	0x7f	127
71	0x2b	43
72	0x2c	44
73	0x46	70
74	0x1b	27
75	0x09	9
76	0xe1	-31
77	0x40	64
78	0x81	-127
79	0xfb	-5
80	0xe3	-29
81	0x79	121
82	0x11	17
83	0x7c	124
84	0x81	-127
85	0xce	-50
86	0x14	20
87	0xad	-83
88	0xaf	-81
89	0x4a	74
90	0x45	69
91	0x0e	14
92	0x9c	-100
93	0x09	9
94	0x81	-127
95	0xc0	-64
96	0xb2	-78
97	0xee	-18
98	0x43	67
99	0x81	-127
100	0x63	99
101	0x47	71
102	0xd4	-44
103	0x21	33
104	0x49	73
105	0x0a	10
106	0x2a	42
107	0xa7	-89
108	0xf9	-7
109	0x3f	63
110	0x4f	79
111	0x81	-127
112	0x2a	42
113	0x3b	59
114	0x9d	-99
115	0xfe	-2
116	0x26	38
117	0x7f	127
118	0x7d	125
119	0x81	-127
120	0x44	68
121	0x2b	43
122	0xfd	-3
123	0x96	-106
124	0xe2	-30
125	0xc4	-60
126	0x1a	26
127	0x0d	13
128	0xe7	-25
129	0xa3	-93
130	0xc8	-56
131	0x81	-127
132	0x07	7
133	0x12	18
134	0x16	22
135	0x03	3
136	0x3a	58
137	0x0f	15
138	0x60	96
139	0x0b	11
140	0xf6	-10
141	0x44	68
142	0xb0	-80
143	0x81	-127
144	0xa6	-90
145	0xaf	-81
146	0xeb	-21
147	0x81	-127
148	0xeb	-21
149	0x10	16
150	0xb7	-73
151	0x0d	13
152	0x28	40
153	0x26	38
154	0x03	3
155	0x81	-127
156	0x06	6
157	0xc5	-59
158	0xaa	-86
159	0x6e	110
160	0x34	52
161	0x33	51
162	0x9d	-99
163	0x37	55
164	0x7f	127
165	0x08	8
166	0xe0	-32
167	0x51	81
168	0x88	-120
169	0x1d	29
170	0xf3	-13
171	0xb6	-74
172	0xa6	-90
173	0xb6	-74
174	0xf5	-11
175	0x02	2
176	0x7f	127
177	0x1a	26
178	0x1c	28
179	0x5e	94
180	0x5b	91
181	0x7b	123
182	0x0a	10
183	0xe3	-29
184	0xe8	-24
185	0xf3	-13
186	0xa8	-88
187	0x81	-127
188	0x35	53
189	0xd9	-39
190	0xfe	-2
191	0x17	23
192	0x81	-127
193	0xda	-38
194	0x10	16
195	0xba	-70
196	0x87	-121
197	0xba	-70
198	0x0f	15
199	0x4d	77
200	0x1f	31
201	0x9e	-98
202	0xfd	-3
203	0x7f	127
204	0x4d	77
205	0xdf	-33
206	0xb6	-74
207	0xb9	-71
208	0x81	-127
209	0xe6	-26
210	0x3e	62
211	0xfc	-4
212	0x77	119
213	0xaa	-86
214	0x2f	47
215	0x48	72
216	0x1a	26
217	0xe2	-30
218	0xcd	-51
219	0x7f	127
220	0x57	87
221	0xdf	-33
222	0xf5	-11
223	0x3b	59
224	0x84	-124
225	0x01	1
226	0xfc	-4
227	0xb9	-71
228	0x7f	127
229	0x56	86
230	0x00	0
231	0x23	35
232	0xf4	-12
233	0xff	-1
234	0xe0	-32
235	0xc6	-58
236	0xaf	-81
237	0x48	72
238	0x2e	46
239	0x7f	127
240	0xb8	-72
241	0xc8	-56
242	0x5b	91
243	0x81	-127
244	0x86	-122
245	0x3e	62
246	0xad	-83
247	0xe3	-29
248	0x4a	74
249	0x3a	58
250	0x2e	46
251	0x68	104
252	0x2e	46
253	0xf3	-13
254	0x81	-127
255	0x4d	77

sequential_39/conv2d_96/Conv2D i1 [32, 3, 3, 32]
0	0x03	3
1	0xd9	-39
2	0x1d	29
3	0xdf	-33
4	0x1f	31
5	0x0a	10
6	0x0b	11
7	0xfa	-6
8	0x01	1
9	0xe5	-27
10	0x04	4
11	0x18	24
12	0x14	20
13	0x14	20
14	0x1f	31
15	0x01	1
16	0xfa	-6
17	0xf8	-8
18	0x07	7
19	0x08	8
20	0x00	0
21	0xd0	-48
22	0xea	-22
23	0x0f	15
24	0x10	16
25	0x1c	28
26	0x1e	30
27	0xee	-18
28	0xea	-22
29	0xe4	-28
30	0x0b	11
31	0x02	2
32	0x1c	28
33	0xf4	-12
34	0x28	40
35	0x05	5
36	0x21	33
37	0x16	22
38	0x1f	31
39	0x24	36
40	0xe9	-23
41	0xd3	-45
42	0xc5	-59
43	0x13	19
44	0xdf	-33
45	0x0c	12
46	0x00	0
47	0xe7	-25
48	0x04	4
49	0xf8	-8
50	0x06	6
51	0x29	41
52	0xc4	-60
53	0xe7	-25
54	0x07	7
55	0x13	19
56	0xf7	-9
57	0x1f	31
58	0x1b	27
59	0x1d	29
60	0x22	34
61	0x1b	27
62	0xe8	-24
63	0x24	36
64	0x18	24
65	0xd9	-39
66	0xf4	-12
67	0x2a	42
68	0x29	41
69	0x11	17
70	0x16	22
71	0x24	36
72	0xa2	-94
73	0x9b	-101
74	0xc7	-57
75	0xf4	-12
76	0xdc	-36
77	0xe4	-28
78	0x19	25
79	0x02	2
80	0xee	-18
81	0x15	21
82	0xf8	-8
83	0x18	24
84	0xd7	-41
85	0xf9	-7
86	0xf5	-11
87	0xfe	-2
88	0x1c	28
89	0xf0	-16
90	0x29	41
91	0x14	20
92	0x21	33
93	0x2d	45
94	0xe4	-28
95	0x09	9
96	0xe1	-31
97	0x37	55
98	0xe6	-26
99	0xe0	-32
100	0xc2	-62
101	0x07	7
102	0xfc	-4
103	0xd9	-39
104	0x1d	29
105	0x2c	44
106	0xc5	-59
107	0xf4	-12
108	0x0c	12
109	0x14	20
110	0xde	-34
111	0x0b	11
112	0xdf	-33
113	0xce	-50
114	0x20	32
115	0xdc	-36
116	0x26	38
117	0xf2	-14
118	0xfc	-4
119	0xf6	-10
120	0xec	-20
121	0xed	-19
122	0x26	38
123	0xeb	-21
124	0xb7	-73
125	0xb1	-79
126	0xfc	-4
127	0x43	67
128	0x02	2
129	0x28	40
130	0xfb	-5
131	0xee	-18
132	0xe7	-25
133	0x14	20
134	0xec	-20
135	0xeb	-21
136	0x38	56
137	0x01	1
138	0xf3	-13
139	0xf6	-10
140	0x08	8
141	0x0b	11
142	0xde	-34
143	0x02	2
144	0x0c	12
145	0xe4	-28
146	0x0e	14
147	0x0a	10
148	0x20	32
149	0xf6	-10
150	0x12	18
151	0x12	18
152	0x16	22
153	0x19	25
154	0x37	55
155	0xc9	-55
156	0xa9	-87
157	0xe2	-30
158	0x15	21
159	0x2e	46
160	0x00	0
161	0xfc	-4
162	0xd4	-44
163	0xe3	-29
164	0x07	7
165	0x13	19
166	0xf8	-8
167	0x0f	15
168	0x08	8
169	0xe8	-24
170	0xb4	-76
171	0x17	23
172	0x1f	31
173	0x11	17
174	0xe2	-30
175	0x04	4
176	0xe5	-27
177	0xe4	-28
178	0x23	35
179	0xfd	-3
180	0x16	22
181	0xde	-34
182	0x19	25
183	0x04	4
184	0xfe	-2
185	0x07	7
186	0x22	34
187	0xd1	-47
188	0xe6	-26
189	0xc5	-59
190	0x1c	28
191	0x3b	59
192	0xc2	-62
193	0x2d	45
194	0xbb	-69
195	0xe9	-23
196	0xb8	-72
197	0x0e	14
198	0xd3	-45
199	0xf6	-10
200	0x16	22
201	0x3b	59
202	0x0e	14
203	0x0d	13
204	0x27	39
205	0x10	16
206	0x04	4
207	0xd8	-40
208	0xb6	-74
209	0xf0	-16
210	0x1a	26
211	0x81	-127
212	0x0b	11
213	0x62	98
214	0x16	22
215	0xc8	-56
216	0xcb	-53
217	0xcb	-53
218	0xa8	-88
219	0xa9	-87
220	0x92	-110
221	0xcd	-51
222	0xfb	-5
223	0x2a	42
224	0xb9	-71
225	0x2d	45
226	0xdc	-36
227	0xa7	-89
228	0xc1	-63
229	0x17	23
230	0xf1	-15
231	0xc9	-55
232	0x33	51
233	0x40	64
234	0xfc	-4
235	0x14	20
236	0x2c	44
237	0x12	18
238	0xf5	-11
239	0xc3	-61
240	0xc0	-64
241	0xbf	-65
242	0xfb	-5
243	0xa3	-93
244	0x0e	14
245	0x2a	42
246	0xef	-17
247	0xd0	-48
248	0xda	-38
249	0xd5	-43
250	0xfd	-3
251	0xac	-84
252	0xbe	-66
253	0xaa	-86
254	0xfa	-6
255	0x06	6

sequential_39/conv2d_97/Conv2D i1 [64, 3, 3, 32]
0	0x25	37
1	0xe4	-28
2	0x21	33
3	0x0b	11
4	0x22	34
5	0xf8	-8
6	0xe9	-23
7	0xf5	-11
8	0xe3	-29
9	0x05	5
10	0x9c	-100
11	0xe1	-31
12	0x15	21
13	0xec	-20
14	0x00	0
15	0x8b	-117
16	0x0e	14
17	0x38	56
18	0xfc	-4
19	0xe2	-30
20	0xf5	-11
21	0xe1	-31
22	0xe7	-25
23	0x09	9
24	0xbe	-66
25	0xcc	-52
26	0x21	33
27	0x06	6
28	0x14	20
29	0xcb	-53
30	0xfa	-6
31	0xd5	-43
32	0x1e	30
33	0x07	7
34	0xf0	-16
35	0x0e	14
36	0xeb	-21
37	0xfc	-4
38	0x00	0
39	0xd4	-44
40	0x31	49
41	0x29	41
42	0x1a	26
43	0xf2	-14
44	0x34	52
45	0x25	37
46	0xf9	-7
47	0xf5	-11
48	0xf5	-11
49	0xc1	-63
50	0xde	-34
51	0xf3	-13
52	0xd5	-43
53	0xd1	-47
54	0xe5	-27
55	0x91	-111
56	0x9f	-97
57	0xc9	-55
58	0x25	37
59	0xf9	-7
60	0xe9	-23
61	0xe8	-24
62	0x05	5
63	0xa0	-96
64	0x24	36
65	0x15	21
66	0xfb	-5
67	0x23	35
68	0xfa	-6
69	0xf0	-16
70	0x02	2
71	0xd3	-45
72	0xf0	-16
73	0xf8	-8
74	0xe3	-29
75	0xbf	-65
76	0x00	0
77	0x01	1
78	0xec	-20
79	0x15	21
80	0x1a	26
81	0xeb	-21
82	0xe6	-26
83	0x11	17
84	0x25	37
85	0x01	1
86	0x16	22
87	0xdf	-33
88	0x0a	10
89	0x0d	13
90	0xf3	-13
91	0xfa	-6
92	0xd7	-41
93	0x1f	31
94	0x16	22
95	0x07	7
96	0xff	-1
97	0xf9	-7
98	0x04	4
99	0xef	-17
100	0xde	-34
101	0x26	38
102	0xd0	-48
103	0xd1	-47
104	0xc6	-58
105	0x0b	11
106	0xd2	-46
107	0x12	18
108	0x07	7
109	0xcd	-51
110	0x25	37
111	0xd6	-42
112	0x07	7
113	0x28	40
114	0xee	-18
115	0xe9	-23
116	0x05	5
117	0xba	-70
118	0xef	-17
119	0xfb	-5
120	0xaa	-86
121	0xb4	-76
122	0x21	33
123	0xfa	-6
124	0x21	33
125	0xed	-19
126	0x12	18
127	0xc9	-55
128	0xfc	-4
129	0x18	24
130	0xdc	-36
131	0x2c	44
132	0xfe	-2
133	0xdd	-35
134	0xd8	-40
135	0xe1	-31
136	0xfa	-6
137	0xfd	-3
138	0x07	7
139	0xb9	-71
140	0xc0	-64
141	0x00	0
142	0x2c	44
143	0x15	21
144	0x0d	13
145	0x14	20
146	0xe8	-24
147	0x3f	63
148	0xd4	-44
149	0x15	21
150	0x34	52
151	0xdf	-33
152	0x15	21
153	0xe0	-32
154	0x07	7
155	0xe5	-27
156	0xea	-22
157	0x0e	14
158	0x24	36
159	0xde	-34
160	0xf2	-14
161	0x14	20
162	0x16	22
163	0x49	73
164	0x2c	44
165	0x0a	10
166	0x29	41
167	0x10	16
168	0x1d	29
169	0x1c	28
170	0xac	-84
171	0x20	32
172	0x32	50
173	0x30	48
174	0x04	4
175	0x23	35
176	0xff	-1
177	0x2e	46
178	0xdc	-36
179	0xeb	-21
180	0x17	23
181	0x32	50
182	0x18	24
183	0x2d	45
184	0xfb	-5
185	0xf5	-11
186	0x3f	63
187	0x22	34
188	0x0d	13
189	0x35	53
190	0x11	17
191	0x0b	11
192	0xa0	-96
193	0xf2	-14
194	0xe5	-27
195	0x3c	60
196	0x25	37
197	0xca	-54
198	0xbd	-67
199	0xf7	-9
200	0xcc	-52
201	0xb8	-72
202	0x13	19
203	0x54	84
204	0x0e	14
205	0x81	-127
206	0xe1	-31
207	0x0c	12
208	0xd8	-40
209	0x21	33
210	0x30	48
211	0xe3	-29
212	0x06	6
213	0x0d	13
214	0xcf	-49
215	0xed	-19
216	0xe1	-31
217	0xfe	-2
218	0x31	49
219	0xf3	-13
220	0xd5	-43
221	0xf9	-7
222	0xe9	-23
223	0xdf	-33
224	0x0a	10
225	0xf0	-16
226	0x03	3
227	0xfb	-5
228	0x1e	30
229	0xd0	-48
230	0xdb	-37
231	0xf8	-8
232	0xd9	-39
233	0xce	-50
234	0xfd	-3
235	0xe3	-29
236	0x14	20
237	0xd1	-47
238	0xe0	-32
239	0xf0	-16
240	0xe2	-30
241	0xf7	-9
242	0x0d	13
243	0x1c	28
244	0x21	33
245	0x24	36
246	0x0a	10
247	0x10	16
248	0x17	23
249	0x12	18
250	0xef	-17
251	0xd5	-43
252	0x06	6
253	0xfd	-3
254	0xed	-19
255	0x16	22

sequential_39/conv2d_98/Conv2D i1 [64, 3, 3, 64]
0	0x35	53
1	0x12	18
2	0xef	-17
3	0x0a	10
4	0xeb	-21
5	0x02	2
6	0x0a	10
7	0xd9	-39
8	0xa8	-88
9	0x94	-108
10	0x08	8
11	0x10	16
12	0xfe	-2
13	0xf0	-16
14	0xf9	-7
15	0x12	18
16	0xd6	-42
17	0xfa	-6
18	0x3c	60
19	0xec	-20
20	0x12	18
21	0x00	0
22	0xe6	-26
23	0x07	7
24	0xd3	-45
25	0xe5	-27
26	0xb9	-71
27	0xee	-18
28	0x6c	108
29	0xef	-17
30	0xaf	-81
31	0xe0	-32
32	0xdf	-33
33	0x30	48
34	0xe6	-26
35	0xe5	-27
36	0xdd	-35
37	0xb0	-80
38	0xeb	-21
39	0xc2	-62
40	0x97	-105
41	0xee	-18
42	0xf0	-16
43	0xc9	-55
44	0xf8	-8
45	0xb0	-80
46	0xd0	-48
47	0x01	1
48	0xd9	-39
49	0xef	-17
50	0xc6	-58
51	0x08	8
52	0xbb	-69
53	0xdb	-37
54	0x1b	27
55	0xce	-50
56	0xeb	-21
57	0xbc	-68
58	0x13	19
59	0x08	8
60	0xdc	-36
61	0xf5	-11
62	0x04	4
63	0xfe	-2
64	0x1d	29
65	0xdc	-36
66	0x19	25
67	0x0b	11
68	0xf9	-7
69	0xf5	-11
70	0xe8	-24
71	0x2c	44
72	0xcf	-49
73	0xf5	-11
74	0xd9	-39
75	0x33	51
76	0x9b	-101
77	0x38	56
78	0xa5	-91
79	0x0e	14
80	0xe4	-28
81	0x12	18
82	0x21	33
83	0xd3	-45
84	0x2b	43
85	0xc7	-57
86	0xad	-83
87	0xd4	-44
88	0x14	20
89	0xdb	-37
90	0x37	55
91	0x13	19
92	0x74	116
93	0xc2	-62
94	0xcf	-49
95	0xed	-19
96	0xa5	-91
97	0xf9	-7
98	0xea	-22
99	0xc5	-59
100	0xca	-54
101	0xf9	-7
102	0xd5	-43
103	0xd1	-47
104	0xbb	-69
105	0xea	-22
106	0xba	-70
107	0xfc	-4
108	0xda	-38
109	0xb6	-74
110	0xde	-34
111	0xd9	-39
112	0x8e	-114
113	0xea	-22
114	0x16	22
115	0xf8	-8
116	0xc5	-59
117	0x1f	31
118	0xd2	-46
119	0xc5	-59
120	0x20	32
121	0x15	21
122	0x07	7
123	0x08	8
124	0xe9	-23
125	0xf3	-13
126	0x19	25
127	0xde	-34
128	0xc8	-56
129	0xc8	-56
130	0x0e	14
131	0xf9	-7
132	0x08	8
133	0xf0	-16
134	0xf7	-9
135	0xff	-1
136	0xe9	-23
137	0x5c	92
138	0xb2	-78
139	0x30	48
140	0xa0	-96
141	0xe9	-23
142	0xc6	-58
143	0x03	3
144	0xf1	-15
145	0xc4	-60
146	0x39	57
147	0xd3	-45
148	0x0a	10
149	0xb4	-76
150	0xec	-20
151	0xc0	-64
152	0x28	40
153	0x22	34
154	0x1d	29
155	0xed	-19
156	0x0d	13
157	0xe6	-26
158	0xfd	-3
159	0x0f	15
160	0xce	-50
161	0xdf	-33
162	0xde	-34
163	0x9e	-98
164	0xfd	-3
165	0xa8	-88
166	0xae	-82
167	0xd5	-43
168	0xf7	-9
169	0x02	2
170	0xd3	-45
171	0x29	41
172	0xdf	-33
173	0x2d	45
174	0xbd	-67
175	0xab	-85
176	0xab	-85
177	0xe9	-23
178	0xeb	-21
179	0x9f	-97
180	0x04	4
181	0x4c	76
182	0xe0	-32
183	0xb9	-71
184	0xbf	-65
185	0xff	-1
186	0x1a	26
187	0xff	-1
188	0xdf	-33
189	0x2b	43
190	0xac	-84
191	0xcc	-52
192	0xd1	-47
193	0x22	34
194	0x25	37
195	0xf8	-8
196	0xbc	-68
197	0xe6	-26
198	0xf2	-14
199	0x16	22
200	0xdd	-35
201	0xa6	-90
202	0x23	35
203	0x1f	31
204	0xc1	-63
205	0xd8	-40
206	0xe9	-23
207	0xf5	-11
208	0xeb	-21
209	0x16	22
210	0xd8	-40
211	0xec	-20
212	0x0b	11
213	0x28	40
214	0x98	-104
215	0xdb	-37
216	0xdc	-36
217	0x06	6
218	0xd9	-39
219	0xc0	-64
220	0xf8	-8
221	0xf2	-14
222	0xb4	-76
223	0xd8	-40
224	0xc7	-57
225	0x04	4
226	0xec	-20
227	0x29	41
228	0xe8	-24
229	0x19	25
230	0xda	-38
231	0xe6	-26
232	0xc8	-56
233	0xbb	-69
234	0xdb	-37
235	0xcb	-53
236	0xda	-38
237	0xbd	-67
238	0xcf	-49
239	0x2a	42
240	0x90	-112
241	0xaf	-81
242	0xb4	-76
243	0xc8	-56
244	0xf5	-11
245	0x1b	27
246	0x10	16
247	0xce	-50
248	0x1e	30
249	0xcb	-53
250	0x45	69
251	0x3d	61
252	0x36	54
253	0xe6	-26
254	0xd0	-48
255	0xf8	-8
