Auto_TF_to_uC/Converted_model_files/EMNIST_model_pruned.tflite (tflite, 355968 bytes, 12 tensors)

sequential_39/conv2d_95/Conv2D/ReadVariableOp f4 [1, 3, 3, 26]
00000000: d4b4 803e 2cb1 8c3e f464 333d 3b2d 64be
00000010: dc48 49be b076 30be db8e f23d b76e 823e
00000020: 1962 8c3e b893 a4bc e46a 713e adf8 f83d
00000030: df8b 983c d569 fcbe 09e1 c13d 49ec 5ebe
00000040: f341 1abe 2e25 403e 61ab 9cbe 2141 773d
00000050: 4951 aabd 853c 4cbe 45bf bd3d 4e9f ffbd
00000060: 5fab eb3d 1f29 88be 66d6 423c 5f26 433e
00000070: 6b2e 69be 07e3 25be 72c6 b4bd ad02 963d
00000080: 2dc1 3a3e 06de 0a3d fece 7a3d e929 053e
00000090: 6351 6e3e 908c 9a3d 2b4e 2f3e 0fd7 bdbe
000000a0: 7aef a33c 743c f33d 974e 26be 0b77 7c3e
000000b0: 5da5 9cbc 6a08 82bd 8b1b 09be b826 37be
000000c0: 46b2 03bd 1a01 f6bd 1d10 423d cfa0 79be
000000d0: e7f0 9bbd f3e0 513b 6847 04bd 4b2d cbbd
000000e0: ff7e 77be 74ef 003e 65f5 953d 3543 853e
000000f0: 0f63 e4be 9ec6 303e fbb9 69be df66 33be
00000100: 5c5b 353d 4d8a c8bd 21a4 8fbe 0f1a 903e
00000110: 7f37 04be 917b df3c 4f96 193e 7c84 cbbd
00000120: 15f0 36be 30ae ce3d 98c3 86be 5598 9dbd
00000130: 2872 2a3e 9672 313e e91e 163e edfd a3bd
00000140: d47b 82be a3aa 3f3e efa3 183e 64ec 46be
00000150: 6225 d43c fac1 86be bfce fa3c 5e11 91be
00000160: a952 023e b75b 0dbf 4ce0 913e edb2 16bf
00000170: d7c6 d93c 0049 a93c a7ec c2bc 7fdb 49bd
00000180: b66c 67bf b663 863e 9db1 203e 25b7 eebd
00000190: 27c0 233e 5b25 873d ac49 53bc 7b7b 1b3e
000001a0: 2b86 e5bd e5a4 183d c5e9 55bd 14c4 1f3d
000001b0: 3b34 71bc 64f9 593c 9922 b0bd 7f18 d4bd
000001c0: 93a7 f7be c688 b03d 23e9 9f3d c817 88be
000001d0: a58c e43c ce55 a1bd 03da 01be ed74 95bd
000001e0: 1e6c a73b ad80 41bd 1e25 79be f201 323e
000001f0: 9ce2 c83d fc32 1ebd b0b6 a6bb 2b3f babd
00000200: ab2e e53d 14cc 883d b559 84be f2e3 5cbe
00000210: 1da2 b13d 4990 1c3e 540b 263d 6809 4c3e
00000220: b0aa 2a3e 0a1c 223d 4f08 90be b23c fe3d
00000230: 13e2 c1bb 1885 47bf 9086 f0bc 1156 9d3d
00000240: d5b4 44be 6d82 313e 8036 6b3e 8c04 babc
00000250: 95c7 e63d 6cc4 88bd 15bb 8e3e 7a42 e93d
00000260: 4e65 53be d2ea 8cbd d10e 583e fd55 ecbd
00000270: dc93 b73d d32d 11be 0b46 56be dd03 673e
00000280: bcb6 793d f4cf 9c3d f2f9 aabe 330e 3bbe
00000290: 4345 b1be 56f4 60be bc1b 41be 36ea c13c
000002a0: 7377 4d3e 8b27 b8be a7eb 893e 90f5 86be
000002b0: 9ab8 453d c3be 1fbe 2de3 08bf 37e8 90bc
000002c0: 6a24 1ebe a6dc c73d f943 893e 11f5 713e
000002d0: f799 23bd a016 a63d 623e abbc 0986 2abc
000002e0: f090 9f3d fd88 773b 293d 803e 5f4a c9bd
000002f0: 19ff 15bc 3ca3 30be c64a b2bd ce54 e9bb
00000300: b57d 4dbd 0ce2 c43d 34f5 71be b67a 573d
00000310: 4f4f f43d 0268 863d 0833 4d3d 200a 74be
00000320: 7db6 5bbf f727 fe3d 08cc f4bd fdfc 983d
00000330: 1340 a93d c080 193e ed63 43be c748 0fbe
00000340: 5ac1 96bd 181f f4bc 0c97 673e 9e3f adbd
00000350: eff2 053e 4e72 fd3d 8036 9cbd 77f9 183e
00000360: 41cd 713e 07a0 9a3d 8051 e0bd 1df8 a13d
00000370: 7074 bcbe 2599 3b3e a18a ec3d cec8 07bd
00000380: 0b06 343e 5828 e83d 6086 04bf fd4b 81be
00000390: e942 4e3e ffe9 2e3e 9446 eabd 0a65 1f3d
000003a0: d95d c6bd 3307 c6be
0.2513796 0.2747892 0.04379745 -0.22282879 -0.196567 -0.17232776 0.11843654 0.25475094
0.27418593 -0.020089969 0.23575932 0.12156806 0.018621383 -0.49299493 0.0946675 -0.21769823
-0.1506422 0.18764183 -0.30599502 0.060364846 -0.08316285 -0.19944961 0.092649974 -0.12481557
0.11507296 -0.26593873 0.011891937 0.19057606 -0.22771613 -0.16199885 -0.08826913 0.07324729
0.18237753 0.033903144 0.06123256 0.13004269 0.23273234 0.075463414 0.17119662 -0.3707814
0.020011652 0.11876765 -0.16240917 0.24654786 -0.01912182 -0.06349261 -0.13389413 -0.17885864
-0.032152437 -0.12011929 0.047378648 -0.2437775 -0.07614308 0.003202495 -0.03229466 -0.09920748
-0.24169539 0.12591344 0.07322196 0.26027837 -0.44606826 0.17263266 -0.22824852 -0.17519711
0.04427658 -0.09792004 -0.28054908 0.2814488 -0.12911795 0.0272806 0.14998744 -0.09937379
-0.17865022 0.100918174 -0.263211 -0.07695071 0.1664511 0.17328867 0.14660229 -0.08007417
-0.25485098 0.18717436 0.14906286 -0.19426113 0.025896732 -0.26319867 0.030616162 -0.28333563
0.12726845 -0.5521807 0.28491437 -0.5886677 0.026584072 0.020664692 -0.023794485 -0.049281593
-0.90400255 0.26247948 0.15692754 -0.11656026 0.15991269 0.06598922 -0.012895983 0.15183823
-0.11207231 0.03726663 -0.052224893 0.039005354 -0.014721925 0.013304088 -0.08600349 -0.10356235
-0.48370036 0.086198375 0.07808139 -0.26580644 0.027899096 -0.07877694 -0.12680821 -0.072976924
0.005109324 -0.047241855 -0.24330565 0.17383555 0.09808847 -0.03862284 -0.005087696 -0.090940796
0.11190542 0.0667955 -0.2584969 -0.21571329 0.08673499 0.15289415 0.040538147 0.19925463
0.16666675 0.03957752 -0.2813134 0.124139205 -0.0059168427 -0.7793746 -0.02936104 0.076824315
-0.19209607 0.1733491 0.22970009 -0.022707246 0.11268536 -0.066780895 0.27877107 0.113896325
-0.20644113 -0.06880726 0.21099402 -0.115398385 0.08963749 -0.14177637 -0.20925157 0.22560067
0.060965285 0.076568514 -0.33393818 -0.18267135 -0.34623155 -0.21968207 -0.18858236 0.02367125
0.20065098 -0.3596767 0.269376 -0.26359224 0.048271753 -0.15600114 -0.5347164 -0.017688854
-0.15443578 0.09758882 0.26809672 0.23628642 -0.039941754 0.08109784 -0.02090377 -0.010407933
0.077913165 0.003777086 0.25046661 -0.09828638 -0.009155058 -0.17249769 -0.08705668 -0.007120705
-0.05016871 0.096134275 -0.23628694 0.05260726 0.119291894 0.06562807 0.050097495 -0.23831987
-0.8582533 0.124099664 -0.119529784 0.07470129 0.08264174 0.1499052 -0.19081087 -0.13992606
-0.07361098 -0.029799983 0.22616214 -0.084594 0.13080953 0.123753175 -0.076275826 0.14938913
0.23613454 0.07550054 -0.10953045 0.07908652 -0.36807585 0.18320139 0.11549879 -0.033150487
0.1758043 0.1133582 -0.5176754 -0.25253287 0.20142712 0.1708145 -0.11439243 0.038914718
-0.09685869 -0.38677368

sequential_39/conv2d_95/Conv2D_bias f4 [26]
00000000: ffd1 b83c adc6 003d ea93 6a3d 7c7f cfba
00000010: ee08 573c bc97 2abc 87b8 993c d605 be3c
00000020: 301e dc3d 6e9f 9bba a077 ddbb c411 013e
00000030: 6961 4cbc 2ed8 073e 64ea ec3c 7d21 e5bb
00000040: 0004 ed3c 3517 0b3c af96 7e3e cf9c c5bc
00000050: b4df f4bb a277 9b3c cae3 673d 8cf2 093d
00000060: 34de a1ba 5e9a b73d
0.022561071 0.031439472 0.057269968 -0.001583084 0.013124688 -0.010412153 0.018764747 0.023196142
0.10747945 -0.0011873075 -0.006758645 0.12604433 -0.012474396 0.1326606 0.02892036 -0.0069925175
0.028932571 0.00848942 0.24862169 -0.024122624 -0.0074729566 0.018977944 0.05661372 0.033678576
-0.0012349547 0.0896499

sequential_39/conv2d_96/Conv2D/ReadVariableOp f4 [26, 3, 3, 26]
00000000: 66bf c4bc d216 16be 0203 ce3d 1ca1 fabd
00000010: 7dc0 e93d 4e88 b93c 578d c83b bdbc d0bd
00000020: 3504 633d 3fcd 823d d793 903d 075c 093e
00000030: 2984 dd3c 7b86 86bb 641f fdbc 8571 b83c
00000040: b1df bd3c 3a49 b2bb 2646 48be d13d 873d
00000050: d76e cb3d 1cbd 9abd 988e 9fbd 88ce cbbd
00000060: 49d2 4c3d 7112 aaba 0972 723d 7630 52bd
00000070: e69c 283e 0d62 503c 689c ea3d 1570 ac3d
00000080: b8e5 8fbd dee4 20be c45f 58be 8830 e1bd
00000090: 6191 2d3d c7be 34bc 80a1 93bd e9c7 2d3d
000000a0: cb7a 35bd f288 043d aee2 123e 4046 4fbe
000000b0: 511d cdbd e9a6 3bbd 0ea2 ac3d 97fe d83d
000000c0: 0aad d63d 8202 c53d e890 89bd 1f58 0c3e
000000d0: 4376 c13c f406 17be ceaa c2bc 0271 123e
000000e0: aa2f 053e a333 b03d 8442 a0be dfdf adbe
000000f0: eaf5 65be ec8f e4bd e819 d1bd f608 a23d
00000100: 1d6f 933c 6a5f 20bd 0fe3 e93c ed06 53bc
00000110: 3d55 a73d 4c38 03be e27a 4fbc 8a87 a13d
00000120: 5209 103e d09d a33d 3bf2 933d 73ad 0a3e
00000130: e5f4 8bbd efa0 e53c 3805 cabd 35ca 553e
00000140: dab9 9fbd be73 efbd e3a8 4abe dec2 8f3c
00000150: 5943 d03d 54ca 253e 8a4e 4cbe a6ed 373d
00000160: fdf8 8c3d 8b65 ffbd 22dd 853c 06f7 c5bd
00000170: 0c9d 20be 654b d73d ca3c e3bd e85b 0b3e
00000180: 488d babd 4aa0 c1bd 6ced 193e 26a6 97bd
00000190: 7952 83be f601 8abe db7f a0bc 2441 4f3e
000001a0: c313 213c ac20 103e 9d10 66bc e117 23bd
000001b0: 9baa 7ebd a847 863d 8958 413e 4f24 3abb
000001c0: a14b 4abd 3c8f a63c c58a a83c b012 f7bd
000001d0: dc64 1d3b 252a 7c3d 91d8 b6bd d643 383d
000001e0: dd80 503d a584 c23d dbda 5bbd 02c9 9c3d
000001f0: 31d9 2d3e 6cc7 3abe 2582 a3be 2d95 8bbd
00000200: 47d2 913d 4514 2b3e 3687 e6bb 9a0a 8abc
00000210: 7712 27be df5d a3bd a3e6 003c 6db2 9d3d
00000220: e932 aa3c b528 afbd 8ea2 9abe af1d d93d
00000230: 16cd 323d ea7d f7bd a885 0e3d efc6 aebd
00000240: ae19 08be 338a 003e 1212 fbbc 0fc2 903d
00000250: c906 a8bd 3897 18bc cd9a b53d e529 21be
00000260: 1382 ddbd 8443 53be fbb3 df3d 2ef7 683e
00000270: e259 88be a2c4 203e 0641 83be 1c31 acbd
00000280: 7b7e 91be de5f 763d c368 bd3d 658d 5a3e
00000290: ebd1 7f3d 1914 203e 561e 833d 2ac4 683c
000002a0: 7451 19be 38c3 90be 3715 b2bd d8f7 d73d
000002b0: 830b efbe cb18 3c3d 728b ae3e 6137 48be
000002c0: f673 95be dfc3 a9be dc70 dcbe b9a2 4abe
000002d0: b5b9 2fba e8d6 1e3e 2ad4 8abe dbf4 233e
000002e0: 5f5e 2bbe 1774 a6be 0401 70be c1ce 5b3d
000002f0: 467b 3d3e db59 5f3e 2aa6 82bc 7f19 1c3e
00000300: 3066 a13d 376c 39bd 58b0 4fbe 3a4c 71be
00000310: ff9b 95be 1c01 95bc acb9 b3be 16b7 2c3d
00000320: 67dd 0f3e 59e8 e2bd 3efb 07bc 4d73 a8be
00000330: 803b 83be aeee a9be 9c0f 5dbc 0edd 243d
00000340: 5162 623d 83c7 3d3e bd04 abbe e828 8dbe
00000350: b53e 7dbe 07d6 b5bd ad71 433e 0b74 773e
00000360: 5604 f0bd 8e87 263d 3209 d33d bc78 54bd
00000370: 97dc aebd 9eaa 7ebe e62a 61be 100c 903d
00000380: 35e0 8cbe 780b 0f3e 2ea1 873d 1f2b 1dbd
00000390: 05c4 efbd 9fb6 c5be 2f53 3ebe 5d82 80be
000003a0: 1b0a cc3d 6f21 9a3d 13ad 67bd 1c71 fd3d
000003b0: 8bce cc3d 87a5 17be 5fa3 f4bc 1a11 3cbd
000003c0: 061b 663d 617c 273e 0443 20bd c3b4 653c
000003d0: 7aa4 583d c395 88bd db2a 31be 8d9b 533e
000003e0: 780e 9c3d 548b eebc 6872 513d bc9f 2f3e
000003f0: 0576 b3bd 3721 c6bd 303f fc3d 3f2e 87bd
-0.024017047 -0.14657143 0.100591674 -0.122377604 0.11413667 0.022648003 0.0061203646 -0.10192249
0.055423934 0.06386804 0.07059448 0.13414012 0.027040558 -0.004105387 -0.030898757 0.022515068
0.023177953 -0.005440858 -0.1955801 0.066035874 0.099332504 -0.07555601 -0.077908695 -0.09951502
0.05000523 -0.0012975467 0.059190784 -0.051315747 0.16466102 0.01271869 0.114556134 0.084198155
-0.07026237 -0.15712306 -0.21130282 -0.10995585 0.042374972 -0.011031813 -0.07208538 0.042426977
-0.044306558 0.032357164 0.14344284 -0.20241642 -0.10015357 -0.045813475 0.08429347 0.10595434
0.10482223 0.09619619 -0.06717092 0.1370549 0.023615962 -0.14748746 -0.023763087 0.14300922
0.13006464 0.08603599 -0.31300747 -0.33959863 -0.2245709 -0.111602634 -0.10210019 0.079118654
0.017997319 -0.039153494 0.028550653 -0.012880069 0.08170555 -0.12814444 -0.012663575 0.0788718
0.14066055 0.07989085 0.07223936 0.13542728 -0.06833819 0.02803084 -0.09864277 0.20877917
-0.0779912 -0.11691998 -0.19790988 0.017548975 0.101690955 0.16190463 -0.19951835 0.044904374
0.06883428 -0.1247054 0.016340796 -0.096662566 -0.15684909 0.10512427 -0.11095579 0.13609278
-0.091089785 -0.09454401 0.15031976 -0.07404737 -0.2564886 -0.2695462 -0.019592216 0.20239693
0.009831372 0.14074963 -0.014042047 -0.039817695 -0.06217442 0.06556636 0.1888143 -0.002840299
-0.04938853 0.020331971 0.020573983 -0.12064111 0.0024016416 0.06156363 -0.089280255 0.04498657
0.050904144 0.09497956 -0.053675514 0.07655527 0.16977383 -0.18240136 -0.3193523 -0.068155624
0.07120185 0.16706951 -0.0070351614 -0.016850758 -0.16315638 -0.07976889 0.007867488 0.07700048
0.020776229 -0.08552686 -0.30202144 0.10601365 0.043652616 -0.12084563 0.034795433 -0.08534037
-0.13291046 0.12552719 -0.030648265 0.07068264 -0.08204419 -0.009313397 0.088674165 -0.15738638
-0.10815825 -0.20631224 0.109230004 0.22750542 -0.26631075 0.1570001 -0.25635546 -0.08407804
-0.2841681 0.06015002 0.09248497 0.21343 0.062456053 0.15632667 0.064022705 0.014206925
-0.14972478 -0.2827394 -0.08695453 0.10545319 -0.4668847 0.045922082 0.34090763 -0.19552375
-0.29190034 -0.3315725 -0.43054855 -0.19788636 -0.0006703393 0.15511668 -0.27114993 0.16011374
-0.16735218 -0.32510445 -0.23437887 0.053663973 0.18504056 0.21811621 -0.015948374 0.15244101
0.07880819 -0.045269217 -0.20282114 -0.23564234 -0.29220578 -0.018189006 -0.35102594 0.04216679
0.14049302 -0.11079473 -0.008299647 -0.32900468 -0.25631332 -0.3318991 -0.013492491 0.040249877
0.055269543 0.18533139 -0.33402053 -0.27570271 -0.24730952 -0.08878713 0.19086333 0.2416536
-0.11719577 0.04065662 0.10304488 -0.051872954 -0.08538168 -0.24869773 -0.2198902 0.07033551
-0.27514806 0.13969219 0.066225395 -0.0383712 -0.1170731 -0.3861589 -0.1858642 -0.2509946
0.09962865 0.07525908 -0.05656154 0.123750895 0.100003324 -0.14809237 -0.029863058 -0.045914747
0.056178115 0.1635604 -0.03912641 0.014020148 0.052891232 -0.0666919 -0.17301504 0.20664807
0.07619947 -0.029119171 0.051134497 0.17150778 -0.08762745 -0.09674304 0.123167396 -0.066006176

sequential_39/conv2d_96/Conv2D_bias f4 [26]
00000000: 3966 dcbb e644 6cbb 9fa0 f83c d8bf 953d
00000010: acba 2f3d 0298 803d bb40 a33d 8260 5f3d
00000020: 5c11 203d 67f2 e23c 72ef 853d e8fa b53c
00000030: 0f08 05bd c396 f3bb bc94 f23c 6286 82bb
00000040: caad e2bc f2a1 ba3c f64b 5cba 77d3 243d
00000050: 3bbf 073d a629 923d 0c85 6dbc 1df8 5c3d
00000060: e5c3 2c3d a1fd 553c
-0.006726053 -0.003605181 0.030350028 0.07311982 0.042902634 0.06278993 0.07971331 0.054535396
0.039079055 0.027703477 0.06539811 0.022214368 -0.03247839 -0.0074337437 0.029611938 -0.003983305
-0.02767076 0.0227823 -0.0008403653 0.04024073 0.033141356 0.0713685 -0.014497053 0.053947557
0.042179007 0.013060958

sequential_39/conv2d_97/Conv2D/ReadVariableOp f4 [52, 3, 3, 26]
00000000: d0c1 c73d ce1e 813c e56b bc3d 63db 75bc
00000010: 5d91 89bd 8811 c3bd 94fb a43c 2082 92be
00000020: adcb 88bd 8aa0 533d 5446 3bbd 1a23 123b
00000030: 0dd1 87be 4c68 023e 5786 b83c 8c5d a7bd
00000040: f5e5 09bd ac35 90bd 12bc 99bd 7d41 f33c
00000050: ea7b 2cbe 0060 05be c44e 663d b774 9c3d
00000060: e2a0 11be d50c e5bd 57e9 af3d b6ce 0c3d
00000070: 924e 50bd 8698 263c 4847 36bc 6652 ff3d
00000080: bdc2 033e 85cb 683d ea1b b8bc d518 113e
00000090: b6b5 d33d d5da aebb 3079 ddbb 1460 21be
000000a0: e2e9 adbd dba9 a1bc c029 babd 1695 c7bd
000000b0: b828 8ebd 568c 92be 7d25 79be 7fc6 10be
000000c0: 4489 b83d 9e53 9dbc 8020 85bd df55 79be
000000d0: 9aee 003e 13ae df3d 2fcd 89bc fcaf d0bc
000000e0: 8f1e 9a3c 9c4e e2bc 068a 383b 6861 babd
000000f0: 634a 09be 9833 923c 6e6a b83c c2eb 8fbc
00000100: f17d 773d 8118 06bd 28ff 62bd 4013 9e3d
00000110: 5de4 0d3e a5dd 833a 2f8f a73d 8995 b6bd
00000120: 73f7 083d d53a ff3c 5747 f3bc fcb7 3bbd
00000130: 384a bf3d 0c0c 0c3d 6ee3 823b 47f9 eabc
00000140: c2c9 c0bd a5b5 023e f66c 0abe 8ec7 1cbe
00000150: 839a b63c 2b4d 0abe 43a8 6a3d ff33 8f3c
00000160: 093f 0ebe 5359 c43d e6f5 99bd 5829 f03d
00000170: f586 ffbc 52b9 8ebd f22b fd3c 5575 37be
00000180: ad84 4fbd b898 43ba 0091 61be 4c58 53be
00000190: 38db e13d a72b f53d 624a 22bd f208 03be
000001a0: 1a75 80bc 1c41 003e 8c52 c4bb 2ac0 a2bd
000001b0: d4bb f0bd 048c 3abc c86d 96bc 504d 5d3c
000001c0: d558 2ebe 1b44 3bbe 94df b3bb b3c0 fa3d
000001d0: 7e37 883d cf50 273d 4181 58bd 7ef2 283e
000001e0: 5510 c6bd ef13 443d d529 033e be1a babd
000001f0: c88d 3d3d a91b d6bd 02b3 e53c db43 25bd
00000200: 0d73 0c3d fbfc b7bd 56e2 42bd cd37 453e
00000210: acf5 053e 438f 8a3c c279 f73d 5adc b23d
00000220: 1484 9d3d 0770 71be cdd6 023e 739d 0f3e
00000230: 51d3 013e 5c9d c13c a290 e93d a37a ea3d
00000240: a87f 95bd 84f4 76bd 6495 8b3d 95e1 083e
00000250: 1599 6c3d a696 e63d 55e3 61bc 2024 15bd
00000260: 4e14 303e 1e58 533d 31fb 003e a02a fa3c
00000270: 7ab1 54be 2835 743e 7a85 913d 006e 51be
00000280: b471 72be 2dba 38be d4f6 2abe 48c3 083d
00000290: 530b 803e d137 1c3d da38 b7be 20f4 54bd
000002a0: 1143 4d3d c27d 253e 1569 143e 138f 3ebd
000002b0: e313 013d a1d5 3f3d e75a babd 4be7 79bd
000002c0: f371 47bd 868a 69bd 0c19 3e3e ed1d c6bd
000002d0: 59c1 27bd a6a3 dfbc 92ec a13d 1b12 813d
000002e0: 9573 863d 9253 28be bd1d 89bd ecad 78bd
000002f0: 8f8a cdbd 8a5b 3ebc 21a0 6bbd bf49 ad3d
00000300: 72c1 fdbd e324 91bd 6056 5dbd 5cda 18bc
00000310: bef7 853d f1bf ba3d f37a cf3d 12b3 c13d
00000320: 65d9 2e3d e330 493d 719f 883d e25d 923c
00000330: 744f ad3c 4956 5f3c efbb 223b 6a0e 9f3d
00000340: 54bc 3e3e a2d8 86bd 07ab 7cbd 6217 bdbd
00000350: 6b28 55be ef47 8cbe 8227 9b3d ed7c b3bd
00000360: 73a4 ad3e f37a c93c e341 703d 9180 443e
00000370: da2f ec3d 778d 93bd 5ffd ab3d c59d 253e
00000380: 5cb7 3b3e 719f 0bbe 4f28 27bd 59c0 56bc
00000390: b2ca eebd f4d6 c5bd 0b82 9d3c e61d 0b3e
000003a0: 579b 07bd 4c3e 253c 5cb7 2d3e aaf2 023d
000003b0: 6e11 523c b681 c33d fb4f 753b 007e 283e
000003c0: 6c33 733d eff9 6fbc 521f 7dbd 0f98 d8bd
000003d0: 92d1 913e cb6f cc3d aa66 4ebe 8cde db3b
000003e0: 3e8e 85bd c015 163e d40f 13be af2f 94be
000003f0: 1416 a7bd 1848 33be b764 84be 4900 323d
0.09753764 0.01576176 0.09200267 -0.015005919 -0.06717179 -0.09524828 0.020139493 -0.28614902
-0.06679473 0.051666774 -0.045721367 0.0022298754 -0.2652668 0.12735099 0.022524996 -0.081721395
-0.03366657 -0.07041487 -0.07506575 0.029694313 -0.16844144 -0.13024902 0.05622746 0.07639449
-0.14221528 -0.11184088 0.08589428 0.034376822 -0.05085618 0.0101682 -0.011125393 0.12466888
0.12867256 0.056834716 -0.022474248 0.14169629 0.10337393 -0.0053361454 -0.0067588314 -0.15759307
-0.08491875 -0.019734314 -0.090899944 -0.09745233 -0.0694136 -0.28622693 -0.24330707 -0.1413822
0.09010556 -0.01920491 -0.065003395 -0.24349163 0.1259102 0.10921874 -0.016821472 -0.02547454
0.0188134 -0.027625374 0.002815844 -0.0910061 -0.13407283 0.017846867 0.022511687 -0.017568473
0.06042284 -0.032738212 -0.055419117 0.077185154 0.13856645 0.0010060562 0.08181607 -0.0891524
0.03343911 0.031155983 -0.029697103 -0.045829758 0.09340328 0.034191176 0.003994397 -0.028683318
-0.09413482 0.12764604 -0.13518128 -0.15310499 0.022290474 -0.13506 0.057289373 0.017480848
-0.13891234 0.0958735 -0.075176045 0.11726636 -0.031192282 -0.06968941 0.030904744 -0.17915852
-0.05066364 -0.00074614165 -0.2202797 -0.20639151 0.11028141 0.11971217 -0.03962172 -0.12796381
-0.015680838 0.12524837 -0.0059912857 -0.07946809 -0.11754575 -0.011385921 -0.018362895 0.013507202
-0.17026074 -0.18287699 -0.005489299 0.12243786 0.06651209 0.04084855 -0.05285764 0.16498753
-0.09671084 0.047870573 0.12808926 -0.09087132 0.04627779 -0.104544945 0.02803946 -0.040347915
0.03428941 -0.08983799 -0.047579132 0.19259568 0.13081998 0.016914016 0.1208377 0.08733435
0.076912075 -0.23577891 0.12777252 0.14024906 0.12678267 0.023634605 0.1140454 0.11449172
-0.07299739 -0.060291782 0.068156034 0.13367303 0.057763178 0.11259203 -0.01378711 -0.036411405
0.17195246 0.051597707 0.12595822 0.030537903 -0.20770827 0.23848403 0.07105537 -0.20452118
-0.23676187 -0.1803977 -0.1669572 0.03338936 0.2500864 0.03813917 -0.35785562 -0.05199063
0.050112788 0.16161254 0.1449321 -0.046523165 0.031513106 0.04683459 -0.090993695 -0.061011594
-0.048692655 -0.057016872 0.18564242 -0.09673677 -0.040955875 -0.027299713 0.0790645 0.063022815
0.06565014 -0.1643813 -0.06695125 -0.06071274 -0.100361936 -0.011618504 -0.057525758 0.084613316
-0.123904124 -0.07087114 -0.05403745 -0.009329405 0.06541394 0.09118641 0.101308726 0.09457983
0.042687792 0.049118888 0.06671036 0.017867032 0.02115605 0.013631412 0.0024831255 0.07766421
0.18626529 -0.06584288 -0.061686542 -0.092329755 -0.208162 -0.2739863 0.07575895 -0.08764062
0.33914527 0.02459476 0.058656584 0.19189669 0.115325645 -0.07204717 0.08397936 0.16173466
0.18331665 -0.13635041 -0.040809926 -0.013107383 -0.11659755 -0.0966014 0.019227048 0.13585624
-0.033107128 0.0100856535 0.16964477 0.031969704 0.012821538 0.09546225 0.0037431705 0.16454315
0.05937521 -0.014646991 -0.061797448 -0.10575878 0.28480202 0.0998226 -0.2015635 0.0067098793
-0.06521271 0.14656734 -0.14361507 -0.2894263 -0.08158508 -0.1750797 -0.2585809 0.043457303

sequential_39/conv2d_97/Conv2D_bias f4 [52]
00000000: 58a4 96bd 2edc 7bbd 7194 a8bd f696 a13d
00000010: 44b3 963d d004 183d 189b 4a3d 8190 8abd
00000020: 34f3 5fbd f53e d53d e9fb 52bd 26f4 d53d
00000030: 5328 0b3d 124f a6bc 25a3 213c 3dd4 76bd
00000040: 7080 8ebd 7cb4 e3bc be7a f23d 7302 213d
00000050: b689 cf3c aecd 9f3c 123a 213d e13b 783b
00000060: e171 98bb bfd7 9b3d fac4 6dbb a2e4 ecbb
00000070: cf9b dbbc e4f7 133e 24a3 6abc d9a5 093c
00000080: 4d06 353d 2472 b63d a2c4 8c3d 775f 94bd
00000090: 02f5 1cba a2c1 e33d e360 6e3d 1f05 903d
000000a0: 9e18 873d 52bd 123d f253 473d 546a 22bd
000000b0: 22ee 383c aee2 233d 1004 ae3d c96f a2bc
000000c0: e964 d43c ba58 20bc 1941 ac3d c13c 083e
-0.07355565 -0.061489277 -0.08231438 0.07890122 0.07358411 0.037113965 0.049464315 -0.06765843
-0.054675296 0.10412399 -0.05150977 0.10446958 0.033974003 -0.020301376 0.009865557 -0.060261
-0.06958091 -0.027796023 0.118398175 0.039308976 0.02533422 0.019507255 0.03936202 0.0037877487
-0.0046522473 0.0760951 -0.0036280737 -0.0072294036 -0.026807694 0.14450032 -0.014321122 0.008401358
0.044195462 0.08908489 0.06873442 -0.07244771 -0.0005987437 0.11120917 0.058197867 0.07032227
0.06596492 0.03582508 0.04866404 -0.039652184 0.011287244 0.0400111 0.084968686 -0.019828694
0.025927024 -0.009786779 0.08410854 0.13304426

sequential_39/conv2d_98/Conv2D/ReadVariableOp f4 [52, 3, 3, 52]
00000000: 9f40 813d 0b30 22bd 352e 30bd b6b9 a5bc
00000010: 78cd 36be d717 02be 46d1 19bb 511f 08be
00000020: ff20 0cbd 1524 4cbd 0d59 263e 4843 a63d
00000030: 18c6 94bd 7bfa d7bd 74c6 1ebd cc94 8d3c
00000040: 8b7a 8e3c 7c4e 693d d4ad 5d3d d5e5 07bd
00000050: cbbd aebd d1c5 a7bd 470a 1cbe e67e a8bd
00000060: 54b1 07be 0778 c6bd 09c1 fdbc 7b9e 423d
00000070: 2993 06bd 7a46 543d d5e5 33bd 51ee 9e3d
00000080: 7f17 0cbe 68e6 42bd 240b 823b d4ac 113d
00000090: 337b d0bd 9c05 94bd 47d6 323d 66fd 353d
000000a0: a7f6 9dbd c704 afbd c090 5ebd 96cc 573e
000000b0: cfcd bd3d 8aad ba3d 78ee 4f3c 0223 b03b
000000c0: 8c39 ddbc b864 cbbd 92c9 7e3d 3b7b 0ebc
000000d0: 10ec 8ebd 8348 a1bd 99be 0bbd 416c efbd
000000e0: 1559 33be 5339 4fbd 4318 98bc 99a4 e43b
000000f0: 19c6 bf3c d13e dcbd 5d96 083d d58d e33a
00000100: a6ee 8b3b caf8 acbd e7f8 ce3c 9aa3 ba3d
00000110: 06f8 e03d da15 413e f354 5abc 650d 92bc
00000120: 211f cbbd 245c edbd 968f d4bd dfaa 99bd
00000130: d046 babd 1254 25bd 4345 ab3d f25c 103e
00000140: b1b3 23bb bb7e 973c b13b 0d3d a4cf 9c3d
00000150: 7056 26be 502c babd 3b46 3c3d 9dbe 403c
00000160: 5368 09be 8c40 2bbd a03d 52bd 98c7 883d
00000170: 9f4e efbd 377a d53d 5de2 213d 4a6e ce3d
00000180: 0f93 ef3c f98a 8abe 9d6b a33b 4d05 bf3d
00000190: 48f7 bc3c 51e6 8b3b d6b5 c33d 7b80 5d3d
000001a0: 4a5e e9bd caf7 04bd 8e4a cb3d 5864 c8bd
000001b0: 5593 533d f25d f6bc 8c9c e63c cc79 ca3d
000001c0: f4a0 2e3b 018a c3bc b14b f93c a1f9 90bd
000001d0: 63cf 8bbe f08d 2cbd d37c 21bd a3e0 d4bd
000001e0: 5b5d ad3b 3b65 b93d 286c febc c57b 173d
000001f0: 8e0e 6dbc 1d3d 44be 4d86 3e3d e8fb 913d
00000200: f671 e2b8 4a12 b5bd 0304 533b 5d81 083e
00000210: f01a c23d 3560 453d f50b be3d bf04 09bd
00000220: e344 b4bd 83d2 a63c 0352 a1bd cd3f 52be
00000230: 02d8 63bd a1f2 a13d 0a80 85be 4fdc 97bc
00000240: ae3a 09bd a032 dd3c 8463 9d3d 4818 823d
00000250: f1c9 3e3e bd85 05bf afcc b73d ef1b 6a3d
00000260: 2785 61bd 1803 66bc 5e47 ef3c f05e 6d3d
00000270: 732d 04bd 947f 02be 35cb bc3d ddeb 21bd
00000280: e36d 20bd 7583 c9bd 4303 ffbc 8b41 143d
00000290: 84f7 8ebd cc2b 803d a93f f6bb ff7b 8e3d
000002a0: 493e 2d3d 7c57 22bc 7165 4cbe be28 343d
000002b0: 95a1 903d e5c0 913d 1554 9fbd d8fc 3bbe
000002c0: 2b3d 81be 9ace 1bbd 8fbc 91bd 2b01 43bd
000002d0: d874 37bd 74e0 d53c d92f 1d3e 3bb4 84bd
000002e0: ff00 1cbd 3877 76bc d1d3 873d 5a94 8e3d
000002f0: d39b a3bd b78b 373d 4357 4bbd 16d3 123d
00000300: 6137 0cbe f78d 01be a6ac 153e 942c d43d
00000310: 7d03 a4bd 31db 84bd b6b0 21bd 844c d73d
00000320: 0f26 d1bc 26c9 9abe 27b2 443b ab7e 0d3e
00000330: 6579 c9bd c3f5 733d 42f1 b53d c0c0 273d
00000340: 2322 62bd 1cb9 10be efa0 263c 66c3 573c
00000350: 47a2 bfbd 7d92 bdbc 303b e73c 3a28 1dbd
00000360: 7720 50bb a270 003d 1690 583c e298 663d
00000370: 6e89 dd3c 45e9 2dbe 645a 0ebe 5dd9 f7bd
00000380: 41eb 8a3c fac7 d7bb ffdb 51bc 3e4f 833d
00000390: 4830 71be 9a51 9ebd 40e5 e2bc a235 933c
000003a0: ddb4 2f3d ee06 e23d f901 023d 2cf1 a03d
000003b0: 5dd9 7abd 19ee 483d e695 a63b 42b1 16bd
000003c0: 05c7 f0bc 2f43 9b3d b7c7 053d 38e3 eebd
000003d0: ec01 013a f564 4ebd e9bc 11bd 3bff 173d
000003e0: 522b 18be 76aa 8bbd 7878 10be 4707 0c3d
000003f0: 455f 0a3d 6fe3 16bf f7c9 363e 12e9 b63d
0.063111536 -0.0395966 -0.043012816 -0.020230155 -0.17851818 -0.12704407 -0.0023470684 -0.13293196
-0.034211155 -0.049839098 0.16244908 0.08118302 -0.07264346 -0.10545822 -0.03876348 0.017282866
0.017392417 0.056959614 0.054120854 -0.03317817 -0.08532294 -0.08192027 -0.15238295 -0.08227329
-0.13251239 -0.09690862 -0.030975835 0.04751442 -0.032855187 0.051825024 -0.043920357 0.07760299
-0.13680838 -0.047583014 0.003968613 0.035565212 -0.101797484 -0.072276324 0.043661382 0.044431113
-0.07713061 -0.08545833 -0.054337263 0.21074137 0.092677705 0.09115131 0.012691133 0.005375267
-0.02700498 -0.0993132 0.06220395 -0.008696373 -0.06978619 -0.07875159 -0.034117315 -0.1169057
-0.17514451 -0.050591778 -0.018566256 0.0069776294 0.02340989 -0.10754169 0.033346523 0.0017360995
0.0042703925 -0.0844589 0.02526517 0.09113236 0.10984807 0.18855992 -0.013325918 -0.017828653
-0.09918047 -0.1158984 -0.10378949 -0.07503294 -0.09095538 -0.04036338 0.0836282 0.14097956
-0.002497893 0.018493047 0.034480754 0.07656792 -0.16243911 -0.09090483 0.045965414 0.011764196
-0.13418703 -0.041809604 -0.0513283 0.066786945 -0.11684918 0.10423701 0.039522517 0.1007963
0.029244928 -0.27059153 0.0049871937 0.09327183 0.023067132 0.004269399 0.09556167 0.054077607
-0.11394937 -0.032462873 0.099263296 -0.09784764 0.05165418 -0.030074093 0.02815082 0.09886512
0.0026646229 -0.023869516 0.0304316 -0.07078863 -0.2730666 -0.04212755 -0.039425682 -0.103944086
0.00529067 0.09052511 -0.031057432 0.03698327 -0.014468802 -0.19163938 0.046514798 0.071281254
-0.00010797747 -0.08841379 0.0032198436 0.13330598 0.09477794 0.048187453 0.092796244 -0.03345179
-0.088022016 0.020364052 -0.078769706 -0.2053215 -0.055625923 0.07907606 -0.2607425 -0.018537669
-0.033503227 0.027001679 0.07684997 0.063522875 0.18631722 -0.52157193 0.08974587 0.057155546
-0.055058625 -0.014038824 0.029208835 0.057951868 -0.032269906 -0.1274398 0.09218446 -0.039531577
-0.039167296 -0.098395266 -0.031129485 0.03619532 -0.069808036 0.062583536 -0.007514913 0.06957244
0.042295728 -0.009908553 -0.19960572 0.043984167 0.07062069 0.0711687 -0.07779709 -0.18358171
-0.2524198 -0.038038827 -0.07116043 -0.047608536 -0.044789165 0.026108004 0.15350284 -0.06479689
-0.038086887 -0.015043072 0.06632198 0.069618896 -0.079887055 0.044810977 -0.049643766 0.03584584
-0.13693 -0.12651812 0.14616641 0.10360065 -0.08008478 -0.0648712 -0.039475165 0.10512641
-0.025530843 -0.3023159 0.0030013414 0.13817851 -0.09837607 0.05956055 0.08883907 0.040955305
-0.055208337 -0.14133114 0.0101702055 0.013169145 -0.09357124 -0.02314114 0.028226465 -0.03836844
-0.0031757632 0.031357415 0.0132179465 0.056298144 0.02704307 -0.16983517 -0.13901669 -0.12102006
0.01695788 -0.0065851184 -0.012808799 0.064115986 -0.23553574 -0.07730408 -0.027697206 0.01796991
0.042897094 0.11036478 0.031740163 0.078585 -0.06124245 0.049055193 0.0050837873 -0.03679014
-0.029391775 0.07581174 0.032661166 -0.11664432 0.0004921246 -0.05038925 -0.03558055 0.03710864
-0.14860275 -0.06819622 -0.14108455 0.034186628 0.033782262 -0.58940786 0.17850481 0.089311734

sequential_39/conv2d_98/Conv2D_bias f4 [52]
00000000: 28fe 76bb 4dab 9b3d bba2 c73b ad28 823d
00000010: a270 473d 485e a5bc cd4c 2c3d ffce 8b3d
00000020: 51cf 703b 6a79 5dbb d5ed cfbc d5ca 453d
00000030: a782 68bd ac43 883d c716 363d 019d 2f3d
00000040: 5a48 9b3b 85e4 13bc 46e9 8c3d 0581 223d
00000050: a8c9 673d 697b 9abc b88b 5a3d dfc5 6d3c
00000060: 00ce 1ebc b94d 8d3d b209 cf3c 9d22 e1bc
00000070: e4fb f13c 57e5 913c 9707 0f3d 5355 4f3c
00000080: 1d4a 3ebd 0bdd cbbc f3eb ea3c a70e 2bbc
00000090: e9f2 393d 64d0 29bc a021 693d 2bd3 2fbc
000000a0: d98b 37bc cb6c be3c bf07 c03c 86c5 48b9
000000b0: b6f1 36bc c2db aa3d 2a34 0c3d b1d6 8e3d
000000c0: ea95 9a3d 5fec f43a e0f0 3fbd cbdc dd3c
-0.003768811 0.076010324 0.006092397 0.063554145 0.0486914 -0.020186558 0.04206543 0.06826591
0.0036744664 -0.0033794292 -0.025381962 0.04828914 -0.056765225 0.066535324 0.044455316 0.04287434
0.0047388496 -0.009026651 0.06880431 0.039673824 0.0565888 -0.018857675 0.053355902 0.014512508
-0.009692669 0.0689959 0.025273178 -0.027482325 0.029539056 0.017809553 0.034919348 0.01265462
-0.0464574 -0.024885675 0.028676962 -0.010440505 0.045397673 -0.010364626 0.056916833 -0.010731499
-0.011202776 0.023245236 0.023441194 -0.0001914707 -0.011166027 0.08342697 0.034229435 0.06974543
0.07548125 0.0018686167 -0.046860576 0.027082821

sequential_39/dense_111/MatMul/ReadVariableOp/transpose f4 [52, 832]
00000000: a369 cbbc 7c6a 6a3e 3364 3dbe 14a5 133e
00000010: 594d 593e c46b bf3d 3c40 743d cc5d 64bd
00000020: dc4c 3ebd 48eb 7dbd 56c3 0dbd 6553 f9bd
00000030: 322c 4bbc 9adf 0239 7fe5 23bd e361 55be
00000040: dc3a 133c d1f4 aabc 4ac1 483d 5e13 903d
00000050: 68fe ea3c c02b 203e 4695 e43d 25ac abbd
00000060: bdf0 11bc d6ca f9bd cc58 c8bc c8a7 033d
00000070: b067 18be 784c bdbd 219f 89bd 4f21 7b3d
00000080: 7a71 1f3d 7f9e b9bd d1ca c23d 6d10 c53d
00000090: 90be 47bd 12a8 babc 8df8 ca3c 6386 5c3b
000000a0: f4a2 2dbc 9d8a 40be 406f 85be 14d7 173d
000000b0: d42d 34bd a9d9 eabd 0c2e 333e edfe c8bc
000000c0: 1a5c 533e a392 b0bc 0fec dabc 4a76 f73c
000000d0: 7526 0bbd ff27 4bbd 8557 dd3d 73cb c63d
000000e0: 1eb4 103e 0b51 b13d af3a ddbc 1abc 9e3d
000000f0: 6bda 18be 23a4 b6bd 52d9 5fbd d9b6 303d
00000100: 2c6d 483d 94d1 26be e539 423d ddef 923d
00000110: 5865 ad3c 34eb 823e d3e0 bcbd 70a0 b4bd
00000120: 2e37 933c fe15 f7bd 49e2 92bd 05fe 083d
00000130: dc0e 6abd 5c78 d03d 6f5e e2bd cfc9 d7bd
00000140: 6975 2bbe dbb6 3abd d499 b2bc e051 c13c
00000150: af5e 25be bbc7 683d 2692 3dbd 9616 37be
00000160: 483f 13bd 010c 6c3d 5255 04be e875 f6bd
00000170: ae2d c3bc 056a adbe 7560 e4bd e43a abbc
00000180: 1226 063e 14f7 4cbd 3ebc 623d c58a bcbd
00000190: 83bc bf3d 2191 b93d bf23 70be 9ad4 f5bd
000001a0: be21 e53d e0d0 0abd 7e07 663d 2692 9a3d
000001b0: 02c4 71bd 4c69 913c 7735 d8bd 8f59 1ebc
000001c0: e2f3 04bd 14cc 5ebe cffd 943b f96e 69bc
000001d0: 71f1 ae3d 5a60 c73d b83a dfbb a9c5 423d
000001e0: d490 e7bb 4e50 98bd d07a 7e3d 82f0 b9bd
000001f0: 07ac cfbd 625d 0fbd 9be9 a6bd 4ff4 8abd
00000200: d7bd a6bd 6496 0e3c f742 f53c 3594 963c
00000210: bb08 cbbc 028b 9e3d f05f b83c 1789 9cbc
00000220: 1e3a 91bd d6a5 f1bd 19e3 4cbd bb26 8bbd
00000230: 9420 11be 9a7d 483d af09 253d b250 e7bd
00000240: 47ad 27bd dae1 10bd 10a5 aebd 61f4 c03d
00000250: 0732 0bbe e4d9 7ebc 2481 703d 4e53 543b
00000260: 1497 313c ee17 ae3d 47ee 24bd 3bbd 7c3d
00000270: c753 5e3e 4cb5 2bbe da87 5c3c 93a9 b63d
00000280: 9140 04bd 4c3e c1bc dac6 633d b1e1 ddbc
00000290: b8f9 bb3d 0f6f 56bd 8fcf 1bbc 7f6a cf3c
000002a0: cd5d 1fbe 56d7 d8bd 998c 50bd 1f69 fb3c
000002b0: c5d1 fb3d 9443 5bbd 5c96 9b3d 58f8 14be
000002c0: f800 0c3e b337 20be 161f a1bd d866 2d3c
000002d0: b7ae 023c c5b4 4ebc 67ea eb3d 70b9 bd3d
000002e0: 25e3 2dbe 4dc1 b5bd 984a 98bc 689b fc3c
000002f0: 813f 0ebe 5598 c93b 7a6b 3f3c 7655 d53b
00000300: 4e5f d6bd 344c d33d 9f8d ddbc e2bd d53d
00000310: 44fa b9bd 4217 33bd 98f2 e93c 9838 4a3d
00000320: aa8c 5fbd 8269 22be 5dc9 02bd 0f04 bd3d
00000330: b1cf 7b3d 1b5c 813d 7220 243c f2be 1bbe
00000340: 8999 dd3b 606f 133d 14fc db3c 5502 193e
00000350: d356 b93d 0601 063e c9b0 d6bc 2f39 36bc
00000360: a1fa 40bd f99b b13a 94f7 30bd 8501 0abe
00000370: 106b b5bd 245a 00bd 7020 183e e88d 27bc
00000380: 1876 94bd bc07 b53d fb3b 4abd 66dd a3bd
00000390: 5835 aa3d cab6 32be f956 433c c8d5 9bbd
000003a0: 4340 e0bc 8a4c 86be c1cf 10be 8449 f2bd
000003b0: 8e5c b53d 0690 acbc 63a7 36be 6b0d 9cbc
000003c0: dfbe f73d 65b1 9fbd 7123 d8bd b9b3 89bd
000003d0: 9b87 aabc 6cdf 01be 4a88 76bd 2618 a73b
000003e0: 3a27 e4bc edf6 52bd 41ba 39bc 8bbc 96bd
000003f0: fdcb 263d dfa5 d63c 628c 733d 258a f5bd
-0.024830645 0.22892183 -0.18495254 0.14418441 0.21220912 0.093467265 0.05963157 -0.055753514
-0.046460018 -0.06199196 -0.034610115 -0.12174109 -0.012400674 0.00012481064 -0.040013786 -0.20838122
0.008986201 -0.02086869 0.04901246 0.07034944 0.028685763 0.1564169 0.11161284 -0.08382443
-0.008907494 -0.12196891 -0.024456404 0.03214243 -0.14883304 -0.09243101 -0.067198046 0.061311062
0.03892658 -0.09063434 0.095113404 0.096222736 -0.04876572 -0.02278522 0.024776721 0.0033649437
-0.010597933 -0.18802877 -0.2606144 0.03707035 -0.043989018 -0.11467297 0.17498034 -0.02453562
0.20640603 -0.021554297 -0.02672389 0.030207772 -0.033972222 -0.04959869 0.10807709 0.097067736
0.14131209 0.08658036 -0.027005522 0.07750721 -0.1492707 -0.08918025 -0.054650612 0.043143127
0.04893224 -0.16290885 0.047418494 0.071746565 0.021166489 0.2557007 -0.09222569 -0.088196635
0.017970648 -0.120647416 -0.07172067 0.033445377 -0.057143077 0.10179207 -0.11053168 -0.10536539
-0.16744007 -0.04558454 -0.021801867 0.023598611 -0.161494 0.056831103 -0.046281956 -0.1787971
-0.03594902 0.057628635 -0.12923172 -0.120342076 -0.023825493 -0.3386995 -0.1115121 -0.020902105
0.1310046 -0.05004032 0.055355303 -0.09206156 0.09362128 0.09060884 -0.23451136 -0.12003441
0.111880764 -0.033890605 0.05615949 0.07547407 -0.05902482 0.017750405 -0.105570726 -0.009664907
-0.032459147 -0.21757537 0.004546858 -0.014247649 0.08542145 0.097351745 -0.0068124197 0.047551785
-0.0070668254 -0.07437192 0.062128842 -0.09079076 -0.101402335 -0.035001166 -0.081500255 -0.067848794
-0.08141678 0.008702848 0.029939158 0.018381217 -0.024784436 0.077413574 0.022506684 -0.019108338
-0.07091163 -0.11799209 -0.050021265 -0.067944966 -0.14172584 0.048947908 0.040292438 -0.11294688
-0.040936735 -0.03537164 -0.08527577 0.094216116 -0.13593303 -0.015554879 0.058716908 0.0032398286
0.0108392425 0.08500658 -0.0402663 0.0617039 0.21711646 -0.16768378 0.013460124 0.089190625
-0.032288138 -0.023589276 0.05560956 -0.027085157 0.091784894 -0.052352007 -0.009509935 0.025319336
-0.15563126 -0.10587947 -0.050915334 0.030689774 0.1229587 -0.053531244 0.07597038 -0.1454786
0.13672245 -0.15646248 -0.07867257 0.010583602 0.007976226 -0.012616341 0.11519318 0.09263885
-0.1698118 -0.0887476 -0.018590257 0.030835822 -0.13891412 0.0061521926 0.011683339 0.006510432
-0.10467397 0.10317269 -0.02704507 0.10436608 -0.090809375 -0.043723352 0.02855806 0.04937038
-0.054577507 -0.1586056 -0.031930316 0.0922929 0.061477367 0.06316396 0.010017501 -0.15209559
0.0067626876 0.035994887 0.026853599 0.14942296 0.090497635 0.13086328 -0.026207345 -0.011122032
-0.04711402 0.0013550512 -0.04320486 -0.13477142 -0.08858311 -0.031335965 0.14856124 -0.010226704
-0.07249087 0.08839366 -0.049373608 -0.08001213 0.08310956 -0.17452541 0.011922591 -0.07609135
-0.027374392 -0.2623027 -0.14141752 -0.11830428 0.08855544 -0.02106477 -0.1783729 -0.019049367
0.12096953 -0.07797507 -0.10553635 -0.067237325 -0.020816615 -0.12682885 -0.06018857 0.0050993143
-0.027850736 -0.051505018 -0.01133591 -0.073601805 0.040721882 0.02620214 0.05946005 -0.119892396

sequential_39/dense_111/MatMul_bias f4 [52]
00000000: f6ed e5bc 2d3a 33bd b9a4 fc3a 37af c53d
00000010: f4da 38bc aa9c d13d 2bec 473d f7f1 5bbd
00000020: 4525 da3c 376c dc3d 7465 473d 80cd 41bd
00000030: e3d8 82bd 5131 c0bd 3e8b c63d b67e b3bc
00000040: e0f5 7b3d 1416 a93d a70a 7abd 8e56 73bd
00000050: 2062 8f3d 03d6 26bd 9f25 023c cab4 35bd
00000060: ad33 72bd 298f 7d3d 73f5 5cbd a440 903c
00000070: 918b 18bc 226f aa3d 32cc 483e 3003 b63d
00000080: 3eda ea3c 054b 1fbd b053 3bbd 5752 0fbd
00000090: 0663 75bd efec b7bd 32e7 223d 842c 833d
000000a0: 2653 3a3d e233 be3c b866 b039 5dfa e1bc
000000b0: 9df1 ff3d 8f41 ae3b 7cb2 ca38 de04 6b3c
000000c0: 7fb4 ef3d 8c1f 163e 2668 7d3d ac52 8e3d
-0.02806757 -0.043756653 0.0019275165 0.0965256 -0.011282671 0.102349594 0.04880921 -0.053697553
0.0266291 0.10762828 0.048680738 -0.04731512 -0.06389024 -0.09384406 0.09694527 -0.021911006
0.06151378 0.08256164 -0.061045315 -0.059408717 0.07001138 -0.04073144 0.00794354 -0.044361867
-0.059131313 0.061904106 -0.053945016 0.017608948 -0.009310619 0.08321978 0.19609144 0.08887327
0.02866852 -0.038889904 -0.045734107 -0.034990635 -0.05990889 -0.08980738 0.039771266 0.06404975
0.045489453 0.023218099 0.00033645867 -0.027585203 0.12497256 0.005317874 9.665356e-05 0.014344422
0.11704349 0.14660472 0.0618669 0.06949362

sequential_39/dense_112/MatMul/ReadVariableOp/transpose f4 [36, 52]
00000000: b2d1 9b3d 9d48 49be 6acb bebe 77f9 443d
00000010: b24c 84be bf14 313e 6529 743e ae41 84be
00000020: ac10 373e 5930 453d e90b 6e3d 45e2 533d
00000030: fd3e 943d fd92 87be 8b10 223e 8d58 23be
00000040: 486f 6cbe 060d 0fbd 7759 e03d 45c6 84be
00000050: ae88 343e 75d2 84be cb05 ccbe 002b 65bd
00000060: 19eb d2bd 4c4b 5bbd b15a 2c3e 3979 55be
00000070: 1d42 0c3d 021d 37be edb9 a4be b582 ccbe
00000080: 1691 8abe 5bd6 08be 3780 36be 1a37 b2be
00000090: 9421 e53d 4a02 41be ab2f 10be 9dcc 4c3d
000000a0: a18a 4abe 2851 aabe 4419 4fbe badd 4fbe
000000b0: cba0 a7be 5a26 9f3b a934 553e 11dc 083d
000000c0: e813 633e 5f9d 3dbe 7280 3fbe 0520 983d
000000d0: bb2e 173d 860e 01be b746 5ebd 7f7c 043e
000000e0: 6c03 f8bb dd82 083e cee1 87bc 2085 cabc
000000f0: fb75 d8be def0 d2bd 60c4 eebc 179a 36be
00000100: afae 683d 374c b0be acd5 523e b6b6 bd3d
00000110: ec1a 2fbd 5a42 573e 0f1c 0ebd ffad 85be
00000120: 90ed dcbe acdd 83be 7d92 14be 888f 47be
00000130: f345 13bf ef13 82be 369a e6be e0a9 7b3c
00000140: a860 ddbe 8d68 fb3d 9bff 7c3e 0343 f03d
00000150: ea8a 223e dce7 18be 990a 84bd 4266 06be
00000160: d527 113e a4fd aebe d976 3a3e a857 5bbe
00000170: b312 463e 3f5e 9f3d cc2b 61be 4d46 3abe
00000180: 9191 ff3d 65db dfbe dc1b 7ebe 8039 69be
00000190: 8454 3e3e c6ad 783e dae7 263e 0048 70be
000001a0: f99f f6be 69b0 12be 5281 3a3e 2795 0f3e
000001b0: 445a 763e 392b 87bd faa5 ccbb 42a0 353e
000001c0: 4711 00be 2747 0dbf 13dc 0d3e 7a9b 21be
000001d0: ad79 30bb e9c3 8cbe 7bea 4cbe 2ea3 1e3e
000001e0: f5d2 883d 4ecf 623e 05c0 c6ba a70b 12be
000001f0: c668 80be 0852 d83d e07b f63d fd7e 4d3e
00000200: c678 48be a226 c13c c32d c83c c74c 49be
00000210: 3939 aabe 9d0e 1abe d707 59be 5052 fa3d
00000220: bed3 51be b4ac 0abe 4c9b e83d 8616 9dbc
00000230: 9e4e 723e 2a04 5b3e d25d dc3d 443b 1abe
00000240: 174e 5a3d b8e7 18be 6f0c 393e 886f 85be
00000250: 0184 61be 6466 aebe 8e97 2a3e ee00 0e3e
00000260: ae53 90be 57f0 2cbe 2b8e a63d 84b6 aebe
00000270: 5457 98be 8941 b7be b958 ba3d 2ece 22be
00000280: d7e8 ebbd 42ac e6be 52e1 b63d 48f8 cdbd
00000290: aae7 0ebe cc1a 03bf 1db6 b9be 3243 e3be
000002a0: f23b 61be 7a69 cb3d d548 04be 9ecd 8b3b
000002b0: 7650 15bf 5d27 cabc d2fb ed3d 8a4e fbbd
000002c0: 3dc6 9dbe 072e 03bf 5748 9abe 9350 843e
000002d0: 2127 11bf 8709 5abe 8b75 fcbd 831a c1be
000002e0: 686a c43d 6a5f a8be de42 743e f3dc 9d3e
000002f0: 3197 09bd 2998 8bbe 307d 6d3e cc87 58be
00000300: edd3 913e 3755 1fbe 9d11 383e cd76 2bbe
00000310: 04fb 85be ccf4 03bf 6d9f a93d 8e75 323e
00000320: 49a0 54be 07d2 9fbe 5905 de3d 245c 4c3e
00000330: 3b2e d7be 6d34 8bbe 8ffc e8bd c37c 7dbd
00000340: df54 1b3e d653 07be 18db d1be ea26 85be
00000350: dec4 593e 73ce 31be 7e25 953e c769 2bbc
00000360: 139d 05be 8a06 d1be eb01 193e 2471 333e
00000370: e0b5 573e 3912 463e 3ed6 1fbe 143a b7bd
00000380: d0f1 453e d9cd e7be 7ee7 1fbf 6e0e d8bd
00000390: b692 94bd 5acf 1b3e 3e93 46bd 3192 a2be
000003a0: f509 b03d e736 dcbd e00c 7bbe 47c5 8c3e
000003b0: f8b0 ff3d 5a62 16bc 9536 81be 7ce2 a0be
000003c0: d04e 443e 470f 89be 5684 48bd c831 e4be
000003d0: ccb6 43be e0bc 693c 1e92 a8be f616 a7bd
000003e0: a6be e93d d118 503e f7bd d4be 5842 81be
000003f0: b437 4f3e af73 84bd ca4c 5bbe f866 c3be
0.076083556 -0.19656606 -0.37264568 0.04808947 -0.25839764 0.1729307 0.23843916 -0.2583136
0.17877454 0.04814181 0.058116827 0.05172946 0.072385766 -0.2647933 0.15826623 -0.15951748
-0.23089325 -0.03492453 0.10954564 -0.25932518 0.17630264 -0.25941816 -0.3984817 -0.05594921
-0.102987476 -0.053538606 0.16831471 -0.20847024 0.034242738 -0.1788216 -0.321731 -0.39943472
-0.27063817 -0.1336302 -0.17822348 -0.34807664 0.11188045 -0.1884853 -0.14080684 0.049999822
-0.19779445 -0.33265042 -0.20224482 -0.20299426 -0.32739863 0.004856867 0.2082087 0.033412997
0.22175562 -0.18517064 -0.18701342 0.07427982 0.0369098 -0.12603197 -0.054266658 0.12938116
-0.0075687673 0.1333117 -0.016587164 -0.024721682 -0.42277512 -0.10299848 -0.029146373 -0.17832218
0.056807216 -0.34433147 0.20589322 0.09263365 -0.042750284 0.21021405 -0.034694728 -0.2610931
-0.43149996 -0.2575506 -0.14509006 -0.19488347 -0.5752861 -0.25405833 -0.4503953 0.015360326
-0.43237805 0.12275801 0.24706881 0.117315315 0.15873304 -0.14932197 -0.06447334 -0.13124946
0.14175351 -0.34177887 0.182094 -0.21420157 0.1934307 0.07781648 -0.21989363 -0.1819088
0.124789365 -0.43722072 -0.24815315 -0.22775841 0.18586928 0.2428504 0.16299382 -0.23464966
-0.48168924 -0.14325108 0.18213394 0.14021741 0.24057871 -0.06600041 -0.006245372 0.17736915
-0.12506591 -0.55186695 0.13853483 -0.15781966 -0.0026927993 -0.27493218 -0.20011322 0.15491936
0.06680862 0.22149393 -0.0015163427 -0.14262258 -0.25079936 0.10562521 0.12035346 0.20067973
-0.19577321 0.023577992 0.024435883 -0.19658194 -0.33246782 -0.15044637 -0.21194397 0.12222731
-0.2049093 -0.13542444 0.113577455 -0.01917578 0.23662803 0.21388307 0.10760082 -0.1506167
0.05329713 -0.14932144 0.1807115 -0.26061654 -0.22023012 -0.34062493 0.16659376 0.13867542
-0.28188843 -0.16888557 0.08132585 -0.34123623 -0.29754126 -0.35792187 0.09098954 -0.15898964
-0.1151902 -0.45053297 0.08929695 -0.100571215 -0.1395556 -0.51212764 -0.36271754 -0.44387203
-0.21995524 0.099322274 -0.12918408 0.004266455 -0.583259 -0.024676973 0.116202965 -0.122708395
-0.30815306 -0.5124211 -0.30133316 0.25842723 -0.5670033 -0.21292697 -0.12327107 -0.3771554
0.09590608 -0.32885295 0.23853633 0.30832633 -0.033591453 -0.27264526 0.23192286 -0.21145552
0.28482 -0.1555985 0.17975469 -0.16744538 -0.26168072 -0.51545405 0.08282361 0.17427656
-0.20764269 -0.31214926 0.10840864 0.19957024 -0.4202746 -0.27188435 -0.11376297 -0.06188656
0.15169095 -0.13215575 -0.40987468 -0.26006252 0.21266505 -0.1736391 0.29130167 -0.010462231
-0.130482 -0.408253 0.14942138 0.17523628 0.21065474 0.19342889 -0.1560907 -0.089466244
0.19330525 -0.45274237 -0.62462604 -0.10549627 -0.072545454 0.15215817 -0.048480265 -0.3175216
0.08595649 -0.10752659 -0.2451663 0.2749426 0.12484926 -0.009178722 -0.25236955 -0.31422794
0.1917069 -0.26769468 -0.04895433 -0.4456923 -0.191127 0.014266223 -0.3292398 -0.08158676
0.114133164 0.20321967 -0.41551182 -0.2524593 0.20236093 -0.064673774 -0.21416011 -0.38164496

sequential_39/dense_112/MatMul_bias f4 [36]
00000000: 5d3a c13d 25cd aa3e 87d7 b2bd 0fd9 94bd
00000010: bf4a c23d 9e09 53be 9614 53bd 943c 42be
00000020: 8eda 833e 72f5 de3d f1b9 fe3d 1504 003d
00000030: 3c3e 153d c6ac 19bd 372a 69bd eff9 503d
00000040: 878f 08be b87f 88bd 3a59 cc3b 4981 25bd
00000050: dca7 2a3c 4f8c 94bc b9d2 86be 3b1d 4ebe
00000060: bfe2 6b3d 36e8 e6bd 7644 cbbd 31fd e9bd
00000070: 3763 ee3d 415e cb3d 5119 943d 085d 6d3d
00000080: 74db 84be 8409 343e 5cfd 62bd 3465 e7bc
0.0943496 0.33359638 -0.08732515 -0.07267963 0.09486913 -0.20609137 -0.051533304 -0.18968421
0.25752681 0.10886659 0.12437809 0.031253893 0.036436304 -0.037518285 -0.056925025 0.051019605
-0.13336001 -0.066649854 0.0062362226 -0.0404065 0.010415997 -0.01813331 -0.26332644 -0.20128338
0.05758929 -0.112747595 -0.09925167 -0.114252456 0.116400175 0.09930087 0.07231391 0.05795005
-0.2594868 0.17581755 -0.055417404 -0.0282465
