Auto_TF_to_uC/Converted_model_files/EMNIST_model.tflite (tflite, 535912 bytes, 12 tensors)

sequential_39/conv2d_95/BiasAdd/ReadVariableOp/resource f4 [32]
000000 b1 ea f9 3c 30 f3 f6 3c 3e 78 6c 3d 98 3f b8 3c
       0.030507417 0.030145258 0.05773186 0.022491261
000010 2e 22 b9 3c 92 83 fc bb 9a 48 69 bd 41 38 34 bd
       0.022599306 -0.007706114 -0.056954004 -0.04399896
000020 f0 37 ad 3c 5f fd c3 3c 68 c4 e6 3d 2a 77 3e bd
       0.021144837 0.023924528 0.1126793 -0.046500362
000030 42 05 27 bb 5f 93 66 bc ff 56 fb 3d d1 56 39 bc
       -0.0025485312 -0.014073222 0.122724526 -0.011312203
000040 9d 76 f8 3d 69 a6 97 3c 64 dd 03 bc bc 19 00 3d
       0.12131999 0.018511968 -0.008048389 0.031274542
000050 34 14 ce bb de bc 7d 3e 7c ec 73 bd 97 b8 76 bc
       -0.0062890295 0.24779078 -0.0595517 -0.015058658
000060 9e 0d b4 bc 44 13 6c bd 01 16 1f bc 9e 4c ab 3c
       -0.02197915 -0.05763556 -0.009709836 0.020910557
000070 0a c4 6c 3d 37 3f 12 3d 04 37 2e bc 95 6b db 3d
       0.057804145 0.035704818 -0.010633234 0.10713879

sequential_39/conv2d_96/BiasAdd/ReadVariableOp/resource f4 [32]
000000 ad 18 65 bc 14 5c 22 bd 8a 64 3f 3d 01 57 b8 3b
       -0.013982934 -0.039638594 0.04672674 0.005625606
000010 dc 3a c1 3c 64 ed 85 3d 98 21 31 3d 2d a6 36 3d
       0.023587637 0.06539419 0.043244928 0.04459207
000020 8a c0 69 3d 68 37 8f 3d 2e 71 67 3d 31 b6 18 3d
       0.057068385 0.0699299 0.05650442 0.037283126
000030 93 15 a1 3c 4a 84 86 3d 03 2c be 3c 3d 83 fd bc
       0.019663608 0.06568201 0.023214346 -0.030946368
000040 69 5e 14 3d 0d 9f 81 ba d1 94 a5 3c c4 02 88 3b
       0.03622285 -0.000988932 0.020212563 0.0041507203
000050 94 d0 c7 bc d0 27 b7 3c 5b 5f bd bb 41 f5 02 3d
       -0.02439145 0.022357851 -0.0057791895 0.031972174
000060 d7 7f 01 3d 0d bd 61 3d b1 14 65 3b db ea 74 3d
       0.03161606 0.055111933 0.003495496 0.059794288
000070 fa 26 5a 3d 37 69 f1 3c 4d a3 1b 3d cc a0 54 3c
       0.053259827 0.029469116 0.037997533 0.01297779

sequential_39/conv2d_97/BiasAdd/ReadVariableOp/resource f4 [64]
000000 68 a5 9f bd 2d e4 95 bd 1b 58 72 bd 8c 64 99 3d
       -0.077952206 -0.07318912 -0.059166055 0.07489881
000010 63 7c 60 3d 7f c7 4c bd f1 89 b4 3c c3 62 cc 3c
       0.054806124 -0.04999494 0.022038432 0.024949437
000020 34 a2 f1 3c 47 76 a5 bd 4e cd 61 bd 3d f1 e4 3d
       0.02949629 -0.080792 -0.055127434 0.11178825
000030 86 3d e8 bd 91 b2 21 bd 18 11 a8 3d 18 5a f3 3c
       -0.1133986 -0.039476935 0.082063854 0.029706046
000040 92 4f cb bc 64 76 7e 3c 09 72 8e bd 72 65 96 bd
       -0.024818216 0.015531156 -0.06955344 -0.07343568
000050 b6 82 49 bd e6 60 78 bd 16 27 fd bc b6 1c c4 3d
       -0.04919692 -0.060639285 -0.030902427 0.09575789
000060 e4 b7 b4 3c 24 d1 1a b9 b7 b9 67 3d b3 33 cf bd
       0.022060342 -0.00014764495 0.056573596 -0.10117283
000070 49 08 c7 3c e4 cf 99 3c 49 4b 17 3d cf 12 f3 3b
       0.024295943 0.018775888 0.036937032 0.0074180136
000080 59 cd c0 ba 82 44 5a 3d 9f e7 ee 3b 79 69 ba bb
       -0.0014709636 0.05328799 0.007290795 -0.005688843
000090 a7 17 86 bc 14 94 c8 3d 54 70 b4 bc 31 f5 e7 3a
       -0.0163687 0.09793869 -0.022026218 0.0017696974
0000a0 8b 4d 45 3d 41 10 94 3d dd d5 01 3d 8a a7 b5 bd
       0.048169654 0.07229663 0.031698097 -0.08869846
0000b0 97 da 58 3c 82 10 9a 3a 60 7e f1 3d 68 2f 6c 3d
       0.01323571 0.0011754187 0.11791682 0.057662398
0000c0 1f d9 4d 3d 70 7c 25 3d 73 67 1b bc fc f1 fb 3c
       0.05025589 0.040401876 -0.009485113 0.030755036
0000d0 52 71 28 3d ba 4a ed bc e5 12 8b 3c ce de da 3a
       0.041123696 -0.028966296 0.016976783 0.0016698481
0000e0 e7 66 1d 3d 06 05 63 bc 89 85 8b 3d 67 e1 c2 bc
       0.038428213 -0.013856178 0.06812579 -0.02378912
0000f0 2d 40 93 3c 57 35 4f bc 1a 71 86 3d 51 ec ea 3d
       0.017974937 -0.012646995 0.06564541 0.11470855

sequential_39/conv2d_98/BiasAdd/ReadVariableOp/resource f4 [64]
000000 71 c1 0a 3c be 93 c2 bb 1e 6a 63 3d 1f 0a cd bc
       0.008468972 -0.0059380224 0.055521123 -0.02502924
000010 ee 0f b9 3c 0b 62 a6 3c 0f 43 ca 3b c7 79 ff bc
       0.022590604 0.020310422 0.006172545 -0.031185998
000020 1a 11 08 3d 83 82 3c 3d 46 82 09 bd 7d a3 8e bc
       0.033219434 0.046022903 -0.033571504 -0.017411942
000030 7d 0d 0f bd 68 5c 20 3d 27 49 57 3d ed ef 67 bd
       -0.034924973 0.039150625 0.052559998 -0.056625295
000040 c4 34 a4 3d 0c b7 b8 3c 60 42 8f 3c 37 e3 1d bc
       0.08017877 0.022548221 0.017487705 -0.009636692
000050 73 1a 08 bd 50 1d 9e 3d ad 7f cd 3c 07 b1 10 bb
       -0.03322835 0.07720435 0.025085295 -0.0022078173
000060 06 5f f2 3c b6 38 e9 bc e9 17 ad 3c 3d b7 b6 3c
       0.029586326 -0.028469425 0.021129565 0.022304172
000070 77 8a 6f bc 47 d0 1e 3d 3b 9b 97 3c a7 87 ca bc
       -0.014620415 0.038772848 0.018506637 -0.024722887
000080 0b f4 b4 3c 1d f1 18 3d 79 0c 1f bd 6f 30 2d 3d
       0.022089025 0.03733932 -0.038830254 0.042282518
000090 bb 16 20 3a 9a 9f f9 bc 54 ab 06 bd 8b 3a 00 3c
       0.0006106903 -0.030471612 -0.032878235 0.007826458
0000a0 6c 2b 4b bd 0f 90 1c 3d 7d d9 30 bc d5 98 ae 3c
       -0.049601957 0.038223322 -0.010794041 0.02131311
0000b0 bf 18 a2 3b ac 7e 12 3d 6f 55 cb bc ca 0e d8 bc
       0.0049467976 0.035765335 -0.024821011 -0.02637424
0000c0 96 a0 80 3c f5 68 56 3b a8 15 d6 3c 72 0b e0 bc
       0.015701573 0.0032716368 0.026133373 -0.027349208
0000d0 21 96 6a bc 65 a7 65 3d db c3 f1 bb 77 ee c7 3c
       -0.01431802 0.056067843 -0.007378084 0.024405701
0000e0 ea 12 16 3d 4a 82 31 3d b5 98 33 bc f8 57 06 bc
       0.03663913 0.043337144 -0.010961701 -0.008199684
0000f0 35 2b 08 bd 07 59 d8 bc dc 7d 11 bd 77 24 6f 3b
       -0.03324433 -0.026409639 -0.03552042 0.003649024

sequential_39/dense_111/BiasAdd/ReadVariableOp/resource f4 [64]
000000 9b 7b 12 bd b4 bb f4 bc 50 87 2d 3c 6e 10 ac 3d
       -0.03576241 -0.02987466 0.010591343 0.08401571
000010 19 38 d0 bb 09 77 98 3d 4d 21 06 3d 63 c9 4b bd
       -0.0063543436 0.07444579 0.0327466 -0.049752604
000020 f1 24 f6 3b 5f 11 0d 3d 5d 19 bf 3c 69 57 f1 bc
       0.007511728 0.034440394 0.023327524 -0.029460626
000030 84 a6 6d bd 2b 9f 89 bd 78 86 52 3d 5a 6b 5e bd
       -0.05802013 -0.06719812 0.05139777 -0.054301597
000040 55 a9 3f 3d 1d d4 19 3d 2c 53 ae 3d b5 47 47 bc
       0.046792347 0.037555803 0.085119575 -0.012163092
000050 97 a3 55 bd 13 8d 81 bd a9 69 de 3c 27 9a 08 bd
       -0.052157965 -0.06325736 0.027149992 -0.033350136
000060 a2 d1 18 bc 5f 09 f3 bc 32 f0 29 bc 1f ff 28 bd
       -0.009327324 -0.029667554 -0.010372208 -0.041258927
000070 a6 5b 91 3d a2 6b 0b bd ed 99 7d bd 2a 24 df 3a
       0.07097559 -0.034038194 -0.061914373 0.0017024328
000080 11 e4 b9 bb b0 a2 35 3d 54 f0 ad 3c 13 cf 1a 3e
       -0.0056729396 0.044344604 0.021232761 0.15118055
000090 f0 55 58 3d 32 83 ff 3c 47 5b 37 bc e8 e9 05 bd
       0.05281633 0.031190488 -0.011191196 -0.032693774
0000a0 ab 1a 33 bc 37 65 e2 bc a9 59 04 bd 78 1d 38 bd
       -0.010931651 -0.027636154 -0.03231207 -0.04494998
0000b0 2b 32 92 bd 2a fb 11 3d 9b 72 0a 3d bc f1 3e bd
       -0.07138475 0.03563992 0.033800703 -0.046617255
0000c0 af 4d 5e 3d 41 8b a8 3c 09 d1 58 bc 9c 88 0a bc
       0.054273304 0.020574214 -0.013233432 -0.008455422
0000d0 7f 7b 97 3d 7f 52 36 bd 00 0f 6d bc 8d ea 53 3b
       0.07396602 -0.04451227 -0.014468908 0.0032335848
0000e0 40 a7 69 b8 40 a9 a4 3d b9 09 fe 3d e9 84 7a 3d
       -5.5707293e-05 0.080400944 0.12404198 0.06116191
0000f0 88 b9 5f bd 60 7a 4f bc 3c b3 91 bb db 41 50 3d
       -0.054620296 -0.012663454 -0.004446415 0.050844055

sequential_39/dense_112/BiasAdd/ReadVariableOp/resource f4 [36]
000000 f5 cc ce 3d 1c 1d 94 3e 35 d6 a4 bd 3e fc 3d bd
       0.10097686 0.2892846 -0.08048669 -0.046383135
000010 51 8f 54 3d 69 bd 4a be d5 c5 19 bd d5 50 3f be
       0.05189449 -0.19798817 -0.037542183 -0.18683179
000020 65 93 53 3e 25 12 a4 3d dd 1f 0c 3e 25 f5 3c 3d
       0.20661695 0.08011273 0.1368403 0.046132226
000030 42 47 11 3d 48 6b 62 bd 25 c1 8b bd b4 9c a7 3d
       0.035468347 -0.055278093 -0.06823949 0.081841856
000040 69 07 ed bd 2d 07 9e bd 8d e4 96 3c 9e d8 3e bc
       -0.11573679 -0.077162124 0.018419528 -0.011648325
000050 cb 6b 7a 3b 11 14 17 bd 3a 90 73 be 44 ba 43 be
       0.0038211222 -0.03688437 -0.23785487 -0.19114023
000060 df 29 37 3d 4c c5 05 be 7a e3 69 bd d1 59 df bd
       0.044717666 -0.13063544 -0.057101704 -0.10905803
000070 69 d7 9b 3d 38 df 02 3e 3a ce 9b 3d 97 14 36 3d
       0.076094456 0.12780464 0.07607694 0.04445323
000080 84 6f 5d be 63 43 fd 3d 30 1c 62 bd 26 60 7a 3b
       -0.21624571 0.123663686 -0.055202663 0.0038204282

sequential_39/dense_111/MatMul f4 [64, 1024]
000000 02 8a e8 3d db 21 b3 3d a5 d3 d0 3d 9c a8 98 bd
       0.11354448 0.08746692 0.10196618 -0.07454035
000010 7d 39 02 3d 83 dc 7d 3e 05 e4 71 be 1e ec 10 bc
       0.031793106 0.2479115 -0.23622139 -0.008845357
000020 12 d6 15 be 61 1b a5 bd 05 20 62 bd 3f d7 32 bd
       -0.14632443 -0.08061863 -0.055206317 -0.043662306
000030 8d d0 13 3c a0 36 78 3b 77 5e 48 3d 3f 89 43 bc
       0.00902189 0.0037874356 0.048918214 -0.0119345775
000040 46 e2 3c 3d 66 76 db 3d a4 98 e2 bd 68 4c c2 bd
       0.04611423 0.10715942 -0.1106427 -0.094872296
000050 18 7a 49 3d 6f 25 4f 3e 6c 2a e9 bd 44 51 29 be
       0.049188703 0.20229124 -0.113850445 -0.16534907
000060 1d 9c 52 bc a3 9d fa bc 08 f7 83 3d 30 dd 58 be
       -0.012854603 -0.030592745 0.06443602 -0.21178126
000070 4e 6f 80 3d f0 91 2f be 1f ac e5 bc 0b 3b 13 bb
       0.0627123 -0.17145514 -0.028036175 -0.0022465612
000080 4f 53 7a 3e b1 fd c0 bc 94 6c bc 3c fe 07 e2 bd
       0.24445842 -0.02355847 0.023000993 -0.11036681
000090 63 af 42 be af 29 11 3e ce db d2 3d 62 7d 5c 3d
       -0.19012217 0.14176057 0.10295831 0.053830512
0000a0 f5 1f c5 3d d6 7a e0 bc 15 1c 51 bd 28 2e 18 be
       0.09625236 -0.027402323 -0.05105217 -0.14861357
0000b0 82 f4 43 bd bc c5 8a 3c af d8 88 bd 96 7a 2b bd
       -0.047840603 0.01693999 -0.06681954 -0.041864954
0000c0 d9 dd 59 3c fd 15 db bc 98 70 a4 bd 79 b8 20 3d
       0.0132975215 -0.026743883 -0.08029288 0.039238427
0000d0 2c 6a 84 bd fc 9f 98 be 2f 0b 72 3e cd b6 09 3d
       -0.06465563 -0.29809558 0.23637079 0.033621598
0000e0 f3 39 70 3c fb 5c c1 bd de 5a 06 be 34 9f d3 bd
       0.014662254 -0.09441563 -0.131206 -0.103331
0000f0 fe cd 80 bd 19 2e 90 bd 0e a9 ac bd b5 a3 df 3c
       -0.0628929 -0.070400424 -0.08430682 0.027299741
000100 71 a6 60 3c ee 77 ae 3d 48 e6 7d 3d 3a a1 e6 3b
       0.013711558 0.085189685 0.06198719 0.0070382627
000110 de ad 2f 3d f6 68 6d 3e c3 bf b8 bd ea cb e4 bd
       0.042890422 0.2318457 -0.09020951 -0.11171706
000120 67 ec 0e be 65 8d 3a 3d 79 18 1b 3c 29 e8 17 be
       -0.13957368 0.045545 0.009466284 -0.14834656
000130 24 cc e5 3c 70 3d 65 bd 05 18 34 3d 47 8c d8 3b
       0.028051443 -0.055966794 0.04396822 0.0066085192
000140 11 a0 08 bd fb 09 55 bd 6e 7b b2 bc 0d 37 31 3d
       -0.033355776 -0.05201147 -0.021787371 0.04326539
000150 9c 35 c0 bc 54 51 5c bc 51 2c 98 bc 70 05 f7 3c
       -0.023463063 -0.0134471245 -0.01857582 0.03015396
000160 7a 19 83 3d 38 6c df bd f3 14 9e 3c 53 1e 05 be
       0.06401344 -0.10909313 0.019297099 -0.12999849
000170 f4 63 98 bd 29 49 42 be 54 82 e1 bd 09 d3 ed bd
       -0.074409395 -0.18973221 -0.11011186 -0.116125174
000180 8f 44 1e 3c 7c d4 6a bd 99 24 17 3d 39 72 4c 3c
       0.0096599 -0.057331547 0.036900137 0.012478405
000190 ed b6 ab 3d 11 40 a2 3d 29 c9 a8 3d 32 e2 91 bc
       0.083845 0.07922376 0.08241493 -0.017808054
0001a0 be 85 d8 3d 1f a7 ae be ab ff a1 be e2 13 e2 3c
       0.10572384 -0.34111878 -0.31640372 0.027597371
0001b0 c5 04 d1 bc 5b 0c 87 bc 70 db 71 bd c5 8a 6f 3d
       -0.02551497 -0.016485384 -0.059047163 0.05848195
0001c0 73 79 0f 3e 0b 96 2e be ce 7d a3 3d 60 c7 b4 bb
       0.14011173 -0.17049424 0.0798298 -0.0055169314
0001d0 ad 95 88 3c 94 e3 2e be 3d 0f 2a 3e 75 c8 df bc
       0.016672933 -0.17079002 0.16607375 -0.027317265
0001e0 ee 39 0d 3a 1d 2a f6 bd 04 e8 be 3d 75 d2 06 3d
       0.00053873553 -0.12019751 0.09321597 0.03291555
0001f0 e9 17 52 be 3f c1 33 bd e0 df ee bc aa c8 d2 bc
       -0.20516934 -0.043885466 -0.029159486 -0.02573045
000200 57 1e d4 3c 7a 95 9f 3d 18 96 d9 bb 3b 95 c4 3c
       0.025893373 0.07792182 -0.006640207 0.02399694
000210 e5 47 1e 3e 17 d7 88 3d eb fa 4e 3c 9c 9d 99 bd
       0.15457113 0.0668165 0.012633066 -0.07500765
000220 ea 09 ba 3d 05 d4 5f 3c 49 a6 64 bd c0 86 85 be
       0.09083922 0.013661389 -0.055822644 -0.2607937
000230 e8 d0 2b bd d2 a1 1b bd 35 95 99 bd cc aa 24 bd
       -0.041947275 -0.03799612 -0.07499162 -0.040201947
000240 bb f0 f4 3c 72 5d 12 3d 46 c4 49 bc c4 86 57 3d
       0.029899945 0.035733648 -0.012314862 0.052618757
000250 f6 a3 56 bd 1f e7 9b 3c b9 64 71 3c 8b a4 c0 3c
       -0.05240246 0.019031106 0.014733487 0.02351596
000260 f1 89 8d 3d da 99 c4 bd 0a 02 fc bc 93 4b c7 bd
       0.06911076 -0.09599657 -0.030762691 -0.097312115
000270 8b 2d 84 bd ef 59 41 be e7 92 cf bc 89 b9 d2 3c
       -0.06453999 -0.18881963 -0.025338603 0.025723236
000280 8c 1d d0 bd dd ea 58 3d 58 1e 34 bc e3 b7 c6 3d
       -0.101618856 0.052958358 -0.010993563 0.09703042
000290 34 dd e6 3c b3 61 46 3d 69 26 4b 3d 40 a8 d5 3c
       0.02818165 0.048433017 0.049597178 0.026081204
0002a0 97 72 ed 3c 1c 63 2a be c9 b8 9d be 14 b6 ce bc
       0.028985305 -0.1663937 -0.30805042 -0.025233306
0002b0 9a e2 99 3d f0 de 97 3d be 07 29 bd 81 b1 ec bd
       0.07513924 0.07415569 -0.04126715 -0.11557294
0002c0 dc 49 ca 3c e0 0a 20 bd 00 1d 08 bd 20 73 ab 3d
       0.024693422 -0.03907287 -0.03323078 0.08371568
0002d0 bb cd 99 bc 0a 03 0f be 38 52 34 3e 41 e9 29 3d
       -0.018774858 -0.13966003 0.17609489 0.041482214
0002e0 bd b1 52 3d e8 1e 8a bd fd 7a ac bd 1d a5 32 3d
       0.051439036 -0.06744176 -0.08421896 0.043614496
0002f0 29 a4 ab bd 10 64 8c bb 68 f1 d5 bc e7 d9 c5 3d
       -0.083809204 -0.0042843893 -0.026116088 0.09660702
000300 49 92 1d bb 31 a0 27 3e 0d 9d 1b be aa 1e 80 3d
       -0.0024043492 0.16369702 -0.15196629 0.06255849
000310 27 22 f9 3d e4 99 ab 3d 6c a3 f1 3d b9 0b c6 bd
       0.12164717 0.08378962 0.117987484 -0.09670205
000320 3b f0 7d 3d 1b a8 26 bd 4d 46 ae 3c ff b4 d1 bd
       0.06199668 -0.04068766 0.021273756 -0.102396004
000330 d2 68 09 3d d8 8e a3 3c 0f 35 57 bd 57 cd 07 be
       0.03354723 0.019965574 -0.052540835 -0.13261925
000340 6f 78 44 3d 4d c7 ab bc 41 3c af 3c e2 9a 82 3d
       0.047966417 -0.020969057 0.021391036 0.06377198
000350 4d f1 e1 3c 61 1d 5a 3e b9 a1 ce 3c 8a 02 1e bd
       0.027580881 0.2130027 0.0252236 -0.03857664
000360 f1 b1 30 3d e8 2a a9 bd b3 e5 a7 3a d0 b8 bd 3d
       0.04313845 -0.08260137 0.0012809545 0.09263766
000370 40 51 d6 bd 2c 50 ef bd 59 2a fe bc a7 4e 68 3d
       -0.10464716 -0.116852134 -0.031026052 0.056715634
000380 bb 54 2c 3d a7 b0 38 bd ae 10 e9 3d 5e 6d ee 3d
       0.042072993 -0.045090344 0.113801345 0.11641954
000390 13 fe 1a bd 5d 53 9b 3c 28 a4 44 bc 7a 20 5a 3d
       -0.03783996 0.01896065 -0.0120020285 0.05325363
0003a0 ae 08 11 3d 88 5b 18 be 11 35 99 be aa f7 03 3e
       0.03540867 -0.14878666 -0.299233 0.12887445
0003b0 8d 58 9d bc 56 2a 83 bd ef f0 00 3e 0b 8a 0f 3b
       -0.019207263 -0.06404559 0.12591909 0.0021902348
0003c0 07 71 70 3e 92 a1 2f bd 2c a8 31 3d da 86 7e 3c
       0.23480617 -0.042878695 0.04337327 0.015535081
0003d0 09 3f 60 bd 5d 72 2c be 17 9f fc 3d 5f 30 6a 3c
       -0.054747615 -0.16840501 0.123350315 0.014293759
0003e0 d1 df eb 3d fd c4 82 3d 02 ef 8b 3d e0 ca 80 3d
       0.11517299 0.06385229 0.068326965 0.06288695
0003f0 fb d3 5b bd f1 77 f5 39 93 0a 35 bc c6 d5 17 3d
       -0.053668957 0.00046819405 -0.011049884 0.037069105

sequential_39/dense_112/MatMul f4 [36, 64]
000000 41 0c c7 3d b7 d9 05 be 65 04 89 be 62 18 65 3d
       0.09719134 -0.13071333 -0.26761165 0.055931456
000010 c4 da a7 be b2 f3 50 3e 9b 8a 82 3e 94 6a 2d be
       -0.32784092 0.20405462 0.25496373 -0.16935188
000020 75 8e 32 3e c2 aa 12 3d 97 62 9b 3d 47 24 93 3d
       0.17437156 0.03580738 0.07587164 0.07184654
000030 8c 56 dc 3d 79 5e 81 be ff d9 50 3e 4c 04 a6 bd
       0.10758695 -0.2526739 0.20395659 -0.08106288
000040 71 17 b4 be b4 62 75 be f5 a5 3b 3c 30 de 51 3d
       -0.35174134 -0.23963434 0.011453141 0.051237285
000050 b9 3b 0c 3e 42 fd 1d be c6 99 29 3e 15 ba 74 be
       0.13694657 -0.15428641 0.16562566 -0.2389911
000060 00 98 93 be 6a 0e a7 bc e4 18 28 bd e7 0e f1 bd
       -0.28826904 -0.020392615 -0.041039363 -0.117704205
000070 d5 7c e5 bd 45 d3 19 bc c3 73 3f 3e 7a 6a 1e be
       -0.112054504 -0.0093887495 0.18696503 -0.15470305
000080 97 bc 8c 3d e7 1e 3a be 9a 86 0c be 6f 07 7d be
       0.06871908 -0.18175851 -0.13723221 -0.24709867
000090 6c d0 95 be 3b c8 59 be b9 e7 6d be d7 0b af 3d
       -0.29260576 -0.21267788 -0.23232926 0.0854718
0000a0 f0 58 8f bd 8c 07 46 be 3b 96 b5 be 86 e2 1a 3e
       -0.06999385 -0.19338816 -0.3546618 0.15125474
0000b0 2e cb a4 bd 15 8a 33 be 3a 67 ee 3c 98 c4 3a 3e
       -0.08046566 -0.17533143 0.029101957 0.18239057
0000c0 0d fb 28 be 6b cf a0 be 81 d4 45 be 50 14 17 be
       -0.16502018 -0.31408247 -0.19319345 -0.14753842
0000d0 df f3 a9 be 84 ff f0 bd ab 3c 0a 3d 20 26 49 3e
       -0.3319387 -0.11767486 0.033749264 0.1964345
0000e0 6c 39 cc 3c ec 9a 5c 3e 69 f3 5c be c3 06 2f be
       0.024929725 0.21543473 -0.21577229 -0.17092423
0000f0 80 3f a3 3d 5e 75 34 bd 8a 97 c2 3d 16 98 54 3d
       0.07971096 -0.044057243 0.0950156 0.051902853
000100 5d 40 72 3d e7 ec 4a be 4c 15 13 be 5d 3c 5c 3e
       0.059143413 -0.19816934 -0.14363593 0.21507402
000110 be b6 9b 3c 69 a4 ac 3d 4a 1e 05 bd 9f 09 c6 bd
       0.019008037 0.08429796 -0.03249959 -0.09669804
000120 de ed 98 be 59 d3 4d ba 7f f1 98 bd 14 eb 1f be
       -0.29868978 -0.00078516226 -0.07467937 -0.15617019
000130 2e c7 82 3b 55 30 88 be 73 99 2f 3e 43 45 44 3e
       0.003991029 -0.26599374 0.1714838 0.19167046
000140 94 6f 51 3e a1 c2 ea 3c eb 8e 3d 3e 81 01 e2 3d
       0.2045272 0.02865726 0.1851155 0.11035443
000150 71 4e 2b bd 6d ab a9 be f4 99 d3 be 8d 97 0c be
       -0.041822854 -0.331386 -0.41328394 -0.13729687
000160 a0 18 9f bd b7 7e 4f be c7 15 28 3e 2a b5 12 bf
       -0.07768369 -0.20263182 0.16414557 -0.57307684
000170 c2 9c 50 be fa ae 67 be 93 7d d7 be bd 30 8c bd
       -0.20372298 -0.22625342 -0.42087993 -0.068452336
000180 20 05 e2 be 42 21 0a 3e e3 2e a7 bd bb 44 71 3e
       -0.44144535 0.1348925 -0.0816324 0.23561375
000190 5e 68 6d 3d ef e2 ec 3d f2 d9 3f 3b b3 65 a6 3c
       0.05796086 0.11566722 0.0029274193 0.020312166
0001a0 af 70 e9 bd a7 67 2c bd 68 bf 3b be b6 cb e7 3d
       -0.11398446 -0.042091038 -0.18334734 0.11318152
0001b0 13 95 7d be 5a 32 29 3e bc 65 85 be d5 f7 14 3e
       -0.24763899 0.16523114 -0.2605418 0.14547665
0001c0 61 8f 51 3e 45 3b 0e 3e 9f d0 27 be d3 6a 36 be
       0.20464851 0.13889797 -0.16388176 -0.17814188
0001d0 59 e9 0d 3e 23 d5 ea bd a6 a6 e4 be 70 b8 f9 bd
       0.13858546 -0.11466434 -0.44658393 -0.12193382
0001e0 7c f9 64 be a8 d4 4e 3e 29 2b 76 3e 2f f8 1b 3e
       -0.22360796 0.2019831 0.24039902 0.15231393
0001f0 99 f6 ec 3d 29 cd 2b bc 00 ca 2b 3d ea 38 19 be
       0.11570472 -0.010485926 0.04194069 -0.14963117
000200 39 9b cf be 5d 59 19 be 8f eb 24 3e bc 2f b6 3d
       -0.40548113 -0.14975496 0.16105483 0.08895823
000210 17 ed 5d 3e 69 48 9c bc 0e d9 28 bc be b1 5d 3e
       0.21672474 -0.019077497 -0.010305656 0.21649835
000220 0d 00 fe bc cf d3 f5 be b9 92 5c 3e 41 78 35 be
       -0.031005884 -0.4801316 0.21540345 -0.17721654
000230 2c a6 92 3c d2 0e a9 be d7 f5 2b be e9 d3 77 3d
       0.017901503 -0.3301912 -0.16792999 0.060504828
000240 ba 6a ee bd e8 72 5f 3d 08 f0 60 3e ae 8d 7a 3e
       -0.1164145 0.054552943 0.21966565 0.24468109
000250 af a7 34 bd e7 83 10 be 8d a7 3a be 9f 3d 17 3e
       -0.044105228 -0.14112817 -0.18227978 0.147696
000260 15 ab fa 3d bc 67 78 3e 64 3f 15 be 6e a6 62 be
       0.122396626 0.24258322 -0.14574963 -0.221338
000270 ed f5 fd 3c 0d b1 3c be ef 57 1b 3d 0a 31 02 be
       0.031001056 -0.18426915 0.037925657 -0.1271402
000280 f2 e2 cc be 31 3b 61 be 80 89 2b be 02 72 24 be
       -0.40016896 -0.21995236 -0.16751671 -0.16059116
000290 b6 29 3f 3e fa 48 54 be 84 e1 83 be 5c fa 1e be
       0.18668255 -0.20730963 -0.25757992 -0.15525192
0002a0 9d 25 ce bd 01 0b 8b 3d 99 b8 57 3d c7 e0 74 3e
       -0.10065768 0.06789208 0.05266628 0.23913871
0002b0 8f 72 59 3e 97 70 e5 3d 82 51 07 be 0d 40 09 3c
       0.21235107 0.112031154 -0.13214687 0.008377087
0002c0 2f a4 e4 3d 86 57 b1 bd db ba f4 3d 41 7f aa be
       0.11164128 -0.08659272 0.11949702 -0.33300212
0002d0 76 69 53 be 59 a4 f6 3d f3 0b 7d be 22 f8 39 3e
       -0.20645699 0.120430656 -0.2471159 0.18161061
0002e0 dd 91 26 3e dd 12 73 be bb bd 0f be ae 1e 20 3e
       0.1626658 -0.23737665 -0.1403722 0.15636703
0002f0 7e 47 e0 bd 07 c4 70 be a5 fa b8 be d5 63 ad be
       -0.10951136 -0.23512278 -0.36128727 -0.33865228
000300 c9 fc 90 be a2 6c b1 be 56 29 0d 3e 57 02 e0 bd
       -0.2831786 -0.34653193 0.137853 -0.10937946
000310 7d 41 bc bd fb e7 d0 be 60 0a c5 3d f3 c8 6b 3c
       -0.091921784 -0.40801987 0.096211195 0.014391172
000320 1b 8c 4f bd e9 63 bf be 8c 5e b0 be 88 cb e0 be
       -0.050670724 -0.37380913 -0.34447134 -0.43905282
000330 73 02 5f be 2d 47 fd 3d da 45 17 be de 12 2f 3d
       -0.21778278 0.12367091 -0.1477274 0.042742603
000340 9e b5 1d 3d c9 19 12 bf 45 ed cc bc 0c 14 ab 3d
       0.03850328 -0.57070595 -0.025015483 0.08353433
000350 6c 74 4e 3e c4 ac b9 bd f5 1f 79 be 26 f2 f2 be
       0.20161599 -0.090661556 -0.24328597 -0.4745037
000360 b7 b3 ad be 15 85 9a 3e ef 9f 05 be 76 06 0d bf
       -0.33926174 0.3017966 -0.13049291 -0.55087984
000370 cc 4a 31 be 3e 60 7b be d9 00 2d be 2b e2 8b be
       -0.17313689 -0.24548432 -0.16894855 -0.2732099
000380 d7 aa 02 3e 08 b5 97 be ba 6b e0 3d e1 1a 58 3e
       0.12760483 -0.29630303 0.10958047 0.21104003
000390 a7 dc 97 3e 61 3c bb bc 95 a1 87 be c7 c3 1a be
       0.29660532 -0.02285594 -0.26490465 -0.15113746
0003a0 c0 90 8e be d9 a1 80 3e 20 9d ff bd 1c 79 61 3e
       -0.2784481 0.2512348 -0.12481141 0.22018856
0003b0 f0 fa 55 be 07 85 09 3e 10 20 5d be 2d cf 3b 3e
       -0.20896506 0.13429652 -0.21594262 0.1834075
0003c0 a7 6d 8d be 49 9c ee be 11 8f e3 3d 91 99 58 3e
       -0.2762272 -0.4660361 0.11111272 0.21152331
0003d0 33 a4 1b be 73 71 1b bc 99 4c 9d be 62 63 4a 3e
       -0.15199356 -0.009487498 -0.30722502 0.19764474
0003e0 80 7b 3d 3e 21 36 ba be 38 16 68 be f1 a5 d8 bd
       0.18504143 -0.36369422 -0.22664726 -0.10578526
0003f0 ed 47 11 3d 0a f4 04 3e 78 b4 a0 3d 2c bc eb bc
       0.035468984 0.12983719 0.07846922 -0.02877625

sequential_39/conv2d_95/Conv2D f4 [32, 3, 3, 1]
000000 dd aa 7c 3e 1b 44 1d 3c 9f b9 a1 bd e3 5d 14 3e
       0.24674554 0.009598757 -0.078967325 0.1448894
000010 ef 51 ee bd 2d 4e 8e be ce d5 b4 3d 96 07 7e bc
       -0.11636721 -0.27794018 0.088298425 -0.015504738
000020 ad a6 84 bd 14 4c 8a 3e 32 71 41 3e 19 c7 1b bb
       -0.064771034 0.27011168 0.18890837 -0.0023769794
000030 af 94 b3 bd 08 4f 0b 3d fb ab 5e be f6 f8 25 be
       -0.087685935 0.034010917 -0.21745293 -0.16208252
000040 87 a1 e5 bc 57 cd 1c bd f7 a8 8b 3d 92 95 7b be
       -0.028031124 -0.038281765 0.06819337 -0.24568775
000050 58 4c 33 bd dc a1 8d be fe 76 b3 bd 25 9a 91 3d
       -0.04377398 -0.2766255 -0.0876293 0.07109479
000060 bb e9 49 be 38 b7 91 3d 57 d2 5e 3e 75 9d 63 be
       -0.19718067 0.07115024 0.21759926 -0.22228034
000070 83 33 27 be 0f dd bc bd 08 c6 41 3e 36 12 4c 3d
       -0.16328244 -0.09221851 0.18923199 0.049822055
000080 ac 4e 2b 3e 71 3e 69 3e 15 05 6c 3c 70 e0 ac bd
       0.1672923 0.22777726 0.0144055085 -0.084412456
000090 ce fd 36 be e6 3c 97 bd a8 0f 6d be 48 56 1e 3e
       -0.17870256 -0.07384662 -0.23150504 0.15462601
0000a0 1f d1 2f bb e1 47 58 3d ee 51 73 3d 54 f1 85 3e
       -0.0026827527 0.052802924 0.059404306 0.2616068
0000b0 64 ce 0b 3e 98 0d 30 be e6 88 96 3d 2e 41 fb 3d
       0.1365295 -0.17192686 0.0735033 0.122682914
0000c0 45 02 4c be 19 7c 3c 3c 45 26 4b 3e 6f 59 99 3d
       -0.19922741 0.011504197 0.19838817 0.07487761
0000d0 f9 fa ca bd 0c f4 f8 3d f6 f8 17 be 7a 27 6f 3d
       -0.099111505 0.12155923 -0.14841065 0.058387257
0000e0 22 ab 84 bb 82 5f 0e 3e 92 f4 bd 3d 95 05 e5 bc
       -0.004048721 0.13903621 0.09275164 -0.027956763
0000f0 c1 f6 37 3d f7 b4 bf 3b b1 cb 5f bd c9 5c 81 bc
       0.044913057 0.00585043 -0.054637615 -0.015791314
000100 4f 55 45 bd 26 16 f0 bd 0f dd e0 bd de f3 87 3c
       -0.04817706 -0.117229745 -0.109796636 0.016595777
000110 64 14 29 3c e2 0b f2 3d 5d 74 08 3e 67 a5 38 3d
       0.010319803 0.11818673 0.13325639 0.045079615
000120 98 4c ee 3d 41 6e 3d 3e db 86 93 3d 41 29 be 3c
       0.11635703 0.1849909 0.07203456 0.02321303
000130 28 ce aa bd ed 8d 2d 3e a6 54 ac be 36 36 67 bc
       -0.083401024 0.16948672 -0.33658332 -0.014112046
000140 9d 8a 9c bd f3 db 82 3e b8 d6 0e 3d 6a c7 85 3e
       -0.07643626 0.25558433 0.03487274 0.26128703
000150 bd 50 89 be 67 48 d9 bd b6 9c 2c 3d 81 8a 32 be
       -0.2681941 -0.10609513 0.04214164 -0.17435648
000160 bc b7 2f be 99 89 1f 3e 33 d5 8e 3e 1f 3c 6c 3d
       -0.17159933 0.15579833 0.27897033 0.057674523
000170 9c e3 cf be 2d 6a 14 3d 4a 0f 04 bf ee cc 85 be
       -0.4060334 0.03623407 -0.5158583 -0.2613291
000180 29 7f a2 be c0 a3 93 bd 1a 75 8b 3e 40 07 2d be
       -0.3173764 -0.07208967 0.2723778 -0.16897297
000190 1e 36 07 3e 56 b4 c0 3d 7f 39 6d bd 7a 53 32 3d
       0.13204238 0.09409396 -0.05791616 0.04353664
0001a0 5b 8b c7 3d 90 be 56 3c 09 e0 64 3d ad 93 f3 bd
       0.09743377 0.013106957 0.05587772 -0.11893401
0001b0 e0 3d 7a bc 00 d1 0c 3e bd ca 31 3e a6 8e 8e be
       -0.015273541 0.13751602 0.17362495 -0.27843207
0001c0 c3 72 ba 3d 85 64 04 3e fd be 5e be 3a 92 57 bb
       0.0910392 0.1292897 -0.21752544 -0.0032893554
0001d0 2c 17 ab 3d 58 9b 70 3e 60 7b 6d 3e 81 38 70 be
       0.08354029 0.23496759 0.23191595 -0.23459055
0001e0 37 ff 00 3e 28 52 a2 3d d5 55 ae bb 9b 6d 49 be
       0.12597357 0.07925826 -0.0053202906 -0.19670717
0001f0 9d bf 60 bd 27 a9 e1 bd 6d ce 13 3e 42 35 8d 3d
       -0.054870237 -0.110185914 0.14434214 0.06894924
000200 c8 e8 0d be cc d4 02 bf 89 7a 9c be c3 ed 32 bf
       -0.1385833 -0.5110595 -0.30562237 -0.69894046
000210 d3 96 1b 3d 90 a1 cb 3d d7 6c fd 3d ef 36 19 3c
       0.037985634 0.09942925 0.12374275 0.009351476
000220 fa 52 30 3e 97 b5 36 3d da 83 93 3e a1 37 08 3d
       0.17219153 0.04460677 0.28811532 0.033256177
000230 86 c1 e9 bc 40 9c 4e 3e 3b 9b 74 be e6 32 c2 be
       -0.028534662 0.20176792 -0.2388734 -0.37929457
000240 c4 0f d3 be 5d 6d be be 3e 2a c8 bd dd 6b 15 bf
       -0.41222966 -0.37192813 -0.09773682 -0.5836771
000250 3d 41 c9 bd 10 fd 94 3d e0 fe ab be ae 70 71 3d
       -0.09826896 0.0727483 -0.33592892 0.05894535
000260 df dc 3a 3e 04 5e b3 3d 96 54 d6 3b 55 1d 96 be
       0.18248318 0.087581664 0.006540845 -0.29319254
000270 85 9c 58 3c a8 61 0a be 33 f0 4a be 46 2f 82 3e
       0.013220911 -0.13513815 -0.19818191 0.25426692
000280 0f d1 f3 3d 9b b9 f0 3d 77 b5 61 be e9 40 f9 3d
       0.11905109 0.117541514 -0.2204188 0.12170584
000290 95 97 90 3e d8 15 91 3c bb 70 90 bd 74 a1 37 3e
       0.28240648 0.017710611 -0.07052752 0.17932683
0002a0 b6 d2 88 be 77 79 85 3d a7 95 f1 bc e2 33 09 be
       -0.2672326 0.06517308 -0.029490305 -0.13398698
0002b0 47 c7 28 be d0 2a 09 be ff 79 a8 bc a8 83 81 3b
       -0.16482268 -0.13395238 -0.020565985 0.003952462
0002c0 93 da 6c 3e fa c6 44 3d 80 bc 53 3d 62 24 30 3e
       0.23130254 0.04804132 0.05169344 0.17201379
0002d0 f9 25 3a 3e 66 56 7b 3e 1a 22 a2 3c d4 28 6a bd
       0.18178548 0.24544677 0.019791652 -0.057167843
0002e0 b9 39 41 bd 22 39 d6 bc 47 35 33 be 7f 44 81 be
       -0.04717419 -0.02615029 -0.17500792 -0.2524757
0002f0 2d 90 d6 3d ff c5 89 be a9 07 31 bc 13 1f 22 3e
       0.10476718 -0.26908872 -0.010805049 0.15832166
000300 12 58 60 bf 4f 4c 87 be d8 ca e8 3d 88 82 f8 be
       -0.87634385 -0.26425406 0.113668144 -0.48537087
000310 37 10 56 bf 53 e3 f7 be 26 d9 8b 3c ec 19 b0 3d
       -0.8361849 -0.48415622 0.017071318 0.08598694
000320 ad 8c 0e 3d 06 8c e0 bd a9 c5 66 bb e2 fe 10 3e
       0.034802128 -0.10964207 -0.003521303 0.1415973
000330 81 3d b0 3d c0 e5 15 bd 9e 48 a9 bd 3b f4 b8 bd
       0.08605481 -0.03659606 -0.08265804 -0.09030958
000340 12 66 24 be ec 92 04 bd 1f d6 a0 3d 23 50 9b bb
       -0.16054562 -0.032366678 0.0785334 -0.0047397777
000350 b2 aa 19 3e a4 e6 de bd 65 90 73 3d 0c 4d ba 3d
       0.15006521 -0.10883835 0.059463877 0.09096727
000360 84 49 5a 3d c6 0d 80 bd 94 0f da bd 2e af 87 3e
       0.053292766 -0.06252627 -0.106475025 0.2650084
000370 5b 39 39 3e bd 89 8c bd f3 94 b3 bc 32 04 fd 3d
       0.18088286 -0.06862209 -0.02192161 0.12354316
000380 53 27 84 be 29 1d 21 3b 13 11 fc bb f6 17 04 be
       -0.25811252 0.0024584031 -0.007692465 -0.12899765
000390 1a f9 6a 3e 92 65 1f 3e c3 79 21 ba 7c 95 7f 3d
       0.22946587 0.1556609 -0.00061598065 0.06239842
0003a0 dd cf ac bc 0f f9 1c bb d6 e4 90 bd fc a9 02 be
       -0.02109521 -0.0023952161 -0.07074897 -0.12760156
0003b0 af b8 38 be a4 e8 23 3e bc 7b d1 3d 39 21 90 3e
       -0.18039201 0.16006714 0.102286786 0.28150347
0003c0 17 33 24 be 55 00 fc bd e7 bc 4d 3e 15 b5 48 be
       -0.16035114 -0.12304751 0.20091592 -0.19600327
0003d0 c8 82 40 be ae 6e c3 3d 3f dc 02 be a8 9b 37 bd
       -0.18799889 0.09542595 -0.1277933 -0.04482618
0003e0 50 ff e8 3d e1 b5 b7 3d 75 0c 90 3d 66 00 25 3e
       0.11376822 0.089702375 0.07033626 0.16113433
0003f0 32 9a c2 3d 16 f9 dd bc 23 82 84 be 7a f0 21 3e
       0.09502067 -0.027096312 -0.25880536 0.15814391

sequential_39/conv2d_96/Conv2D f4 [32, 3, 3, 32]
000000 98 ea 39 3c b3 0b 0e be 78 cc d6 3d 33 32 f2 bd
       0.011347435 -0.1387165 0.10488218 -0.11825981
000010 e5 26 e4 3d 98 76 12 3d a0 7e 28 3d 24 1c b6 bc
       0.11140231 0.03575763 0.041136384 -0.022230215
000020 bc 45 3c 3b a0 ab ca bd 94 a6 81 3c d6 aa b2 3d
       0.0028728088 -0.09896016 0.015826501 0.087239906
000030 f8 e0 90 3d 41 1c 93 3d a9 60 e3 3d 46 e1 8a 3b
       0.070741594 0.071831234 0.11102421 0.0042382805
000040 d4 17 b3 bc 07 b3 ec bc e6 c3 d3 3c 26 46 f7 3c
       -0.021861948 -0.02889396 0.025850248 0.030184817
000050 55 b4 c1 ba 6d 83 2f be 81 cd 9e bd 0d fd 5e 3d
       -0.0014778475 -0.17139979 -0.077540405 0.054440547
000060 77 dc 67 3d 88 93 cf 3d 12 63 df 3d ba 2e 83 bd
       0.056606736 0.10135561 0.10907568 -0.06405397
000070 a3 99 9f bd ab 12 d2 bd 62 8f 22 3d 6c 88 ec 3b
       -0.07792976 -0.10257467 0.03968752 0.007218411
000080 f4 7e cb 3d b0 da 32 bd 35 2b 12 3e 62 9e 91 3c
       0.09936324 -0.043665588 0.14274295 0.017775718
000090 ee e0 f5 3d a7 2e a5 3d 51 78 e5 3d 98 38 05 3e
       0.120057926 0.08065539 0.11204589 0.1300987
0000a0 32 7b ac bd 49 39 27 be 88 08 59 be 4b 6e 88 3d
       -0.08421935 -0.16330446 -0.2119466 0.06661662
0000b0 79 a0 f2 bd c9 91 33 3d 65 08 ce b9 45 cd b8 bd
       -0.11847014 0.043840203 -0.00039297636 -0.09023527
0000c0 61 ba 4f 3c 85 de e1 bc bb cd ba 3c 03 84 17 3e
       0.012678714 -0.027571926 0.022803178 0.14796452
0000d0 57 9a 5b be 54 b9 ba bd 02 c9 cf 3c 3d 9f 8b 3d
       -0.21445595 -0.0911738 0.025364403 0.06817482
0000e0 c9 3e 02 bd a0 d8 e7 3d 5c 5e ca 3d 3c 55 d5 3d
       -0.031798158 0.11320615 0.09881279 0.10416648
0000f0 d2 74 fb 3d c6 24 c8 3d 10 25 ae bd e0 19 04 3e
       0.12278141 0.09772639 -0.08503163 0.12900496
000100 1c 82 ae 3d ab 91 11 be 09 b3 32 bd 4f 3a 1b 3e
       0.0852091 -0.14215724 -0.043627772 0.15158962
000110 f9 06 16 3e 4f b8 80 3d c7 d5 9f 3d 74 be 03 3e
       0.14651097 0.06285154 0.07804447 0.12865621
000120 df bf ac be df 40 ba be aa 33 51 be 35 9f 2f bd
       -0.33740136 -0.36377618 -0.20429865 -0.04287644
000130 6f da 03 be f5 59 d1 bd 2c 1b b9 3d 9f 02 d2 3b
       -0.12876295 -0.10222236 0.09038386 0.006409004
000140 c3 6a 84 bd 1a 5a 98 3d a6 bb f8 bc 98 60 b2 3d
       -0.06465676 0.074390605 -0.030362915 0.0870983
000150 66 d7 16 be 8c f0 c1 bc 46 b3 27 bd 44 8d 10 bc
       -0.14730605 -0.023674272 -0.040942453 -0.008822743
000160 b8 09 cd 3d 40 61 70 bd f3 b9 18 3e 47 a1 96 3d
       0.10011619 -0.058686495 0.14914684 0.0735498
000170 6a fc f2 3d 49 1e 24 3e 2d 85 cd bd e2 75 0b 3d
       0.118645504 0.16027178 -0.10035167 0.03404797
000180 e4 8e e4 bd b0 2b 4a 3e cc 63 bf bd 14 2e eb bd
       -0.11160067 0.19743228 -0.093452066 -0.11483398
000190 62 ad 65 be 9a c1 cd 3c 2a bd 63 bc fc 65 10 be
       -0.22429422 0.02511673 -0.013900081 -0.14101404
0001a0 78 04 d5 3d 99 53 22 3e 83 eb 58 be 51 82 2e bd
       0.10401243 0.15852202 -0.2118359 -0.04260475
0001b0 53 6a 35 3d c7 f9 92 3d 02 fd f8 bd fa 3a 1c 3d
       0.04429085 0.071765475 -0.121576324 0.038142182
0001c0 26 37 f0 bd 7d c8 39 be 8a 17 ea 3d cc 8e 05 be
       -0.11729269 -0.18142886 0.11430271 -0.13042754
0001d0 41 d9 0a 3e e4 da 49 bd 75 85 7b bc cb d8 0c bd
       0.13559438 -0.049281016 -0.015351643 -0.034386437
0001e0 0e 2c 92 bd 53 7d 8c bd 00 91 0c 3e 37 d0 9c bd
       -0.07137309 -0.06859841 0.13727188 -0.07656901
0001f0 5f 7d 87 be cd 5c 92 be ba 7c 5d bc 43 d3 76 3e
       -0.26462838 -0.28586426 -0.013518507 0.24104027
000200 05 3d 0a 3c 30 d1 14 3e 85 d8 95 bc d5 44 88 bd
       0.0084374 0.14532924 -0.018291721 -0.06653754
000210 26 57 ba bd b4 58 95 3d 85 87 96 bd c9 ba 97 bd
       -0.090986535 0.072923094 -0.07350067 -0.07408673
000220 80 a2 4d 3e 0c 9d 9e 3b 5c 10 42 bd 7b 8b 0f bd
       0.2008152 0.004840499 -0.047378883 -0.03504513
000230 1e 17 ef 3c be 0c 1f 3d 65 a4 f9 bd 80 36 c1 3b
       0.029185828 0.03883051 -0.12189559 0.0058963895
000240 97 c2 29 3d 17 33 cc bd 06 60 47 3d bd e3 15 3d
       0.04144534 -0.09970682 0.04867556 0.03659414
000250 8e df e8 3d 57 e7 16 bd b6 d1 84 3d a8 28 86 3d
       0.11370765 -0.036841717 0.06485312 0.06550723
000260 05 45 a2 3d 02 1f b7 3d 93 d9 49 3e 03 6d 49 be
       0.07923321 0.08941461 0.19711904 -0.19670491
000270 99 10 a1 be 19 57 df bd e2 f9 9a 3d f9 25 28 3e
       -0.31457976 -0.109052844 0.075671926 0.16420735
000280 4c a9 a6 ba 3e a7 70 bc 88 48 21 be e7 74 d3 bd
       -0.0012715249 -0.014688311 -0.15750325 -0.10325032
000290 a2 67 ca 3c d2 36 8a 3d c6 6c ea bc 15 64 63 3d
       0.02470762 0.067487374 -0.02861632 0.055515368
0002a0 9f 04 ec 3c 57 0f af bd 40 c4 8b be 5f 10 a8 3d
       0.028810797 -0.08547848 -0.27298164 0.082062475
0002b0 75 15 e7 3d e4 d4 75 3d 95 cc da bd 43 0c 5d 3c
       0.112833895 0.06001748 -0.10683552 0.013491693
0002c0 f4 7f c7 bd 3a 92 cc bd 05 ce 00 3e e5 b6 32 bc
       -0.09741202 -0.09988828 0.1257859 -0.010907863
0002d0 d6 24 a2 3d 77 20 f8 bd 92 0c b8 3d 91 64 63 3c
       0.07917182 -0.12115567 0.089867726 0.013878957
0002e0 30 ed be bb 19 bb cc 3c b1 00 fd 3d cb a5 2b be
       -0.005826615 0.024991559 0.123536475 -0.16762464
0002f0 54 41 c3 bd 67 52 58 be 01 f6 ca 3d 06 cd 59 3e
       -0.09533945 -0.21125184 0.09910203 0.21269616
000300 f9 3b 65 be 4d df 26 3e 38 c5 7c be 11 9e a7 bd
       -0.22386159 0.1629612 -0.24684608 -0.08184446
000310 13 1c 85 be 00 8a 4f 3d 3d 85 25 be 48 44 0c bd
       -0.2599798 0.050668716 -0.16164108 -0.034244806
000320 4f 2a a4 3d d6 f7 58 3e eb eb 4f 3d ec 12 3f 3d
       0.08015882 0.21188292 0.0507621 0.046648905
000330 12 7d 11 3e 7d 71 72 3d 05 ac 70 3c 77 f1 11 be
       0.14207867 0.059190262 0.01468945 -0.14252268
000340 6b 98 87 be 8a 56 6c bd 37 2e c0 3d 46 1d ea be
       -0.26483473 -0.057699718 0.09383815 -0.4572546
000350 bc 32 28 3d 2d 79 b5 3e 6d 23 a3 3d 52 1d 4f be
       0.04106401 0.35444012 0.07965741 -0.20226029
000360 5b b9 41 be ae 80 44 be 7d b2 a2 be 6f e7 9f be
       -0.18918364 -0.19189712 -0.317768 -0.31231257
000370 05 fd ca be 25 0f 3b be 91 56 95 bc 1d 85 1b 3e
       -0.39646164 -0.18267496 -0.018229755 0.15187497
000380 14 31 82 be d1 f5 24 3e 86 38 04 be 3a 88 a3 be
       -0.2542807 0.16109397 -0.12912187 -0.3193987
000390 e6 33 68 be 7e 29 a6 3d 7f b4 5d bd 98 f3 49 be
       -0.22676048 0.08113383 -0.054127213 -0.1972183
0003a0 d9 1a 3c 3e 1e c2 6d 3e 25 7b 61 bc 5f 85 94 3d
       0.18369617 0.23218581 -0.01376227 0.07252001
0003b0 78 85 23 3e 2d 39 85 3d fb 17 29 bd 23 a2 61 be
       0.15968883 0.06505046 -0.041282635 -0.22034506
0003c0 73 58 6d be c4 d2 6f be 29 9b 88 bc fa 5d ab be
       -0.23178272 -0.23420244 -0.016675549 -0.33470136
0003d0 39 ab 4a 3d 32 c4 19 3e ca 22 75 bd c7 41 30 be
       0.049479697 0.15016249 -0.05984763 -0.17212592
0003e0 f1 34 0b be 74 16 1e be ba c2 16 bc 95 5e 9a be
       -0.13594414 -0.15438253 -0.0092017 -0.30150285
0003f0 2e 88 74 be d8 82 9e be 9a 09 b7 bc 1a 1e b8 3c
       -0.23880073 -0.309592 -0.022343446 0.022475291

sequential_39/conv2d_97/Conv2D f4 [64, 3, 3, 32]
000000 d0 75 cc 3d da dd 9d bd cb 4e b8 3d e6 ae f6 3c
       0.099834085 -0.077083305 0.089994036 0.030112695
000010 83 ee bc 3d b5 bd bc bc 70 d3 7b bd e3 67 ee bc
       0.0922518 -0.023039678 -0.06148094 -0.029102271
000020 97 5c a3 bd 2a 6b 59 3c 67 7b 8b be 63 fd aa bd
       -0.079766445 0.013270179 -0.27242586 -0.08349111
000030 59 79 67 3d e5 08 5f bd 20 3e 6c ba 5c 5d a2 be
       0.05651221 -0.05445184 -0.0009011943 -0.31711853
000040 fd c7 18 3d 1f 77 1b 3e f9 52 2f bc 61 b5 a4 bd
       0.0373001 0.1518216 -0.010700935 -0.08042408
000050 85 c1 f5 bc c6 14 ad bd b2 41 8b bd e3 02 d0 3c
       -0.029999504 -0.08451228 -0.0679964 0.025392001
000060 d4 c4 36 be 97 bb 0f be d1 52 b7 3d 51 52 8e 3c
       -0.17848521 -0.14036404 0.08951343 0.017373236
000070 9a 20 63 3d 88 8a 13 be 21 5b 7f bc 45 cb ed bd
       0.055451013 -0.14408314 -0.015585692 -0.11611036
000080 b6 0d a8 3d 39 c8 a2 3c 72 e0 32 bd b1 f4 16 3d
       0.0820574 0.019870864 -0.04367108 0.03685445
000090 9d d3 6c bd 24 10 36 bc 26 03 2a 3a 28 23 f6 bd
       -0.057818998 -0.011112247 0.00064854545 -0.12018424
0000a0 81 c2 09 3e e0 82 e6 3d 49 5a 93 3d 99 63 18 bd
       0.13453104 0.11255431 0.07194955 -0.03720436
0000b0 d4 62 11 3e 49 0a ce 3d 6f 2f 91 bc 43 1a eb bc
       0.14197856 0.100605555 -0.017722813 -0.028699046
0000c0 8d e4 fc bc 8d 8e 30 be ef a2 bb bd 26 aa 0f bd
       -0.0308707 -0.17241879 -0.091619365 -0.035074376
0000d0 14 67 f0 bd 57 bd 01 be 0e 64 97 bd 0a cd 99 be
       -0.117384106 -0.12669884 -0.07392131 -0.30039245
0000e0 1b a4 87 be 0e 69 19 be ac 8b cb 3d cd 96 a4 bc
       -0.2649239 -0.14981481 0.0993875 -0.020091439
0000f0 57 02 7f bd f7 9a 86 bd 62 a9 5e 3c a1 a9 85 be
       -0.06225809 -0.06572526 0.013590189 -0.2610598
000100 71 f5 c8 3d a8 ac 6d 3d 16 2f 61 bc df b8 c0 3d
       0.09812439 0.058025986 -0.013744136 0.09410261
000110 b7 44 89 bc 21 a5 37 bd e4 b6 b1 3b 8d 63 fc bd
       -0.016756399 -0.044835214 0.0054234136 -0.12323675
000120 da 2c 37 bd 7b 09 ba bc 39 ef a3 bd d0 5d 35 be
       -0.04472051 -0.022709599 -0.080046125 -0.17711568
000130 d0 ff d6 39 fc 3c ee 3a bf 21 5b bd d3 08 6d 3d
       0.00041007856 0.0018176134 -0.05349898 0.057869744
000140 1e 7d 8f 3d 5a dd 6d bd 56 cd 91 bd 48 71 3d 3d
       0.07006286 -0.058072425 -0.07119243 0.04625061
000150 9b 05 cd 3d 87 a7 d3 3a f3 5b 73 3d de a2 b8 bd
       0.10010835 0.001614795 0.05941386 -0.090154395
000160 f3 45 da 3c 3c 75 0c 3d 25 bd 14 bd d4 52 76 bc
       0.026644683 0.03429149 -0.036313195 -0.015034396
000170 f3 63 e4 bd 29 e2 ad 3d e6 43 70 3d 63 a4 93 3c
       -0.11151876 0.08490402 0.058658503 0.018022722
000180 ff 55 37 bb d0 7d 9f bc 43 5e 3e 3c 26 f4 3f bd
       -0.0027974842 -0.019469172 0.011619153 -0.046863697
000190 8e 9d bb bd 32 7c d3 3d 38 64 04 be 46 5a 03 be
       -0.091609105 0.10326423 -0.12928855 -0.12827405
0001a0 a2 0b 20 be ed f8 ee 3c a4 69 ff bd 66 d1 45 3d
       -0.15629438 0.029171431 -0.12471321 0.0482954
0001b0 3c 21 9d 3c 07 51 0e be a8 44 cc 3d 67 6e e8 bd
       0.019180886 -0.13898097 0.09974033 -0.113491826
0001c0 39 ed 9e 3c 11 d3 dc 3d 47 6b 45 bd 3c 21 81 bd
       0.019400226 0.10782445 -0.04819801 -0.06305167
0001d0 54 40 53 3c 14 24 44 be 80 2a 39 bd e7 ad 65 bc
       0.012893755 -0.19154388 -0.045206547 -0.014018512
0001e0 8b 1e 6e be fb d0 53 be 01 65 b9 3d 17 e1 7e bc
       -0.23253839 -0.20685188 0.09052468 -0.015556595
0001f0 5e c2 b9 3d 9a e3 51 bd 2e 32 44 3d f2 a1 19 be
       0.09070276 -0.05124245 0.047899418 -0.15003183
000200 0f bf 35 bc f3 b2 87 3d 0f 09 c7 bd 32 97 f4 3d
       -0.011092915 0.06625929 -0.09718525 0.11942901
000210 56 37 a5 bb 81 58 c2 bd 5c 16 dc bd 51 5b ab bd
       -0.005041997 -0.09489537 -0.10746452 -0.083670266
000220 27 ce 7c bc 01 20 0e bc 63 77 a3 3c 8b 47 45 be
       -0.01543001 -0.0086746225 0.019954389 -0.19265573
000230 a0 2f 31 be bb 50 15 3a 64 eb f4 3d f9 a4 69 3d
       -0.17303324 0.00056959287 0.1195896 0.057042096
000240 de c1 15 3d 0d 89 63 3d 4d f7 85 bd a9 d8 2f 3e
       0.03656184 0.055550624 -0.065413095 0.17172493
000250 49 90 f4 bd 53 cb 6b 3d 3a d0 10 3e 73 04 b5 bd
       -0.11941583 0.057566952 0.14141932 -0.08838739
000260 5e bb 66 3d 64 3c b3 bd b5 82 9e 3c 32 9e 98 bd
       0.05633103 -0.08751753 0.019349435 -0.07452048
000270 f4 a8 71 bd 87 45 17 3d d6 d2 c5 3d d1 0f bf bd
       -0.058999017 0.03693154 0.096593544 -0.093291886
000280 3d 8f 1a bd 95 39 60 3d 10 43 77 3d 4c 46 4b 3e
       -0.03773426 0.054742415 0.06036669 0.19851035
000290 98 f7 f4 3d a7 9f de 3c ee 3e e3 3d 65 54 36 3d
       0.11961287 0.027175738 0.11095987 0.04451408
0002a0 92 be a3 3d d2 52 9c 3d 98 b9 68 be 55 66 b4 3d
       0.07995333 0.07632984 -0.22727048 0.08808581
0002b0 44 39 0a 3e 1a 7a 04 3e b7 b9 24 3c 55 57 c4 3d
       0.13498408 0.12937203 0.0100540435 0.0958697
0002c0 2f a7 25 bb e1 40 fe 3d f4 52 c7 bd 72 0b 69 bd
       -0.002527665 0.124147184 -0.09732619 -0.05689568
0002d0 1c 42 7b 3d 3e 9e 0a 3e f8 18 84 3d ee 5d fb 3d
       0.061342344 0.13536927 0.06450075 0.12273775
0002e0 82 88 4e bc 53 02 ed bc b1 56 30 3e 1d e5 bb 3d
       -0.012605788 -0.028931772 0.1722057 0.09174559
0002f0 27 23 0c 3d 67 c0 14 3e 9e ed 41 3d 41 33 fe 3c
       0.03421321 0.1452652 0.04734575 0.0310303
000300 61 67 85 be de 33 1e bd 1b ec 96 bd 15 2c 28 3e
       -0.26055434 -0.038623683 -0.07369252 0.16423066
000310 54 8d d0 3d 7a 1e 17 be b2 29 3b be a8 4c bf bc
       0.10183206 -0.1475772 -0.18277624 -0.023351982
000320 0a 97 10 be 01 65 48 be ae 25 4e 3d 9b fe 6a 3e
       -0.14120117 -0.1956978 0.050328903 0.22948687
000330 b9 b0 1e 3d 40 bb b0 be 51 34 ae bd ca a0 05 3d
       0.038742755 -0.3451786 -0.08506072 0.032624044
000340 d8 44 e0 bd 7a f4 b6 3d 09 a7 06 3e 5b 15 a0 bd
       -0.10950631 0.08933349 0.13149656 -0.07816573
000350 a7 22 84 3c d8 f3 0f 3d d8 6d 09 be e2 00 51 bd
       0.016129805 0.035144657 -0.13420808 -0.051026233
000360 fb f8 aa bd 81 7d bc bb 52 1f 08 3e c7 5b 0c bd
       -0.083482705 -0.005752266 0.13293198 -0.034267213
000370 9a f1 ec bd bc f8 99 bc b4 a1 82 bd f4 68 b7 bd
       -0.11569519 -0.018795364 -0.06378499 -0.08955565
000380 cf dc e2 3c 2a 6a 32 bd b0 c5 10 3c 4d ff 57 bc
       0.02769318 -0.043558277 0.008836195 -0.013183427
000390 47 95 a6 3d 63 3f 04 be 95 44 cc bd 66 93 b3 bc
       0.08133941 -0.12914805 -0.099740185 -0.021920871
0003a0 69 08 d9 bd 97 05 0b be d4 c4 12 bc a5 d9 a2 bd
       -0.10597307 -0.13576351 -0.00895806 -0.07951669
0003b0 c1 7b 61 3d d7 d8 03 be cb 41 b1 bd 1a 83 30 bd
       0.05504966 -0.12875687 -0.08655127 -0.04309378
0003c0 5e 14 a9 bd c5 0b ce bc 0e 47 11 3d 78 80 9b 3d
       -0.08255838 -0.025152097 0.035468154 0.07592863
0003d0 de 03 b8 3d 49 e3 ca 3d a8 05 db 3c 38 ea 32 3d
       0.089851126 0.099066325 0.026736096 0.0436804
0003e0 c5 0c 7e 3d 5e 9d 4d 3d 11 38 3b bd 14 3d ef bd
       0.062023897 0.050198905 -0.045707766 -0.116815716
0003f0 f9 6b 7b 3c 83 c2 0b bc 24 17 55 bd 1f 67 78 3d
       0.015345567 -0.008530262 -0.05202402 0.06064522
