Auto_TF_to_uC/Converted_model_files/EMNIST_model_pruned.tflite (tflite, 441880 bytes, 12 tensors)

sequential_39/conv2d_95/BiasAdd/ReadVariableOp/resource f4 [29]
000000 a1 b9 f1 3c 0b c2 ee 3c cb 90 70 3d 75 0e b0 3c
       0.02950746 0.029145261 0.058731835 0.021491269
000010 0a f1 b0 3c 13 a4 0e bc d2 50 38 bd ce 06 a5 3c
       0.021599311 -0.0087061105 -0.04499895 0.020144846
000020 3c cc bb 3c 1f b8 e4 3d bc 8f 42 bd 4e 8e 68 bb
       0.022924535 0.11167931 -0.047500357 -0.003548521
000030 aa f5 76 bc b6 4a f9 3d 19 b9 49 bc 57 6a f6 3d
       -0.015073219 0.12172453 -0.012312197 0.120320015
000040 93 75 8f 3c ab 3f 14 bc 54 02 f8 3c c6 d8 ee bb
       0.017512118 -0.009048383 0.030274548 -0.007289025
000050 b9 b6 7c 3e 6f 8d 83 bc c2 3e bc bc 4c 78 2f bc
       0.24679078 -0.016058652 -0.022979144 -0.010709833
000060 bc 7d b3 3c 9d dc 70 3d a6 26 0e 3d 4f 99 3e bc
       0.02191054 0.058804143 0.034704827 -0.011633231
000070 4c 5f d9 3d
       0.106138796

sequential_39/conv2d_96/BiasAdd/ReadVariableOp/resource f4 [29]
000000 ef 7a 75 bc 74 1b d9 3b b8 09 b9 3c 1c e1 83 3d
       -0.014982923 0.006625587 0.022587642 0.064394206
000010 1b 3a 35 3d a0 8d 32 3d 0e d9 6d 3d 20 2b 8d 3d
       0.044244867 0.043592095 0.058068328 0.06892991
000020 a0 58 63 3d a0 9d 14 3d a3 46 a9 3c 04 78 84 3d
       0.05550444 0.036283135 0.020663565 0.06468204
000030 df fa b5 3c 3c 52 f5 bc d8 45 10 3d 33 58 02 bb
       0.022214351 -0.029946439 0.03522286 -0.0019888997
000040 6c c4 ad 3c 74 7c 4e 3b b3 01 d0 bc b2 f6 ae 3c
       0.021211825 0.0031507285 -0.025391435 0.021357868
000050 db 22 de bb 61 b9 fd 3c 5b 98 05 3d 88 a4 5d 3d
       -0.0067790574 0.030972185 0.032616 0.054111987
000060 2e 8c 23 3b 6a 0e 56 3d 16 38 e9 3c ce 8a 17 3d
       0.002495538 0.05225984 0.028469127 0.03699761
000070 07 03 65 3c
       0.013977773

sequential_39/conv2d_97/BiasAdd/ReadVariableOp/resource f4 [58]
000000 66 b1 a1 bd 55 f0 97 bd ba 3f 6e bd 45 58 97 3d
       -0.07895164 -0.074188866 -0.058166243 0.07389883
000010 06 64 5c 3d e4 58 ac 3c eb 31 c4 3c 1d 71 e9 3c
       0.053806327 0.02103848 0.023949584 0.02849632
000020 09 6b a3 bd cd e5 65 bd f7 e4 e2 3d a7 49 ea bd
       -0.079794 -0.05612736 0.11078828 -0.11439829
000030 01 9d 1d bd d4 04 a6 3d 00 2c eb 3c 66 80 d3 bc
       -0.03847981 0.0810639 0.028707504 -0.025818061
000040 2d 14 6e 3c 4d 7e 90 bd 9e 59 94 bd 30 6a 45 bd
       0.0145311775 -0.0705534 -0.072436556 -0.04819697
000050 f4 ab 02 bd e7 28 c6 3d fa e8 bc 3c 46 a1 63 3d
       -0.03190227 0.0967577 0.02306031 0.055573724
000060 f9 3f d1 bd 46 d7 be 3c de 00 a2 3c 92 63 1b 3d
       -0.1021728 0.02329601 0.019775804 0.037936755
000070 12 e5 09 3c 58 0b f7 b9 fc 2b 56 3d 58 23 ce 3b
       0.008416431 -0.00047119963 0.05228804 0.0062908344
000080 b2 2a db bb be 48 8e bc 58 a0 ca 3d 6b a1 bc bc
       -0.0066884393 -0.01736867 0.098938644 -0.023026189
000090 4a a8 4a 3a fd 65 49 3d 75 1c 96 3d 06 ee 05 3d
       0.00077307655 0.04916953 0.073296465 0.0326977
0000a0 c7 b3 b7 bd 8a 3c 69 3c 1c 72 ef 3d e5 16 68 3d
       -0.08969837 0.014235625 0.116916865 0.05666246
0000b0 92 c0 49 3d e3 63 21 3d 1c c1 f3 3c dd 89 2c 3d
       0.049255915 0.0394019 0.029755168 0.042123664
0000c0 ca 7b f5 bc 0e e2 82 3c de f5 2e 3b 5f 7f 21 3d
       -0.029966254 0.015976932 0.0026696841 0.03942811
0000d0 43 79 89 3d 7e b0 ba bc 0d 71 9b 3c 7a 96 5f bc
       0.06712582 -0.022789236 0.018974805 -0.013646716
0000e0 61 7d 88 3d 0e e0 e8 3d
       0.06664539 0.1137086

sequential_39/conv2d_98/BiasAdd/ReadVariableOp/resource f4 [58]
000000 25 23 1b 3c fa cf a1 bb 92 51 5f 3d 38 d9 c4 bc
       0.009468828 -0.004938123 0.05452115 -0.02402936
000010 38 df b0 3c 11 31 9e 3c 58 d5 03 bd 91 f8 03 3d
       0.021590814 0.019310506 -0.032185882 0.032219473
000020 24 6a 38 3d fd 69 05 bd ac d3 96 bc f8 f4 0a bd
       0.0450231 -0.03257178 -0.01841148 -0.033925027
000030 ae 74 24 3d 8a 61 5b 3d 78 08 6c bd 8a 28 a2 3d
       0.040150337 0.053559817 -0.057625264 0.079178885
000040 aa e6 c0 3c 36 73 97 3c 50 45 2e bc ff 32 0c bd
       0.02354749 0.018487554 -0.010636643 -0.03422832
000050 33 29 a0 3d a2 4e c5 3c 30 2e ea 3c 9c 07 e1 bc
       0.07820358 0.024085347 0.028586477 -0.027469449
000060 f7 e6 a4 3c 69 86 ae 3c 71 ec 7f bc c8 b7 1a 3d
       0.020129664 0.021304326 -0.015620337 0.037772924
000070 26 6a 8f 3c 60 5d c2 bc 41 c3 ac 3c 94 d8 14 3d
       0.01750667 -0.023726165 0.021089198 0.036339357
000080 71 18 29 3d 42 15 cc b9 2a e8 00 bd cc 92 02 bd
       0.041283075 -0.0003892575 -0.03147141 -0.031878278
000090 a0 d3 df 3b a4 43 4f bd 84 77 18 3d 8e 3b 41 bc
       0.0068306476 -0.050601617 0.037223354 -0.011793984
0000a0 b6 c9 b6 3c 08 55 81 3b fc 96 16 3d 87 86 d3 bc
       0.02231298 0.003946904 0.036765084 -0.025820984
0000b0 5d 3e e0 bc 62 f8 8b 3b f7 e4 cd 3c 7e da d7 bc
       -0.027373487 0.004271553 0.025133593 -0.026349302
0000c0 c9 f4 7a bc d7 8e 61 3d 81 43 09 bc f4 bd bf 3c
       -0.01531715 0.055067863 -0.008377911 0.023406006
0000d0 6a 2b 1a 3d c6 69 2d 3d dd fa 43 bc 88 43 0c bd
       0.03763906 0.0423372 -0.011961666 -0.03424409
0000e0 4c 96 15 bd c0 9e 2d 3b
       -0.036520287 0.0026492327

sequential_39/dense_111/BiasAdd/ReadVariableOp/resource f4 [58]
000000 1e 94 16 bd c4 ec fc bc 39 25 1d 3c 48 04 aa 3d
       -0.03676235 -0.030874617 0.009591394 0.08301598
000010 91 fa f0 bb da 6a 96 3d 76 39 0a 3d ed e1 4f bd
       -0.0073540886 0.07344599 0.033746205 -0.05075257
000020 5b 61 d5 3b 5f 11 0d 3d 43 e9 b6 3c 80 88 f9 bc
       0.00651185 0.034440394 0.022328025 -0.030460596
000030 3b 8e 69 bd 71 ab 8b bd f8 6d 4e 3d 5a 6b 5e bd
       -0.057020407 -0.06819809 0.050397843 -0.054301597
000040 08 91 3b 3d 43 ec 1d 3d e8 46 ac 3d f6 bb 59 bd
       0.04579261 0.038555395 0.08411962 -0.05315777
000050 18 99 83 bd 9c 38 d6 3c b4 b2 0c bd 22 32 29 bc
       -0.06425685 0.02615004 -0.034350112 -0.010326894
000060 48 d9 ea bc 3c 52 3a bc a4 17 2d bd 5f 4f 8f 3d
       -0.02866806 -0.011372145 -0.042258874 0.06997561
000070 3a 83 0f bd 3a d9 80 bd d4 36 38 3a a9 a7 da bb
       -0.035037257 -0.06291433 0.0007027213 -0.0066728187
000080 b5 b9 39 3d f5 bf a5 3c f1 c8 19 3e 5a 6e 5c 3d
       0.04534312 0.020233134 0.1501806 0.053816177
000090 fe 52 f7 3c da 7c 43 bc 2e 34 da bc 1e 72 08 bd
       0.030190941 -0.011931622 -0.02663621 -0.033311956
0000a0 b8 35 3c bd 61 3e 94 bd 28 13 16 3d 9b 72 0a 3d
       -0.045949668 -0.0723846 0.036639363 0.033800703
0000b0 af 4d 5e 3d 25 5a a0 3c 8f 6f 48 bc 3c ea 1a bc
       0.054273304 0.019574234 -0.012233629 -0.00945526
0000c0 7f 70 95 3d e4 68 3a bd 24 71 7d bc 2d 7c 12 3b
       0.072968476 -0.045510188 -0.015468869 0.0022351847
0000d0 a0 5c 8a ba 1d 9d a2 3d f3 0a 00 3e 5b 6c 76 3d
       -0.0010556169 0.07940123 0.12504177 0.06016193
0000e0 31 77 b2 bb 64 29 4c 3d
       -0.0054463376 0.04984416

sequential_39/dense_112/BiasAdd/ReadVariableOp/resource f4 [36]
000000 34 d9 d0 3d 2d a0 94 3e f3 c9 a2 bd b6 e3 39 bd
       0.10197678 0.29028454 -0.07948675 -0.045383178
000010 da a7 58 3d 46 b7 49 be 48 ad 15 bd b2 4a 3e be
       0.05289445 -0.1969882 -0.036542207 -0.18583182
000020 87 99 54 3e 65 1e a6 3d bc 19 0b 3e ac dc 38 3d
       0.20761691 0.08111266 0.13584036 0.045132324
000030 30 2f 0d 3d cc 83 66 bd 30 cd 8d bd 85 90 a5 3d
       0.03446883 -0.056278035 -0.06923902 0.080842055
000040 ad 13 ef bd 6b 13 a0 bd a7 b3 8e 3c cb 3a 4f bc
       -0.11673675 -0.07816204 0.01741965 -0.012648295
000050 96 e5 38 3b 70 2c 1b bd 56 96 74 be 62 c0 44 be
       0.0028213016 -0.037884176 -0.23885474 -0.19214013
000060 2e 12 33 3d 3b cb 06 be eb fb 6d bd f4 65 e1 bd
       0.04371851 -0.13163464 -0.058101576 -0.11005774
000070 47 cb 99 3d 1b d9 01 3e f8 c1 99 3d 47 fc 31 3d
       0.07509475 0.12680475 0.075077 0.04345348
000080 a6 75 5e be 3b 37 fb 3d bb 34 66 bd c7 df 38 3b
       -0.21724567 0.12266394 -0.05620263 0.0028209554

sequential_39/dense_111/MatMul f4 [58, 928]
000000 c3 7d e6 3d 97 15 b1 3d 90 df d2 3d 9c a8 98 bd
       0.11254456 0.08646696 0.102965474 -0.07454035
000010 2e 48 06 3d 66 d6 7c 3e 94 36 eb bd 3a 13 9a bc
       0.03278368 0.24691162 -0.11485019 -0.018807996
000020 58 cd d9 3d 1d 2a af be 8e 80 a2 be a5 29 ea 3c
       0.10634869 -0.34211817 -0.31738704 0.02858431
000030 e8 d3 c8 bc 44 3d 8f bc 86 c3 6d bd 80 72 6b 3d
       -0.024515107 -0.017485268 -0.058047794 0.057482243
000040 87 7f 10 3e 2b 9c 2f be 8c 71 a1 3d b4 8b d5 bb
       0.14111148 -0.17149417 0.078829855 -0.006516898
000050 d6 64 80 3c a6 e9 2f be 2b 09 29 3e 4e 98 d7 bc
       0.015673082 -0.17178974 0.16507404 -0.026317742
000060 90 a9 ef b9 21 36 f8 bd c5 db bc 3d f0 b9 02 3d
       -0.00045711966 -0.12119699 0.09221605 0.031915605
000070 0d 1e 53 be c2 d9 37 bd e0 df ee bc 27 f9 da bc
       -0.20616932 -0.044885404 -0.029159486 -0.026730133
000080 b6 f0 cb 3c 13 8d 9d 3d f5 59 fa bb 31 64 bc 3c
       0.024895053 0.076929234 -0.0076401182 0.022996994
000090 78 43 1d 3e f9 ca 86 3d 9a 9c 3e 3c 9c 9d 99 bd
       0.15357769 0.06581683 0.011634016 -0.07500765
0000a0 e9 15 bc 3d de 71 4f 3c ce bd 68 bd d1 09 86 be
       0.091838665 0.012661425 -0.056821637 -0.26179364
0000b0 6d e7 2f bd 15 ba 1f bd b7 8a 97 bd 07 c3 28 bd
       -0.042945314 -0.03899582 -0.07399505 -0.041201618
0000c0 2f 1e fd 3c 72 5d 12 3d ca 62 39 bc 4c 6e 53 3d
       0.030898182 0.035733648 -0.011315057 0.05161886
0000d0 40 bc 5a bd 1c b6 93 3c b9 64 71 3c be 74 b8 3c
       -0.053402185 0.018031172 0.014733487 0.022516605
0000e0 b2 7d 8b 3d ff a5 c6 bd 88 19 02 bd d8 57 c9 bd
       0.06811084 -0.0969963 -0.03176263 -0.09831208
0000f0 ab 21 82 bd b3 5f 42 be e2 63 c7 bc 95 89 ca 3c
       -0.06354078 -0.18981819 -0.02433962 0.024723807
000100 cd 29 d2 bd 59 d2 54 3d cb bd 23 bc a9 ab c4 3d
       -0.10261879 0.051958416 -0.009993981 0.09603054
000110 8f ac de 3c 3a 49 42 3d 1f 0e 47 3d 4a 77 cd 3c
       0.027181892 0.047433116 0.04859745 0.025081296
000120 92 41 e5 3c 31 69 2b be d4 3b 9e be 79 e6 d6 bc
       0.027985368 -0.16739346 -0.3090502 -0.026232945
000130 77 d6 97 3d ab d2 95 3d 3a 20 2d bd c0 bd ee bd
       0.07413953 0.07315572 -0.04226706 -0.11657286
000140 ce 18 c2 3c 52 23 24 bd 74 35 0c bd 5b 67 a9 3d
       0.023693468 -0.040072747 -0.034230664 0.082716666
000150 b3 fe a1 bc 25 09 10 be 15 4c 33 3e bc d0 25 3d
       -0.01977477 -0.14065988 0.17509492 0.040482268
000160 58 9b 4e 3d b1 12 88 bd 88 86 ae bd a2 8c 2e 3d
       0.050441116 -0.0664419 -0.085217535 0.042614587
000170 24 b0 ad bd 87 28 ad bb bb cc cd bc cd cd c3 3d
       -0.08480862 -0.0052843723 -0.025122037 0.09560738
000180 72 18 5f bb 31 a0 27 3e a2 a2 1c be d3 24 7c 3d
       -0.003404167 0.16369702 -0.15296414 0.061558556
000190 e7 29 fb 3d 9f 8d a9 3d c2 a9 f3 3d fb 17 c8 bd
       0.122638516 0.08278965 0.11897613 -0.09770199
0001a0 db d7 79 3d 9d c0 2a bd 63 15 a6 3c 2a c1 d3 bd
       0.06099687 -0.041687597 0.02027387 -0.103395775
0001b0 3d 81 0d 3d c7 5d 9b 3c bf 1c 53 bd 79 d3 08 be
       0.03454708 0.018965615 -0.051541086 -0.1336192
0001c0 d8 90 48 3d 42 f8 b3 bc 3c 0b a7 3c a1 8e 80 3d
       0.04896626 -0.021968964 0.0203911 0.06277204
0001d0 c9 c5 d9 3c 40 17 59 3e d4 70 c6 3c 1d eb 19 bd
       0.02658357 0.21200275 0.024223723 -0.037577737
0001e0 f0 c9 34 3d bb 1e a7 bd d4 54 93 39 6c ad bb 3d
       0.044137895 -0.08160158 0.00028101227 0.09163937
0001f0 73 45 d4 bd 5d 5c f1 bd 98 2d 03 bd 9f 36 64 3d
       -0.10364809 -0.11785195 -0.032025903 0.055716153
000200 37 3e 28 3d 15 c9 3c bd 68 04 e7 3d 00 5b f0 3d
       0.041074958 -0.046090204 0.11280137 0.11736107
000210 84 16 1f bd 3d 83 a3 3c 45 47 34 bc f3 07 56 3d
       -0.038839832 0.01996004 -0.01100332 0.052253675
000220 d0 1f 15 3d 95 61 19 be 20 b8 99 be 86 f1 02 3e
       0.036407292 -0.14978631 -0.3002329 0.12787446
000230 83 89 a5 bc 1f 36 85 bd 99 d5 ff 3d a0 05 9c 3a
       -0.020207172 -0.065044634 0.124919124 0.0011903532
000240 e9 6a 6f 3e 1b 89 2b bd 12 90 2d 3d 93 73 87 3c
       0.23380627 -0.0418788 0.042373724 0.016534602
000250 87 57 64 bd 59 78 2d be ab 96 fa 3d 25 ce 59 3c
       -0.055747535 -0.1694044 0.12235769 0.013293778
000260 9f d3 e9 3d 03 b9 80 3d c5 e2 89 3d 50 7d 7d 3d
       0.11417317 0.06285288 0.06732706 0.061887085
000270 5c ea 5f bd 5e d4 0a ba 43 aa 24 bc 40 bd 13 3d
       -0.054666862 -0.00052959274 -0.010050359 0.036069155
000280 a2 a4 b0 3d 4b 21 1d be 78 8f a0 3d 50 1f 2f 3e
       0.08625151 -0.15344732 0.078398645 0.17101789
000290 a4 ec 0d bb e2 d9 80 3e 22 8f da bd 52 89 77 bd
       -0.0021655941 0.2516623 -0.10671832 -0.060433693
0002a0 a3 27 8d bc 4d cc 9e bd 8c fd b0 bd 69 4b 97 3d
       -0.017230814 -0.07753811 -0.0864211 0.0738743
0002b0 23 15 65 bc 27 ab fb 3d 21 6a 97 bd f8 1c 15 bd
       -0.01398209 0.12288504 -0.07393289 -0.03640458
0002c0 24 34 0e be cc 7e 33 bd 1b 8f 93 bc 5f b2 90 bc
       -0.13887078 -0.043822095 -0.018012574 -0.017663179
0002d0 8e 01 2a be fd e9 b6 3d c4 29 bb bd 1e 61 03 be
       -0.16602156 0.089313485 -0.091388255 -0.12830016
0002e0 f2 33 c8 3c f9 80 e7 3c 34 6a 22 be 81 21 ad bd
       0.024438832 0.028259741 -0.15860826 -0.08453656
0002f0 8a b1 eb 3c 0b 93 99 be 13 14 cd bd ba af 85 bd
       0.02877118 -0.29994997 -0.100135945 -0.06527658
000300 d2 78 95 3d b0 b9 ce 3b 3e 66 16 bc 65 48 a2 bd
       0.07298435 0.006308757 -0.00917965 -0.079239644
000310 64 7d ec 3d d2 df 92 3d 7d fe 28 be 34 32 3c be
       0.11547354 0.071715966 -0.1650333 -0.18378526
000320 36 57 98 3d 2b 5d c0 bc 69 ed 8b 3d 07 93 22 3d
       0.07438509 -0.023481926 0.06832392 0.039690997
000330 05 75 e2 bd b1 c5 a2 bc 14 64 c3 bd 90 05 4b bd
       -0.11057476 -0.019869657 -0.09540573 -0.04956585
000340 c8 0e 32 3d 88 ae 12 be fc 22 9f 3d 53 a7 45 bd
       0.043471128 -0.14324391 0.077703446 -0.048255276
000350 d1 d5 03 3e cd 8c 50 3d 49 08 39 3d 78 95 0e 3d
       0.12874533 0.050915528 0.045173917 0.034810513
000360 31 5a fe bd 10 9b d4 bd 84 d4 ad 3c 49 50 7a bd
       -0.124195464 -0.10381138 0.0212195 -0.061111722
000370 99 df 10 be 63 45 14 bc fc 91 ba bd ba 1b e3 3b
       -0.14147796 -0.009049746 -0.091098756 0.0069307955
000380 2c fc 4e bd 85 57 98 3d db 12 83 bb 68 78 12 bc
       -0.05053346 0.07438568 -0.0040000505 -0.00893984
000390 e6 fe fe 3c 88 e6 12 3d f4 c8 a2 3c 83 9e 6a bd
       0.031127404 0.035864383 0.019871213 -0.057280075
0003a0 91 84 84 bd d1 8c b4 bd b8 84 93 bc f9 e9 cd bc
       -0.064705975 -0.08815921 -0.018007621 -0.02513598
0003b0 ff 21 86 bd 49 d0 28 bd ec d1 a3 3c 96 4a e3 bd
       -0.06549453 -0.04121426 0.01999756 -0.110982105
0003c0 12 55 60 bb 81 93 bd 3c 64 49 5b bd 78 94 00 3d
       -0.0034230393 0.023141624 -0.053536788 0.03139159
0003d0 b2 41 24 be 89 2e 59 3d 23 72 07 3d 09 58 65 bd
       -0.16040686 0.053022895 0.033067834 -0.05599216
0003e0 84 8e 86 bd 44 bb dd 3d 03 81 c8 3c e3 1c a0 3c
       -0.065701514 0.10826734 0.02447558 0.019545024
0003f0 c4 02 30 3e 16 3d 0e be 0c da 11 3d 50 a6 40 3d
       0.17188555 -0.1389049 0.035608336 0.047033608

sequential_39/dense_112/MatMul f4 [36, 58]
000000 13 00 c5 3d 95 d3 04 be 55 81 88 be 26 00 61 3d
       0.09619155 -0.12971337 -0.26661173 0.054931782
000010 b6 57 a7 be ba ed 4f 3e 99 07 82 3e 73 64 2c be
       -0.32684106 0.20305529 0.25396422 -0.16835193
000020 7f 88 31 3e c2 aa 12 3d b3 6e 9d 3d 4b 18 91 3d
       0.17337225 0.03580738 0.0768713 0.07084712
000030 ee 4b da 3d 6a db 80 be ef d4 4f 3e 4c 04 a6 bd
       0.10659014 -0.251674 0.20296071 -0.08106288
000040 93 94 b3 be ab 68 76 be d8 07 4c 3c d7 36 0b 3e
       -0.3507429 -0.24063365 0.012453042 0.13595138
000050 e0 eb 1e be be 93 28 3e 1f c0 75 be f8 1a 94 be
       -0.15519667 0.16462609 -0.2399907 -0.28926826
000060 08 0f af bc 1b 01 24 bd af 02 ef bd ea 88 e7 bd
       -0.021369472 -0.040040117 -0.11670434 -0.11305411
000070 38 54 23 bc cc 6d 3e 3e f6 6c 1f be 8e b0 8a 3d
       -0.00996881 0.18596572 -0.15568909 0.067719564
000080 f3 21 3b be 7d 80 0b be 51 01 7c be 5e 4d 95 be
       -0.1827467 -0.13623233 -0.24609877 -0.2916059
000090 19 c2 58 be c3 4c 8d bd 41 08 47 be f1 18 b6 be
       -0.21167792 -0.06899407 -0.19436742 -0.35565904
0000a0 b5 dc 19 3e ea be a2 bd 0f 84 32 be 3a 67 ee 3c
       0.150256 -0.0794657 -0.17433189 0.029101957
0000b0 0d fb 28 be 59 4c a0 be 7f da 46 be 33 0e 16 be
       -0.16502018 -0.3130825 -0.19419287 -0.14653854
0000c0 65 74 aa be 42 f3 ee bd 26 55 0e 3d 33 2c 4a 3e
       -0.33291927 -0.116674915 0.034749173 0.19743423
0000d0 e8 67 d4 3c d9 94 5b 3e 55 ed 5b be 8e 0c 30 be
       0.025928453 0.214435 -0.21477254 -0.17192289
0000e0 c1 a3 c4 3d 65 b0 58 3d 8b 58 76 3d c5 e6 49 be
       0.09601546 0.052902598 0.060143035 -0.19716938
0000f0 2a 0f 12 be 7f 42 5d 3e 65 86 93 3c 37 98 aa 3d
       -0.14263597 0.21607397 0.01800842 0.08329814
000100 ab 36 09 bd 59 fd c3 bd e9 70 99 be 59 d3 4d ba
       -0.0334994 -0.095698066 -0.29968956 -0.00078516226
000110 6b e5 96 bd e9 f0 20 be e8 59 44 3b 45 ad 87 be
       -0.07367977 -0.157169 0.0029960815 -0.26499382
000120 64 93 2e 3e 43 45 44 3e b2 75 52 3e 55 95 e2 3c
       0.17048413 0.19167046 0.2055271 0.027659098
000130 c9 88 3c 3e 0c 36 27 bd a1 2b aa be e9 16 d3 be
       0.18411554 -0.040823027 -0.3323641 -0.41228417
000140 6a 91 0b be 27 24 a1 bd b6 78 4e be e8 1b 29 3e
       -0.1362969 -0.07868224 -0.20163235 0.16514552
000150 9c f6 12 bf a1 96 4f be 0f a9 66 be 81 fa d6 be
       -0.57407546 -0.20272304 -0.22525428 -0.41987994
000160 7d 3a 8e bd 17 88 e2 be ba 1c 09 3e ca 3a a9 bd
       -0.069447495 -0.44244453 0.13389865 -0.08263166
000170 99 3e 70 3e d2 7e 71 3d 12 d7 ea 3d 6f 64 e7 bd
       0.23461379 0.058958836 0.11466803 -0.11298453
000180 17 4f 28 bd a7 c4 3c be a4 bf e5 3d f8 9a 7e be
       -0.04109105 -0.18434392 0.11218193 -0.24863803
000190 7e 38 2a 3e bc 65 85 be 61 8f 51 3e 25 35 0d 3e
       0.16623113 -0.2605418 0.20464851 0.13789804
0001a0 f5 d5 28 be af 64 35 be fd e3 0c 3e 19 e1 ec bd
       -0.16487868 -0.17714189 0.13758846 -0.115663715
0001b0 7a 29 e5 be 80 c4 fb bd 5a f3 63 be c9 da 4f 3e
       -0.44758207 -0.12293339 -0.222608 0.20298304
0001c0 4c 31 77 3e 0e f2 1a 3e 8b e2 2f 3d f3 3e 1a be
       0.24139899 0.15131399 0.042940658 -0.15063076
0001d0 28 18 cf be 39 53 18 be b2 f1 25 3e 8c 23 b4 3d
       -0.40448117 -0.14875497 0.1620548 0.087958425
0001e0 3a f3 5e 3e f4 77 a4 bc e8 76 18 bc e1 b7 5e 3e
       0.21772471 -0.02007673 -0.009305693 0.21749832
0001f0 4b cf f5 bc cf d3 f5 be bc 98 5d 3e 4b 7e 36 be
       -0.030006072 -0.4801316 0.21640295 -0.17821614
000200 21 78 8a 3c c0 8b a8 be 2d fb 2c be e9 d3 77 3d
       0.016902985 -0.3291912 -0.16892691 0.060504828
000210 76 5e ec bd 1e 5c 5b 3d 2b f6 61 3e 93 bf 38 bd
       -0.115414545 0.053554647 0.22066562 -0.045104574
000220 e3 84 11 be b4 ab 3b be 0e 38 16 3e 55 b7 fc 3d
       -0.14210849 -0.18327218 0.1466982 0.12339655
000230 f2 61 77 3e 42 39 14 be 25 ab 63 be 68 c6 f5 3c
       0.24158457 -0.14474967 -0.22233255 0.030001834
000240 d5 e4 3c be c0 6f 1f 3d cf 35 03 be e0 5f cc be
       -0.18446667 0.038924932 -0.12813495 -0.39916897
000250 06 3e 62 be 7d 83 2a be 04 78 25 be d7 2f 40 3e
       -0.22093973 -0.16651721 -0.16159064 0.1876825
000260 d8 42 53 be 59 19 cc bd 44 17 8d 3d d7 a1 53 3d
       -0.20630968 -0.09965772 0.06889203 0.051668014
000270 e9 e6 75 3e b3 78 5a 3e 8d 64 e3 3d 82 51 07 be
       0.24013866 0.21335106 0.11103163 -0.13214687
000280 2f a4 e4 3d 47 4b af bd 10 c7 f6 3d 30 02 ab be
       0.11164128 -0.0855928 0.12049687 -0.33400106
000290 22 6b 54 be a1 b0 f8 3d 5b 06 7c be 13 f2 38 3e
       -0.20743993 0.12143064 -0.246118 0.18061094
0002a0 fe 97 27 3e cb 18 74 be fe b7 0e be d1 24 21 3e
       0.16366574 -0.23837583 -0.13937375 0.157367
0002b0 93 77 b8 be c4 e0 ac be bc 79 90 be bb e9 b0 be
       -0.36028728 -0.33765233 -0.28217876 -0.34553322
0002c0 78 2f 0e 3e 14 f6 dd bd 2f 47 be bd 49 69 d1 be
       0.13885295 -0.10837951 -0.09290921 -0.4090064
0002d0 a5 16 c7 3d 8e 69 5b 3c 92 73 4b bd e9 63 bf be
       0.09721116 0.013391865 -0.049670763 -0.37380913
0002e0 81 db af be 77 48 e0 be a8 fc 5d be 73 53 ff 3d
       -0.34347156 -0.43805286 -0.21678412 0.124670886
0002f0 ba 3f 16 be de 12 2f 3d e4 9e 19 3d 53 59 12 bf
       -0.14672747 0.042742603 0.037505046 -0.5716755
000300 d5 1d d5 bc 7e 6e 4d 3e 69 7c bb bd 64 1b 78 be
       -0.026015202 0.2006168 -0.09154589 -0.24229199
000310 14 6f f2 be a9 30 ad be 1f 02 9a 3e d0 99 04 be
       -0.4735037 -0.33826187 0.30079743 -0.129493
000320 d5 47 0d bf bc 44 30 be 85 f2 7b be cc 06 2e be
       -0.5518773 -0.1721372 -0.24604233 -0.1699478
000330 d9 42 8c be fb b0 03 3e 10 32 97 be f0 77 e2 3d
       -0.2739475 0.12860481 -0.29530382 0.110580325
000340 d8 14 57 3e bf 59 97 3e 54 0b b3 bc ae 0d 8e be
       0.21004045 0.29560658 -0.021855988 -0.27744812
000350 eb 24 81 3e fa 90 fd bd 3e 7f 62 3e f2 00 57 be
       0.2522348 -0.12381168 0.22118852 -0.20996454
000360 2a 8b 0a 3e 10 20 5d be a7 6d 8d be 37 19 ee be
       0.1352965 -0.21594262 -0.2762272 -0.46503612
000370 0f 86 e1 3d 90 93 57 3e 37 a7 1c be 3f 0f 0b bc
       0.11011898 0.21052384 -0.15298162 -0.008487522
000380 9a ce 9d be 78 69 4b 3e a2 81 3e 3e d3 b8 ba be
       -0.30821687 0.19864452 0.18604138 -0.36469135
000390 1b 1c 69 be b2 99 d6 bd c1 c0 a2 3d 3d 8b e3 bc
       -0.22764628 -0.10478534 0.07946921 -0.027776355
0003a0 e7 f3 f4 3d 21 93 e5 bd 22 c3 de be 02 df 97 be
       0.11960583 -0.11209703 -0.4350825 -0.2966233
0003b0 3f ea 62 3e 6e 2b c4 bd 72 91 42 3e e6 34 66 bc
       0.2215967 -0.09578596 0.19000795 -0.014050698
0003c0 80 bc f3 bd ca 8e bc be 02 13 90 3d 76 e3 4a 3e
       -0.11901188 -0.3682769 0.070348755 0.19813332
0003d0 3d 02 6c 3e 2b 57 0b 3e bd 7a f8 bd 03 32 7a 3c
       0.23047729 0.1360747 -0.121327855 0.015270713
0003e0 ef 17 ad 3d 80 45 7b 3e 2f ba f3 be 7b a1 1c bf
       0.084518306 0.24538231 -0.47602984 -0.611839
0003f0 75 e1 59 3c b9 a4 88 bd c0 e4 05 3e 70 0c 17 bd
       0.013298382 -0.06672043 0.13075542 -0.036877096

sequential_39/conv2d_95/Conv2D f4 [29, 3, 3, 1]
000000 b9 a4 7b 3e e1 e1 0c 3c e4 c5 a3 bd bf 57 13 3e
       0.24574555 0.008598776 -0.07996729 0.14388941
000010 35 5e f0 bd 39 d1 8e be 87 c9 b2 3d dc 34 87 bc
       -0.117367186 -0.27894 0.087298445 -0.016504698
000020 9a 9a 82 bd 02 c9 89 3e 0d 6b 40 3e 40 50 5d bb
       -0.06377144 0.2691117 0.18790837 -0.0033769757
000030 f8 a0 b5 bd 76 36 07 3d 1f b2 5f be 1a ff 26 be
       -0.08868593 0.033010922 -0.21845292 -0.16308251
000040 a4 d2 ed bc e6 e5 20 bd 30 b5 8d 3d 73 8f 7a be
       -0.029031105 -0.03928175 0.069193244 -0.24468784
000050 f8 33 2f bd e7 24 8e be 41 83 b5 bd de 8d 8f 3d
       -0.04277417 -0.2776253 -0.08862925 0.07009481
000060 de ef 4a be f0 aa 8f 3d 33 cc 5d 3e 99 a3 64 be
       -0.19818065 0.070150256 0.21659927 -0.22328033
000070 a7 39 28 be 58 e9 be bd e4 bf 40 3e a4 f9 47 3d
       -0.16428243 -0.093218505 0.188232 0.04882206
000080 88 48 2a 3e 4d 38 68 3e cf a2 5b 3c b8 ec ae bd
       0.16629231 0.22677727 0.013405516 -0.08541244
000090 f1 03 38 be 2d 49 99 bd cc 15 6e be 24 50 1d 3e
       -0.17970254 -0.0748466 -0.23250502 0.15362602
0000a0 36 5a 71 bb 4f 2f 54 3d 5d 39 6f 3d 42 6e 85 3e
       -0.0036827452 0.05180293 0.058404315 0.26060683
0000b0 3f c8 0a 3e bc 13 31 be 9d 7c 94 3d e5 34 f9 3d
       0.1355295 -0.17292684 0.072503306 0.12168292
0000c0 69 08 4d be d0 19 2c 3c 20 20 4a 3e 26 4d 97 3d
       -0.2002274 0.010504201 0.19738817 0.07387762
0000d0 42 07 cd bd c3 e7 f6 3d c7 8d 89 bc d9 6d 49 bd
       -0.1001115 0.12055924 -0.016791238 -0.049177025
0000e0 6d 22 f2 bd 56 e9 e2 bd 7e 85 7f 3c 22 b2 18 3c
       -0.118229724 -0.110796615 0.015595792 0.009319814
0000f0 9a ff ef 3d 39 6e 07 3e d6 8c 34 3d 4f 40 ec 3d
       0.11718674 0.1322564 0.044079624 0.115357034
000100 1c 68 3c 3e 92 7a 91 3d 1e f8 b5 3c 71 da ac bd
       0.1839909 0.071034566 0.022213038 -0.08440102
000110 c9 87 2c 3e b7 d7 ac be 71 97 77 bc 59 7e 9a bd
       0.16848673 -0.33758327 -0.01511179 -0.0754363
000120 e1 58 82 3e 26 be 0a 3d 58 44 85 3e cf d3 89 be
       0.25458434 0.033872746 0.26028705 -0.2691941
000130 ae 54 db bd 2f 84 28 3d 5e 84 31 be 98 b1 2e be
       -0.10709511 0.041141685 -0.1733565 -0.17059934
000140 bd 8f 20 3e 21 52 8e 3e 8f 23 68 3d ae 66 d0 be
       0.15679832 0.27797034 0.056674536 -0.40703338
000150 9e 51 10 3d d2 50 04 bf ff 4f 86 be 3a 02 a3 be
       0.035234086 -0.5168582 -0.26232907 -0.31837636
000160 06 b0 95 bd 08 f2 8a 3e 64 0d 2e be fa 2f 06 3e
       -0.073089644 0.2713778 -0.16997296 0.13104239
000170 0d a8 be 3d 10 52 71 bd e9 3a 2e 3d 12 7f c5 3d
       0.09309397 -0.05891615 0.04253665 0.09643377
000180 4c 5c 46 3c 78 c7 60 3d f5 9f f5 bd 12 50 85 bc
       0.012106966 0.05487773 -0.119934 -0.016273532
000190 dc ca 0b 3e 98 c4 30 3e b8 11 8f be 7a 66 b8 3d
       0.13651603 0.17262495 -0.27943206 0.09003921
0001a0 61 5e 03 3e 21 c5 5f be a1 8d 8c bb e4 0a a9 3d
       0.12828971 -0.21852542 -0.0042893444 0.0825403
0001b0 33 95 6f 3e 3b 75 6c 3e a6 3e 71 be 25 f2 ff 3d
       0.23396759 0.23091595 -0.23559055 0.12497357
0001c0 df 45 a0 3d 65 1a cf bb bf 73 4a be 2e d8 64 bd
       0.07825827 -0.006320285 -0.19770716 -0.055870228
0001d0 6f b5 e3 bd 49 c8 12 3e fa 28 8b 3d eb ee 0e be
       -0.1111859 0.14334215 0.06794925 -0.13958327
0001e0 54 16 03 bf 96 fd 9c be 4b 2f 33 bf dc 7e 17 3d
       -0.51205945 -0.3066222 -0.6999404 0.036986217
0001f0 54 95 c9 3d 90 60 fb 3d aa d4 08 3c d6 4c 2f 3e
       0.09842935 0.12274277 0.008351484 0.17119154
000200 05 9d 32 3d c8 00 93 3e 0f 1f 04 3d a8 f2 f1 bc
       0.043606777 0.28711534 0.032256182 -0.029534653
000210 1c 96 4d 3e 5f a1 75 be f8 b5 c2 be c6 92 d3 be
       0.20076793 -0.2398734 -0.38029456 -0.41322917
000220 3d f0 be be 32 36 ca bd 60 ad 15 bf 80 4d cb bd
       -0.37292662 -0.09873618 -0.58467674 -0.09926891
000230 c9 f0 92 3d f1 81 ac be 1f 58 6d 3d bb d6 39 3e
       0.071748324 -0.33692887 0.057945367 0.1814832
000240 4b 6a b5 3d fe 18 f7 3b 44 9a 95 be a7 fe 68 3c
       0.088581644 0.007540821 -0.29219258 0.01422087
000250 86 5b 09 be 12 ea 49 be 4e b2 82 3e 75 c5 f1 3d
       -0.1341382 -0.19718197 0.2552666 0.1180524
000260 60 ad ee 3d 9b bb 62 be a0 34 f7 3d 83 14 90 3e
       0.116541624 -0.22141878 0.12070584 0.2814065
000270 b4 e4 88 3c 04 7d 92 bd 4f 9b 36 3e c8 55 89 be
       0.016710617 -0.07152751 0.17832683 -0.26823258
000280 2e 6d 83 3d ca c6 f9 bc d6 39 0a be 69 cd 29 be
       0.06417309 -0.030490298 -0.13498625 -0.16582264
000290 f4 30 0a be 1e ab b0 bc 3c 7e 41 3b 6f d4 6b 3e
       -0.13495237 -0.02156597 0.0029524704 0.23030256
0002a0 68 ae 40 3d ee a3 4f 3d 3d 1e 2f 3e d4 1f 39 3e
       0.047041327 0.050693445 0.17101379 0.18078548
0002b0 41 50 7a 3e f6 f0 99 3c 65 41 6e bd 4a 52 45 bd
       0.24444677 0.018791657 -0.058167834 -0.04817418
0002c0 42 6a de bc 6a 3b 34 be 90 c7 81 be e9 83 d4 3d
       -0.027150277 -0.1760079 -0.25347567 0.10376722
0002d0 11 49 8a be ea 69 41 bc ef 18 21 3e 98 99 60 bf
       -0.2700887 -0.011805037 0.15732168 -0.87734365
0002e0 5f cf 87 be 91 be e6 3d 66 05 f9 be b5 51 56 bf
       -0.265254 0.112668164 -0.4863693 -0.83718425
0002f0 61 66 f8 be 7e 00 bb bd 35 6c 25 be 7c ab 08 bd
       -0.4851561 -0.09130953 -0.16154559 -0.033366665
000300 d8 c9 9e 3d a8 14 bc bb 8e a4 18 3e ec f2 e0 bd
       0.077533424 -0.005739767 0.14906523 -0.10983834
000310 d4 77 6f 3d c3 40 b8 3d f2 30 56 3d 0f 1a 82 bd
       0.058463886 0.08996727 0.05229277 -0.063526265
000320 dd 1b dc bd 1c 2c 87 3e 37 33 38 3e 06 96 8e bd
       -0.10747502 0.2640084 0.17988287 -0.069622084
000330 15 c6 bb bc ea f7 fa 3d 65 aa 84 be 1f f1 92 bd
       -0.022921601 0.12254317 -0.2591125 -0.071748964
000340 20 b0 03 be d4 be 39 be 7f e2 22 3e 73 6f cf 3d
       -0.12860155 -0.18139201 0.15906714 0.10128679
000350 27 9e 8f 3e 3c 39 25 be 9e 0c fe bd c2 b6 4c 3e
       0.28050348 -0.16135114 -0.1240475 0.19991592
000360 f5 ae 47 be a6 7c 3f be f1 7a c5 3d 5f e2 03 be
       -0.19500335 -0.18699893 0.0964259 -0.12879322
000370 35 b4 3b bd 08 f3 e6 3d 9a a9 b5 3d 2d 00 8e 3d
       -0.045826156 0.11276823 0.088702396 0.06933627
000380 42 fa 23 3e 7b a6 c4 3d f2 c7 d5 bc 11 ff 83 be
       0.16013435 0.09602066 -0.026096318 -0.25780538
000390 9f f6 22 3e 77 68 87 bb dd 5c 54 be fb 7a 85 3e
       0.15914391 -0.004132326 -0.2073855 0.2607039
0003a0 7e 7a aa 3d 5a 8a e2 bd eb 53 fa bd 08 99 09 be
       0.08324145 -0.11061545 -0.12223037 -0.13437283
0003b0 d8 1d a6 bd d1 83 82 3d ab 01 b7 bd d2 dd 8d bd
       -0.08111161 0.06372798 -0.08935865 -0.069270745
0003c0 69 e5 6c 3e d2 c4 1f 3e d2 79 0f 3d 5d c3 d5 3d
       0.23134388 0.15602425 0.035028286 0.10437653
0003d0 6e 49 3d 3d 6c 5c 20 3e 6b 2f a1 bc 4b 7b e8 3d
       0.046212606 0.15660256 -0.019675931 0.11351641
0003e0 b0 21 54 3e cb 54 5b bd 6b d1 4b be 6f 8e de bd
       0.20715976 -0.05354766 -0.19904105 -0.10867011
0003f0 8f 9b 7d be 08 88 6c be 95 bf 4c 3e a4 46 23 3e
       -0.24766372 -0.23098767 0.19994958 0.15944916

sequential_39/conv2d_96/Conv2D f4 [29, 3, 3, 29]
000000 97 8c 29 3c c1 11 0f be 58 c0 d4 3d 6f 3e f4 bd
       0.010348461 -0.13971616 0.10388249 -0.11925971
000010 a5 1a e2 3d 16 5e 0e 3d d3 48 be bc 82 7b f5 3a
       0.11040238 0.034757696 -0.023228085 0.0018728825
000020 df b7 cc bd 5c f6 72 3c a2 9e b0 3d b6 d4 8e 3d
       -0.09996008 0.014829244 0.08624007 0.06974165
000030 09 10 91 3d 99 66 e5 3d 96 3b 54 3b 3f 48 bb bc
       0.070831366 0.112012096 0.0032384149 -0.022861598
000040 55 e2 f4 bc df 92 cb 3c 2d 15 ef 3c 32 60 22 bb
       -0.02989308 0.024850307 0.029184902 -0.0024776575
000050 4a 89 30 be b8 e4 5a 3d 04 c4 63 3d d1 56 dd 3d
       -0.17239872 0.05344078 0.055606857 0.108075745
000060 ef 3a 85 bd cb a5 a1 bd be 1e d4 bd db 76 1e 3d
       -0.06505381 -0.078929506 -0.10357426 0.03868757
000070 54 e0 cb 3b db 72 c9 3d ef f2 36 bd 45 25 11 3e
       0.0062218104 0.0983636 -0.044665273 0.14174373
000080 6a 6d 89 3c ac d4 f3 3d 6a 22 a3 3d ab 32 04 3e
       0.016775806 0.11905798 0.07965548 0.12909953
000090 6f 87 ae bd 64 3f 28 be ee 0d 5a be 18 62 86 3d
       -0.08521926 -0.16430432 -0.21294376 0.06561679
0000a0 b8 ac f4 bd 51 79 2f 3d 6a dd 17 3a 83 d9 ba bd
       -0.11947006 0.042840306 0.0005793186 -0.09123518
0000b0 7e 5b 3f 3c 2f 0f ea bc bf 9c b2 3c e4 7d 16 3e
       0.011679528 -0.028571693 0.021803258 0.14696461
0000c0 68 a0 5c be fe b2 b8 bd 1c 93 89 3d 46 57 06 bd
       -0.21545565 -0.09018515 0.06717512 -0.032798074
0000d0 1d 52 c8 3d 10 49 d3 3d 99 68 f9 3d 9e 18 c6 3d
       0.09781287 0.1031667 0.121781535 0.09672664
0000e0 53 31 b0 bd a8 14 03 3e e7 75 ac 3d bf 97 12 be
       -0.08603158 0.12800848 0.084209256 -0.14315699
0000f0 26 c8 36 bd 2f 34 1a 3e d8 00 15 3e 36 58 7d 3d
       -0.04462447 0.15058969 0.14551103 0.061851703
000100 70 b8 02 3e ed 42 ad be e9 c3 ba be 5d 39 52 be
       0.1276567 -0.33840123 -0.36477593 -0.20529695
000110 8e b7 33 bd 8a e0 04 be 33 66 d3 bd 7f 10 b7 3d
       -0.043876223 -0.1297628 -0.10322227 0.08938693
000120 86 3e b1 3b c2 74 86 bd e0 4d 96 3d 44 76 00 bd
       0.0054090647 -0.065652385 0.07339072 -0.031362787
000130 5d 54 b0 3d 6f dd 17 be 71 03 ca bc b9 ed 20 bc
       0.08609841 -0.14830564 -0.024659844 -0.0098223025
000140 77 fd ca 3d d5 b3 17 3e 2e 95 94 3d 2a f0 f0 3d
       0.09911626 0.14814694 0.07255016 0.11764558
000150 2e 18 23 3e 6f 91 cf bd 85 5e 07 3d fa 9a e6 bd
       0.15927193 -0.10135161 0.033049125 -0.11260028
000160 91 25 49 3e b3 6f c1 bd e0 39 ed bd a7 a7 64 be
       0.19643237 -0.09445133 -0.115833044 -0.2232958
000170 9b 90 c5 3c 5b 60 0f be 33 f8 d2 3d 77 4d 21 3e
       0.024116805 -0.140016 0.103012465 0.15752207
000180 c0 f0 59 be c3 9a 32 bd cb 51 31 3d 86 ed 90 3d
       -0.21283245 -0.043604624 0.043290894 0.07076554
000190 e9 06 fb bd 75 22 18 3d 15 43 f2 bd 3d c5 38 be
       -0.122571774 0.037142236 -0.11829201 -0.1804399
0001a0 46 0b e8 3d cd 94 06 be 20 d3 09 3e 40 f3 4d bd
       0.11330275 -0.131427 0.13459444 -0.05028081
0001b0 7b ef 10 bd 45 38 94 bd e5 8a 0b 3e 51 dc 9e bd
       -0.035384636 -0.07237295 0.13627203 -0.07756866
0001c0 54 00 88 be dd d9 91 be e9 de 6d bc 62 cd 75 3e
       -0.2656275 -0.2848653 -0.014518478 0.24004129
0001d0 59 b7 f3 3b 10 cb 13 3e e0 07 9e bc cb 4f 8a bd
       0.007437628 0.14432931 -0.019290864 -0.067535006
0001e0 2d 63 bc bd 78 4c 93 3d 1d b0 95 bd 5e 9c 4c 3e
       -0.09198604 0.0719232 -0.073089816 0.19981524
0001f0 a7 b1 7b 3b 23 27 46 bd e2 a3 13 bd 10 e6 e6 3c
       0.003840545 -0.048377167 -0.036044963 0.028185874
000200 37 f4 1a 3d 45 ad fb bd 4b 72 a0 3b 34 ab 25 3d
       0.037830558 -0.12288908 0.0048964373 0.040446475
000210 81 3e ce bd 80 47 43 3d 9c cb 11 3d 4c d3 e6 3d
       -0.100705154 0.04767561 0.035594568 0.112707704
000220 d3 fc 1a bd 19 1d 84 3d c9 38 a0 3d 76 d3 48 3e
       -0.03783877 0.064508624 0.07823331 0.19611916
000230 f4 72 4a be 9d 93 a1 be a5 4b dd bd 9c ed 98 3d
       -0.19770414 -0.31557932 -0.10805444 0.074671954
000240 41 21 27 3e ec db 14 bb a5 84 80 bc 30 4b 22 be
       0.16321279 -0.0022714091 -0.01568825 -0.15848994
000250 f5 80 d5 bd d8 36 c2 3c a4 2a 88 3d ee 4d 5f 3d
       -0.10424987 0.023707792 0.06648758 0.05451768
000260 8e d3 e3 3c 99 1b b1 bd 30 47 8c be 3c 04 a6 3d
       0.027810838 -0.08647842 -0.27398062 0.081062764
000270 34 09 e5 3d 5c bc 71 3d 7f d7 dc bd 24 aa 4c 3c
       0.11183396 0.059017524 -0.1078329 0.012491737
000280 60 d0 c8 bd 5c 9e ce bd ca 8f ff 3d ce 17 43 bc
       -0.098053694 -0.100887984 0.124785975 -0.011907531
000290 95 18 a0 3d d6 18 f6 bd cc 06 53 3c 24 b1 df bb
       0.07817189 -0.12016456 0.0128800385 -0.0068265367
0002a0 77 f4 fa 3d dc aa 2c be 8b 4d c5 bd 4d 58 59 be
       0.12253659 -0.16862053 -0.09633931 -0.2122509
0002b0 bc e9 c8 3d d2 e0 58 3e 14 42 66 be 2c d9 25 3e
       0.09810206 0.21179512 -0.22486144 0.16196126
0002c0 0a cb 7d be 4c 92 a5 bd 25 99 84 be 8a 71 4b 3d
       -0.24784485 -0.080845445 -0.2589809 0.049668826
0002d0 36 32 08 bd 0a 1e a2 3d b3 f1 57 3e f0 d3 4b 3d
       -0.03325101 0.07915886 0.21088295 0.049762666
0002e0 89 fa 3a 3d f0 76 10 3e fe 58 6e 3d 88 4b 60 3c
       0.045649085 0.14107871 0.05819034 0.013689883
0002f0 98 f7 12 be 65 1b 88 be 23 6c 70 bd f4 21 be 3d
       -0.14352262 -0.265834 -0.058696877 0.0928382
000300 87 9a e9 be 35 1a 24 3d 1d f6 b4 3e 16 22 50 be
       -0.45625708 0.040064055 0.3534402 -0.20325503
000310 66 bf 42 be 6f 35 a3 be 69 6a a0 be ff 7f cb be
       -0.19018325 -0.31876704 -0.31331185 -0.3974609
000320 6b 0c 3a be a4 87 9d bc 07 7f 1a 3e 22 b4 82 be
       -0.181688 -0.019229718 0.1508752 -0.25528055
000330 af ef 23 3e 61 3e 05 be 59 05 a3 be 5a 2e 67 be
       0.16009401 -0.13012077 -0.31840017 -0.22576275
000340 42 1d a4 3d f8 ee 48 be b6 14 3b 3e fb bb 6c 3e
       0.08013393 -0.1962241 0.1826962 0.23118584
000350 fc db 71 bc 31 79 92 3d 56 7f 22 3e eb 2c 83 3d
       -0.014761921 0.07152022 0.15868887 0.06405052
000360 1f 30 2d bd 43 a8 62 be 0c 5e 6e be 52 d7 70 be
       -0.04228222 -0.22134499 -0.23278064 -0.23519638
000370 35 cc 90 bc b0 e0 ab be b0 92 46 3d 18 be 18 3e
       -0.017675499 -0.3356986 0.048479736 0.14916265
000380 ae 46 31 be f2 3a 0c be 61 23 27 bc 8c e1 9a be
       -0.17312118 -0.13694361 -0.010201306 -0.30250204
000390 02 8e 75 be 3e 03 9e be ae 3a bf bc 04 f0 af 3c
       -0.23979953 -0.3086185 -0.02334341 0.021476753
0003a0 61 49 17 3d fe 20 3a 3e 0e 2f 8f be 13 25 8e be
       0.036935214 0.18176648 -0.27965587 -0.2776266
0003b0 31 c9 76 be 5e 1f 78 bd 78 48 93 bd 60 df 43 3e
       -0.24100186 -0.06057679 -0.07191557 0.1912818
0003c0 7f ea 82 3e 1a 3c e7 bd b9 0b 82 bd 02 dc 73 3d
       0.2556953 -0.1129076 -0.06349892 0.059535988
0003d0 7a 81 b5 3d d5 77 2f bd 67 e6 06 be de 22 82 be
       0.08862586 -0.04283889 -0.13173829 -0.25417227
0003e0 9e 0c 51 be 31 ff 96 3d 06 90 73 be 87 0c 12 3e
       -0.2041497 0.07372893 -0.2378541 0.14262591
0003f0 c4 b3 3a 3d 54 e9 b7 bd 7a 1a 9b bd bb b3 b5 bd
       0.045581594 -0.08980051 -0.075734094 -0.088721715

sequential_39/conv2d_97/Conv2D f4 [58, 3, 3, 29]
000000 98 69 ca 3d fd de fe 3c 99 fa be 3d 07 8e b4 bc
       0.09883422 0.031112188 0.093251415 -0.02204038
000010 0b bb 77 bd f8 38 e6 bc 62 50 a1 bd 10 0b 49 3c
       -0.060481112 -0.028103337 -0.0787666 0.012270704
000020 6b f8 8a be 98 09 ad bd 8c 91 6b 3d 5e f2 5a bd
       -0.27142653 -0.084490955 0.05751185 -0.053453796
000030 04 2e f9 ba 9a da a1 be d8 de 1c 3d 3c 72 1a 3e
       -0.0019010906 -0.31612092 0.038298458 0.1508264
000040 8c b3 3f bc 9e c1 a6 bd ce f1 fd bc 48 09 ab bd
       -0.011700522 -0.08142398 -0.03099909 -0.0835138
000050 e2 4d 8d bd 9c 32 d8 3c 07 c0 35 be 7e b5 0e be
       -0.068996206 0.02639132 -0.17749034 -0.13936421
000060 be 5e b9 3d 60 08 5f 3d 88 84 12 be b0 06 6f bc
       0.09051274 0.054451346 -0.14308369 -0.014588997
000070 7e d3 ef bd 78 01 a6 3d 42 dc 12 3d c5 bb 68 bd
       -0.11710261 0.08105749 0.035854585 -0.056819696
000080 0d af 25 bc b8 63 b5 b9 48 17 f4 bd 6f bc 08 3e
       -0.010112536 -0.00034597307 -0.11918503 0.13353132
000090 be 76 e4 3d 3f 66 95 3d 04 50 14 bd e1 5c 10 3e
       0.11155461 0.072948925 -0.03620912 0.1409793
0000a0 18 fe cb 3d 5c 60 99 bc 8b ee e2 bc 9a b4 f4 bc
       0.09960574 -0.018722706 -0.027701637 -0.029871274
0000b0 6c 94 31 be 51 ae bd bd 86 c2 13 bd 1f 5b ee bd
       -0.17341775 -0.09261764 -0.036074184 -0.11638474
0000c0 86 b5 02 be 43 70 99 bd 11 4a 99 be 77 21 87 be
       -0.12764558 -0.07492115 -0.2993932 -0.2639272
0000d0 04 63 18 be 87 7f c9 3d 67 8c 81 bd 49 8f 84 bd
       -0.14881521 0.09838777 -0.06325608 -0.06472642
0000e0 b8 fb 6e 3c a5 2c 86 be 49 e9 c6 3d a5 ac be 3d
       0.014586382 -0.26205936 0.09712464 0.09310273
0000f0 ad 74 91 bc 94 8e 33 bd 4e f3 90 3b e3 6e fe bd
       -0.01775583 -0.043837145 0.0044235354 -0.12423494
000100 53 45 3b bd 98 39 c2 bc 68 fb a5 bd c4 57 34 be
       -0.04572041 -0.023709103 -0.081045926 -0.17611605
000110 6e 88 1a ba a8 5e 56 3a d9 38 5f bd c2 20 71 3d
       -0.00058949634 0.0008177557 -0.054497574 0.05886913
000120 7f 88 91 3d f1 f4 71 bd 93 d8 93 bd af 89 41 3d
       0.07106113 -0.059071485 -0.07219043 0.047250446
000130 c3 11 cf 3d 0e 56 2b 3b ff 73 77 3d c7 97 b6 bd
       0.1011081 0.0026143822 0.060413357 -0.08915668
000140 b9 76 e2 3c ed 5c 08 3d 88 d5 18 bd 2f 58 e2 bd
       0.027644502 0.033291746 -0.037313014 -0.11051976
000150 96 ed af 3d be 53 74 3d f7 d4 9b 3c fe a6 eb ba
       0.08590238 0.059650175 0.019022448 -0.0017978845
000160 d7 db 3b bd c0 a9 bd bd 21 88 d5 3d 37 5e 03 be
       -0.045863952 -0.09260893 0.10426355 -0.12828909
000170 70 54 02 be 9b 05 1f be bc 28 f7 3c be ba 00 be
       -0.12727523 -0.15529482 0.03017079 -0.12571236
000180 f3 b8 41 3d c0 4e a5 3c ec 4a 0d be 6f 38 ca 3d
       0.047295522 0.020179152 -0.13798112 0.09874045
000190 87 7a ea bd ff 1c a7 3c 4e dc de 3d a4 83 49 bd
       -0.114491515 0.020399569 0.108818635 -0.049197808
0001a0 77 2d 83 bd d5 a0 63 3c 28 2a 45 be e2 42 3d bd
       -0.06405156 0.013893326 -0.19254363 -0.046206363
0001b0 75 0c 76 bc a3 24 6f be da d6 54 be 06 71 bb 3d
       -0.015017618 -0.2335382 -0.20785084 0.09152417
0001c0 cc c3 bb 3d 51 fa 55 bd 8b 47 48 3d d6 a7 1a be
       0.09168205 -0.052240673 0.048896354 -0.15103087
0001d0 d0 1f 46 bc c7 a2 f6 3d b0 fa c5 bb 41 4d c0 bd
       -0.012092546 0.12042766 -0.006041847 -0.09389735
0001e0 3f 0a da bd 95 4f a9 bd b6 6c 6c bc 2e 96 fb bb
       -0.106464855 -0.08267132 -0.014430216 -0.007677815
0001f0 c9 a6 ab 3c 9a 4d 46 be 77 35 32 be f0 ae cd 3a
       0.020953553 -0.1936554 -0.17403208 0.0015692394
000200 32 df f2 3d ec 8c 65 3d 98 d9 19 3d 24 71 5f 3d
       0.118589774 0.056042597 0.03756103 0.05455126
000210 00 03 88 bd 88 d2 2e 3e f9 9b f6 bd eb b2 67 3d
       -0.06641197 0.17072499 -0.12041468 0.056567114
000220 1d ca 0f 3e 96 10 b7 bd e8 a2 62 3d 46 48 b5 bd
       0.14041944 -0.089387104 0.05533114 -0.08851676
000230 d4 b2 a6 3c 34 91 6d bd ba 2d 13 3d 4c dd c7 3d
       0.020348944 -0.057999805 0.03593228 0.09759006
000240 0a 1c c1 bd b1 a7 1e bd 31 40 4a 3e 92 eb f2 3d
       -0.09429176 -0.03873414 0.1975105 0.11861338
000250 a8 6f d6 3c 9c 4a e5 3d b5 3d 32 3d 9a b2 a1 3d
       0.026176289 0.11195871 0.04351588 0.07895394
000260 c1 46 9a 3d 28 be 69 be 8a 72 b6 3d b1 34 09 3e
       0.075330265 -0.22826445 0.08908565 0.13399006
000270 00 74 03 3e 48 58 14 3c 51 63 c6 3d 59 9d c8 ba
       0.12837219 0.009054251 0.09686912 -0.0015305682
000280 d3 34 fc 3d e7 46 c5 bd ec 23 6d bd a7 2a 77 3d
       0.12314763 -0.09632664 -0.057895586 0.06034341
000290 3a 98 09 3e be 0c 82 3d d6 51 f9 3d 38 e9 5e bc
       0.13436976 0.06350087 0.12173812 -0.013605408
0002a0 bb 32 f5 bc ac 50 2f 3e 82 39 10 3d 80 ba 13 3e
       -0.029931417 0.17120618 0.035211094 0.14426613
0002b0 42 ee 45 3d 70 02 f6 3c 56 e4 84 be 21 32 29 3e
       0.048322923 0.03003046 -0.25955456 0.16523029
0002c0 99 81 ce 3d 83 24 18 be 9d 23 3a be 1d 74 c7 bc
       0.100833125 -0.14857678 -0.18177648 -0.02434736
0002d0 f7 90 0f be 1b 5f 47 be 5d 0d 4a 3d a5 04 6c 3e
       -0.14020143 -0.19469874 0.04932915 0.23048647
0002e0 f2 c8 22 3d 49 38 b0 be 2c 28 ac bd 88 88 01 3d
       0.039742418 -0.34417942 -0.084061 0.031624347
0002f0 3d 45 de bd 46 fe b8 3d 26 a1 05 3e 27 09 9e bd
       -0.1085305 0.09032874 0.13049755 -0.077165894
000300 4e e5 77 3c c3 db 0b 3d c2 67 08 be 3b 19 55 bd
       0.015130354 0.034145128 -0.1332083 -0.052026015
000310 23 05 ad bd 70 3d dd bb 59 25 09 3e a0 e5 ea bd
       -0.084482454 -0.0067517087 0.13393153 -0.11469579
000320 7d 28 a2 bc d2 a0 84 bd f4 5c b5 bd 84 0d eb 3c
       -0.019794697 -0.064759865 -0.0885562 0.028692968
000330 07 9f 47 bc 57 89 a4 3d 4a 45 05 be 7c 38 ca bd
       -0.012183911 0.08034008 -0.13014713 -0.09874055
000340 06 6c ab bc 59 fc d6 bd 9c ff 09 be 2e 74 02 bc
       -0.020925533 -0.1049735 -0.13476413 -0.00796227
000350 a7 cd a0 bd bb 93 65 3d fa d2 02 be 92 37 af bd
       -0.07851725 0.05604909 -0.12775794 -0.08555521
000360 5a 9b 34 bd 37 1b ab bd c8 dc c5 bc 04 5f 15 3d
       -0.044093467 -0.083548 -0.024153128 0.036467567
000370 60 74 99 3d b4 f7 b5 3d 27 d7 c8 3d 04 db d2 3c
       0.074929 0.08885136 0.09806662 0.0257392
000380 30 d2 2e 3d 56 f4 79 3d 1c b5 51 3d 07 24 37 bd
       0.04268092 0.061024033 0.05119811 -0.044712093
000390 26 c4 85 3c 54 20 1c bc 90 28 59 bd b8 4e 74 3d
       0.016328882 -0.009529192 -0.0530172 0.059645385
0003a0 92 fe 1e 3e 7d c2 9c bd 04 70 84 bd c5 1f 9f bd
       0.15526798 -0.07654283 -0.06466678 -0.077697314
0003b0 fc 3e 66 be 69 20 a7 bd 3c 1b 8e be b3 6b 0f 3d
       -0.22484964 -0.081604786 -0.27755153 0.03501482
0003c0 4f 3f c6 bd ab 39 a2 3e 1f 28 eb 3c 73 b1 94 3c
       -0.09680044 0.31684622 0.028705655 0.01815102
0003d0 ef dd 33 3e fc ca a1 3d 3f 43 9a bc f4 6a 11 bd
       0.1756513 0.07900044 -0.018830894 -0.03550239
0003e0 5c 4f 96 3d f0 f9 23 3e f9 51 25 3e 60 8d 06 be
       0.07339355 0.16013312 0.16144551 -0.13139868
0003f0 7a 98 22 bd f0 0c fb bc ba 4b eb bd 47 b5 c9 bd
       -0.039696194 -0.030645818 -0.11489053 -0.09849029

sequential_39/conv2d_98/Conv2D f4 [58, 3, 3, 58]
000000 97 18 db 3d 0b 48 0f 3d 8e c2 0b bd 57 d4 ab 3c
       0.106980495 0.034980815 -0.03412109 0.020975275
000010 3c 20 26 bd 6c d1 a5 3c eb 76 a0 bd 80 cb 33 be
       -0.040558085 0.020241462 -0.07835182 -0.17558098
000020 17 88 5f be 1c 04 84 3c 51 9d 05 3d 13 1d 74 bb
       -0.21829258 0.01611524 0.03262073 -0.0037248775
000030 a5 6c 00 bd 45 46 6b bc fc dc 19 3d a2 f1 a9 bd
       -0.03135361 -0.014360015 0.037564263 -0.08298041
000040 b5 84 37 bc 28 43 fb 3d cc 82 23 bd ed b4 1a 3d
       -0.011201073 0.122686684 -0.03991966 0.0377702
000050 e6 ad 4e bd f3 13 60 3c 3c 93 b6 bd 5a e5 10 be
       -0.05045881 0.013676631 -0.089148015 -0.1414999
000060 bb 94 0c bd 64 34 5f 3e 1a 50 08 bd b0 53 25 be
       -0.034321528 0.21797329 -0.033279516 -0.16145205
000070 f1 6e 80 bd b7 87 8b bd 79 3c ca 3d ba 57 52 bd
       -0.062711604 -0.06812995 0.098748155 -0.051353194
000080 23 e2 5d bd 8f 03 90 bd d5 5c 23 be 58 e9 32 bd
       -0.05417074 -0.07031929 -0.15953381 -0.043679565
000090 cc bc 00 be 90 55 58 be 12 23 0e bd e6 6b 07 bd
       -0.1257202 -0.2112639 -0.034701414 -0.033061884
0000a0 dc 18 e5 bd 3b 8a 77 bc 66 2f c3 bd 20 1f 13 39
       -0.11186382 -0.01510864 -0.09530525 0.00014030607
0000b0 6a bb a1 bd 68 b5 0b bd 02 3d 80 3c de 00 0e be
       -0.078970745 -0.03410855 0.01565409 -0.13867518
0000c0 a3 91 95 bd 71 6b 5e 3d b7 ff cd bd 47 3f 26 bd
       -0.073031686 0.054301683 -0.10058539 -0.04058769
0000d0 ed 9d 23 3d ba e4 82 3c 80 96 94 bd 7f f3 ad bc
       0.03994553 0.015978206 -0.07255268 -0.021234272
0000e0 b9 4e d2 3b 5a 9c 3a bb f0 dc 6a 3d 2b 6d 98 bd
       0.006418076 -0.002847454 0.05733961 -0.07442697
0000f0 77 d7 55 3d c5 64 b2 3c 31 50 52 bc 2f c4 44 bd
       0.052207436 0.021776566 -0.012836502 -0.048038658
000100 01 c7 b6 3d 73 a9 c6 bd 3d 6f b2 bc 48 62 a1 bd
       0.08924676 -0.097002886 -0.021781558 -0.07880074
000110 f2 4f d4 3d cf 26 51 be d9 15 ea 3d cc 65 3c be
       0.10366811 -0.2042496 0.11429948 -0.18398207
000120 b8 36 ee 3c e0 2b 67 bd 84 41 0d 3d 63 d5 8b 3d
       0.029078826 -0.056438327 0.03448631 0.0682781
000130 f9 9c b9 bd 12 05 b4 3d c4 dc 2c be 6d e0 b7 bd
       -0.09063143 0.087900296 -0.1688109 -0.08978353
000140 63 6e 27 3d bf 4e e6 3d 22 ef 14 3d 54 6d 71 3e
       0.040876757 0.112454884 0.036360867 0.23576862
000150 d7 b5 fc bd 27 d2 c8 bd ff 20 1b bd c6 a0 3b be
       -0.12339371 -0.098057084 -0.037873264 -0.18323049
000160 8c 4d 4d bc fc 08 2e bd cb d2 f5 bd 5c 9d dc bd
       -0.012530696 -0.042489037 -0.12003096 -0.107722014
000170 f0 83 83 bc 7a 50 af bd ba 2b c5 bd 16 93 0e be
       -0.016054124 -0.085602716 -0.09627481 -0.13923296
000180 cb 96 32 bd c5 8e 10 be 52 84 d5 bb 4a 58 9c bd
       -0.04360084 -0.14116962 -0.006516018 -0.07634027
000190 cc 62 88 bd 5f 44 a2 bd 56 64 6b be fe 4c 34 bd
       -0.06659469 -0.07923197 -0.22987494 -0.044018738
0001a0 bc fd 92 bc 34 18 f3 bd 44 82 80 3d 89 62 bf bd
       -0.017943256 -0.11869851 0.06274846 -0.09344966
0001b0 fa 70 f1 bd ce 1c 81 3d 6a 96 6b 3c 28 b5 67 3c
       -0.11789127 0.06304322 0.014379123 0.014142312
0001c0 8f 86 3b bd a1 9e d6 bc 46 39 4b 3d ce 62 8a bd
       -0.045782622 -0.026198687 0.049615167 -0.06757127
0001d0 51 d7 e6 bd e9 cb e8 bd e4 3a f7 3c 71 0b 51 bc
       -0.11271537 -0.11367018 0.030179448 -0.0127590755
0001e0 b5 90 87 3c 56 16 86 bc 90 6c 6f b9 ca 65 37 bd
       0.016548494 -0.016368072 -0.00022833259 -0.044774808
0001f0 32 c8 3f 3e 2a 35 21 be b3 26 c6 3d b0 94 44 be
       0.18728712 -0.15742937 0.0967535 -0.19197345
000200 f6 ec 41 bd 69 cd ec bd f9 d2 de 3b 1d 22 f5 bc
       -0.047345124 -0.115626164 0.0068000522 -0.029923493
000210 22 a0 f4 bd bf aa ed 3d 49 3a bd bd a9 c1 ac 3c
       -0.119446054 0.11604833 -0.09239633 0.021088438
000220 68 36 29 bd b1 fe 02 be a5 f9 a8 3d 4c 58 74 3d
       -0.04131165 -0.1279247 0.08250741 0.05965452
000230 02 d8 1c bd 42 07 c7 3c 0b 9e 55 bd 89 3d a1 bb
       -0.03829194 0.024295453 -0.052152675 -0.0049206656
000240 7a 27 ff 3c bb 23 cd bd 2c a1 89 bd 12 56 8c bd
       0.031146754 -0.10016581 -0.06720194 -0.06852354
000250 a4 02 4b be 6c 0e 02 bc 43 60 36 be 50 c3 28 be
       -0.19825226 -0.007938009 -0.17810158 -0.16480756
000260 95 55 b2 bd 5b fd 90 bc 26 d5 a6 3b 1c 80 bb bd
       -0.0870773 -0.017698934 0.0050913272 -0.09155294
000270 a2 cb ab 3d f9 ff 87 bd 95 ea 08 be dd 3a 2f be
       0.08388449 -0.0664062 -0.13370736 -0.17112298
000280 4b 05 30 be 72 1c 38 bd 2b 31 49 be 60 50 08 3c
       -0.17189519 -0.044949003 -0.19647662 0.008319944
000290 d7 ed 1c 3e e0 4c 84 bd e0 9e 11 be 85 d1 07 be
       0.15325104 -0.06459975 -0.14220762 -0.13263519
0002a0 fb 1b 4f 3d d0 f2 20 bb 4c 80 85 bd b8 5b b4 3d
       0.050563794 -0.002455879 -0.06518611 0.088065565
0002b0 fa 7a 2b be 44 8c d9 bd 88 66 c0 bd 02 e0 8f 3d
       -0.1674613 -0.10622457 -0.09394556 0.07025148
0002c0 2b 0d 96 3d 80 9a 8f bc 23 ea 0c be e8 73 df bc
       0.0732673 -0.017529726 -0.13761191 -0.027276948
0002d0 49 0e 3d 3d 23 2b 94 bd 5a 3a 38 be 19 fe 8d 3d
       0.0461562 -0.0723479 -0.1799101 0.06933231
0002e0 47 8c 7f 3d 60 02 01 be 9f 5a a4 bd cb 00 45 bd
       0.06238964 -0.12598562 -0.08025097 -0.04809646
0002f0 54 8d a6 bc 91 db 27 bd 33 e2 35 3d e5 db a2 bd
       -0.020331062 -0.04098088 0.044405174 -0.07952098
000300 27 58 1f bd 4f 42 ad 3c 2b d8 56 be 04 09 9b bd
       -0.038902428 0.021149782 -0.20980899 -0.07570079
000310 47 b3 95 bd b6 89 9e bd 79 aa 05 be 7a ff 71 bc
       -0.07309585 -0.0774111 -0.13053311 -0.014770383
000320 1f 72 d8 bc ed 7e 1b be 0d 0c a5 bd 64 c1 ea bd
       -0.026421605 -0.15185137 -0.08058939 -0.114626676
000330 80 33 dd 3b d3 a5 21 bd 29 d3 a8 3d 89 87 43 bd
       0.006750524 -0.039464783 0.082434006 -0.04773668
000340 cf 34 51 3d b9 35 9b bd c4 e4 5a bd 62 5f e6 bd
       0.051075753 -0.07578606 -0.053440824 -0.112486616
000350 45 97 0c be 7a 00 9a bd 07 52 db bd f7 fd 9a bd
       -0.1372958 -0.07519622 -0.10709005 -0.07567971
000360 2e 41 c7 bd 59 17 af 3d d6 39 66 be 24 e1 26 be
       -0.09729229 0.08549375 -0.22483 -0.16296822
000370 84 db e6 bd 4a 2a bd bc 34 ca 63 3d 20 22 01 3d
       -0.11272338 -0.023091454 0.055612758 0.031526685
000380 05 2c cc bd 8a af 77 3d 42 cf 0d 3e 1e b5 fb 3d
       -0.099693336 0.06047014 0.13848594 0.12290405
000390 5a 62 db 3d e6 6e 5c bd 17 06 c6 bd b1 7e 6f bc
       0.107121184 -0.0538167 -0.0966913 -0.014617608
0003a0 94 88 a4 bd b0 d3 cf 3d b8 27 9b 3d 24 14 cf bb
       -0.08033863 0.10147798 0.07575935 -0.0063195396
0003b0 ae 50 b7 bd 7d db 6a bd 7c 1f c4 bd c3 f0 c4 bd
       -0.08950935 -0.057338227 -0.09576318 -0.09616234
0003c0 f5 1b 6f 3c 0f 65 45 bc af 89 ef 3d 69 06 2a bd
       0.014594068 -0.01204802 0.11696183 -0.04151002
0003d0 cc 2f 94 bd fb db 90 ba 4b 39 4e bd 54 17 89 3d
       -0.07235679 -0.0011051887 -0.050347608 0.066939026
0003e0 7e b7 32 3d f7 13 09 3e d8 62 42 bd 74 4b eb bc
       0.043632023 0.13386522 -0.047457546 -0.028722502
0003f0 8d 28 08 be d5 19 34 3d 73 11 10 be 00 6f d8 3d
       -0.13296719 0.043969948 -0.14069156 0.105680466
