Auto_TF_to_uC/Converted_model_files/mnist_model.tflite (tflite, 439108 bytes, 6 tensors)

sequential_14/dense_16/MatMul/ReadVariableOp/transpose f4 [128, 784]
0.010829158 0.019377418 -0.08004225 -0.067897856 -0.03381296 -0.0049783736 -0.032564074 -0.06525742
0.0038651675 -0.071671315 -0.021976661 -0.06760658 0.104728244 -0.006505807 0.066865355 0.085626
3.8675964e-05 0.006710179 0.03831642 -0.006514244 0.045840807 0.012248047 -0.065520614 -0.010209307
0.06739155 -0.01294709 0.07964898 0.06888112 -0.060927227 0.06462168 -0.036039725 0.07799355
-0.058657877 -0.019338317 -0.013622183 0.08684932 0.10083281 0.01674888 -0.03328117 -0.0024507474
0.09217807 -0.009110135 0.040349185 0.09597942 0.09256463 -0.00014685151 0.054525945 0.08999555
0.1176313 0.05971914 0.049727622 0.043783475 -0.012762077 -0.03168004 -0.039230738 0.0037507042
-0.07126199 -0.01245632 -0.0066181757 -0.0059597655 -0.05668608 0.017427742 0.0410878 0.06520887
0.10608003 0.25129202 0.16103591 0.17054981 0.109960236 0.019101404 0.08253635 0.041058727
0.17130928 0.056538627 0.13828824 0.14480402 0.12497513 0.027961964 0.0049870443 -0.00189796
-0.027458454 0.06676152 0.04785814 0.0064724684 -0.05731886 -0.040985323 -0.00037407572 0.034401458
0.054871995 0.05591797 0.01116165 0.021644298 0.08262687 0.086053215 -0.0024014867 0.03107928
0.026160914 -0.032870665 0.0550716 0.06568929 0.019574458 -0.10996026 -0.0038789068 -0.086488225
-0.09249656 0.06515374 -0.023560856 0.0033839329 0.08541298 0.073773354 0.06518632 0.030083932
0.048462115 0.047675963 0.005818987 0.06038252 -0.07144708 -0.019136516 0.13986911 0.030075355
0.061780427 0.119254366 0.06425493 -0.024551146 -0.0455626 0.0208628 -0.033157587 0.009069374
0.087362744 0.03304269 -0.03065817 -0.043377675 0.0032297361 0.017049203 0.03597101 0.0101186
-0.12393007 0.013397589 -0.0097245835 0.049199194 -0.0052300617 0.06763669 -0.03044928 0.015086155
-0.08121971 -0.14541346 -0.02716136 -0.034513664 -0.03755594 0.035997093 0.056051135 -0.050350457
0.037639625 0.003870056 0.025844544 -0.020216774 0.0046851076 -0.0103672575 0.010402472 0.06713232
-0.02516813 0.051958386 -0.01045884 0.0217518 0.08317359 0.008683975 -0.0109083885 0.060699135
0.07658664 0.043315664 0.048480097 0.046744905 -0.05225111 -0.01321779 -0.06825089 -0.060020283
-0.027946237 0.060423113 -0.061804987 0.054410562 -0.04081793 -0.029099558 -0.05024669 -0.05624521
-0.029718325 0.037254617 -0.06390218 -0.0029481966 0.010813792 -0.019478926 0.015751557 0.040975343
0.08988168 0.113442965 0.12380714 0.09075235 0.02823434 -0.05863149 0.10323823 -0.087418795
0.016269708 -0.079722285 -0.0833251 -0.043719392 -0.08290911 0.03757153 0.0031576797 0.026468828
0.056195065 -0.06461429 0.0044126823 0.014972232 -0.06382493 0.048461396 -0.058312763 0.00022092207
0.014055661 0.022749966 0.05303624 -0.033624552 0.0027089762 0.017339356 0.13340396 0.0067014312
0.041715346 0.019943064 0.0093346285 0.071536824 0.10443506 -0.16142295 -0.03655171 -0.06254332
0.05587678 0.13518773 0.10310301 -0.015644753 -0.06010605 -0.09084637 -0.0056408932 0.039238386
-0.018399104 0.06606844 -0.04357178 0.030070247 0.07690915 -0.06545607 0.01569838 -0.11419011
-0.09013792 -0.08080208 0.0027668972 0.0012153165 -0.032888666 -0.068722725 0.039320774 0.037089814
00000000: c86c 313c 64bd 9e3c 31ed a3bd 080e 8bbd
00000010: 757f 0abd a021 a3bb e861 05bd afa5 85bd
00000020: c04e 7d3b 69c8 92bd 6608 b4bc 5275 8abd
00000030: c37b d63d aa2e d5bb b4f0 883d af5c af3d
00000040: 0038 2238 10e1 db3b aef1 1c3d 7075 d5bb
00000050: 92c3 3b3d 08ac 483c ac2f 86bd f044 27bc
00000060: 9504 8a3d 0820 54bc 011f a33d 8b11 8d3d
00000070: d48e 79bd 5f58 843d 649e 13bd 15bb 9f3d
00000080: 3e43 70bd 646b 9ebc 942f 5fbc 0ede b13d
00000090: 6f81 ce3d f234 893c d651 08bd b89c 20bb
000000a0: dbc7 bc3d ad42 15bc 3045 253d dc90 c43d
000000b0: 8692 bd3d 27fc 19b9 9956 5f3d 964f b83d
000000c0: aee8 f03d 0f9c 743d 31af 4b3d 4d56 333d
000000d0: 0818 51bc eec2 01bd 69b0 20bd 60ce 753b
000000e0: cef1 91bd 9815 4cbc 48dd d8bb 234a c3bb
000000f0: aa2f 68bd a0c4 8e3c ae4b 283d 3a8c 853d
00000100: 7d40 d93d 59a9 803e 99e6 243e 9ca4 2e3e
00000110: d532 e13d 8c7a 9c3c d108 a93d 322d 283d
00000120: b36b 2f3e 0c95 673d 6f9b 0d3e 8147 143e
00000130: f6f2 ff3d 7d10 e53c 5c6a a33b f8c4 f8ba
00000140: 8df0 e0bc 44ba 883d e606 443d 0017 d43b
00000150: 2ec7 6abd 3ae0 27bd 981f c4b9 8be8 0c3d
00000160: 75c1 603d 3e0a 653d 5adf 363c 624f b13c
00000170: 4738 a93d ab3c b03d 4362 1dbb f999 fe3c
00000180: 6a4f d63c 64a3 06bd c292 613d 1b88 863d
00000190: 9d5a a03c d832 e1bd 4235 7ebb bd20 b1bd
000001a0: d66e bdbd 536f 853d b202 c1bc f9c4 5d3b
000001b0: 00ed ae3d 7c16 973d 6880 853d 9472 f63c
000001c0: 3680 463d df47 433d 33ad be3b a953 773d
000001d0: d952 92bd 2fc4 9cbc d939 0f3e 9760 f63c
000001e0: 790d 7d3d a23b f43d 1798 833d 7c1f c9bc
000001f0: d99f 3abd 76e8 aa3c 40d0 07bd b697 143c
00000200: 3deb b23d c657 073d d826 fbbc caac 31bd
00000210: fba9 533b c5aa 8b3c 5656 133d 7cc8 253c
00000220: 0ccf fdbd 9081 5b3c dc53 1fbc 1885 493d
00000230: f060 abbb 1b85 8a3d c570 f9bc ec2b 773c
00000240: 8556 a6bd 44e7 14be 8081 debc 335e 0dbd
00000250: 42d4 19bd b071 133d e095 653d 483c 4ebd
00000260: 022c 1a3d c4a0 7d3b f0b7 d33c a69d a5bc
00000270: 8885 993b 6edb 29bc 216f 2a3c ab7c 893d
00000280: 652d cebc 51d2 543d 8e5b 2bbc d530 b23c
00000290: ea56 aa3d 3b47 0e3c 19b9 32bc a89f 783d
000002a0: 75d9 9c3d c46b 313d 1193 463d 9677 3f3d
000002b0: 4305 56bd 6e8f 58bc 1fc7 8bbd d4d7 75bd
000002c0: 82ef e4bc 3a7e 773d 3a27 7dbd 9cdd 5e3d
000002d0: b430 27bd 3262 eebc 79cf 4dbd 6161 66bd
000002e0: d873 f3bc 4c98 183d 25df 82bd 8836 41bb
000002f0: 552c 313c 4592 9fbc 6909 813c c3d5 273d
00000300: e313 b83d c954 e83d 998e fd3d 5edc b93d
00000310: b44b e73c 9327 70bd 916e d33d a008 b3bd
00000320: 0d48 853c 7045 a3bd 5aa6 aabd 1b13 33bd
00000330: 40cc a9bd 9be4 193d 13f1 4e3b 28d5 d83c
00000340: cc2c 663d 7f54 84bd 4398 903b 184e 753c
00000350: a5b6 82bd 757f 463d 5dd9 6ebd 51a7 6739
00000360: b749 663c 235e ba3c 873c 593d e6b9 09bd
00000370: 1489 313b 440b 8e3c 0c9b 083e ae97 db3b
00000380: b6dd 2a3d a35f a33c 45f0 183c e681 923d
00000390: 0ce2 d53d 0f4c 25be 3fb7 15bd b616 80bd
000003a0: 0ddf 643d a76e 0a3e ac27 d33d 6d29 80bc
000003b0: c331 76bd a90d babd 3ed7 b8bb 6eb8 203d
000003c0: b8b9 96bc e44e 873d 5378 32bd e155 f63c
000003d0: 8b82 9d3d d50d 86bd e499 803c 81dc e9bd
000003e0: 3b9a b8bd 907b a5bd d554 353b 414b 9f3a
000003f0: 44b6 06bd 80be 8cbd d20e 213d 7deb 173d

sequential_14/dense_16/MatMul_bias f4 [128]
0.06253881 -0.032329813 0.028952064 0.005678759 -0.02572951 -0.018251272 -0.052783217 0.08229572
-0.06374046 0.117215656 0.00416388 -0.035171043 0.060355444 0.05796234 -0.0418784 0.049633976
-0.0074740383 -0.012707694 -0.050409157 0.011465453 0.061785806 -0.05412628 0.012059427 -0.062134854
0.03339353 0.05108185 -0.08661806 0.032539062 0.04875591 -0.009051749 -0.018060109 -0.0324717
0.083259694 0.033623796 -0.084214896 0.02095871 0.13440225 0.05636357 0.12016809 -0.040889993
0.03287746 0.016589724 -0.0040860535 0.037912086 0.05076007 0.09172689 0.121523224 0.024532622
0.032224406 0.060448375 0.005490618 -0.0356542 0.036002673 -0.08686661 -0.030544724 0.017928358
-0.014313138 0.06512146 -0.020562204 0.1388687 0.07509585 -0.056852467 -0.10372403 0.08789243
0.025804183 0.073694065 0.101993054 0.034906674 0.035630856 0.031383343 0.0560844 0.04228818
0.117738016 -0.041659534 -0.034834847 0.047320273 -0.022356756 0.07331953 -0.010760753 0.047486816
0.06108407 0.040682923 -0.048003435 0.03658344 -0.005888603 -0.006735404 0.07072287 0.10585486
0.025900023 0.024580572 -0.007973314 -0.03442702 -0.058192123 0.073470436 0.07137441 -0.0013343741
0.06725597 0.089589186 -0.03012225 -0.03565777 0.03719079 0.035483968 0.06852903 0.040943697
-0.102066 0.045306552 -0.02564088 0.004776572 0.017301178 -0.1086015 -0.056751307 0.05087324
0.034862638 0.023171248 -0.059105244 -0.052720208 -0.0060357316 0.044142537 0.011550347 0.059434336
-0.02383048 -0.055775434 0.058411993 0.01065272 0.027239297 -0.02054319 -0.07527873 -0.02132529
00000000: 5914 803d 446c 04bd e12c ed3c e214 ba3b
00000010: b1c6 d2bc b183 95bc 3733 58bd a98a a83d
00000020: 5c8a 82bd c30e f03d 2871 883b 830f 10bd
00000030: 4537 773d eb69 6d3d af88 2bbd ff4c 4b3d
00000040: c7e8 f4bb ef33 50bc d579 4ebd 98d9 3b3c
00000050: 1d13 7d3d 85b3 5dbd e794 453c 1e81 7ebd
00000060: a7c7 083d 343b 513d cf64 b1bd ae47 053d
00000070: 47b4 473d c94d 14bc cbf2 93bc 0c01 05bd
00000080: 0f84 aa3d 1bb9 093d dc78 acbd 9ab1 ab3c
00000090: bea0 093e 7ddd 663d b01a f63d 447c 27bd
000000a0: 84aa 063d 2ce7 873c 4de4 85bb b449 1b3d
000000b0: cbe9 4f3d 4fdb bb3d 2be1 f83d a3f8 c83c
000000c0: bdfd 033d b798 773d a4ea b33b 230a 12bd
000000d0: 8a77 133d 1fe7 b1bd ee38 fabc 7ede 923c
000000e0: a781 6abc 665e 853d 1172 a8bc 9933 0e3e
000000f0: dacb 993d 22de 68bd 446d d4bd f200 b43d
00000100: 4b63 d33c eaec 963d bce1 d03d 4dfa 0e3d
00000110: a9f1 113d d28b 003d c1b8 653d 5f36 2d3d
00000120: a120 f13d 30a3 2abd fcae 0ebd e7d2 413d
00000130: 8425 b7bc 8d28 963d df4d 30bc 8981 423d
00000140: 4a33 7a3d 23a3 263d 409f 44bd 84d8 153d
00000150: 2ff5 c0bb aab4 dcbb 27d7 903d 6fca d83d
00000160: 492c d43c 325d c93c 81a2 02bc 5903 0dbd
00000170: dd5a 6ebd ab77 963d bf2c 923d 2ae6 aeba
00000180: 7fbd 893d 897a b73d f0c2 f6bc e20d 12bd
00000190: 5f55 183d a357 113d f358 8c3d 94b4 273d
000001a0: fb07 d1bd 5d93 393d d30c d2bc ca84 9c3b
000001b0: 33bb 8d3c 776a debd 0f74 68bd 7560 503d
000001c0: 20cc 0e3d a1d1 bd3c 5718 72bd 25f1 57bd
000001d0: 63c7 c5bb cece 343d ab3d 3d3c 6b71 733d
000001e0: 2438 c3bc c874 64bd 6a41 6f3d bf88 2e3c
000001f0: f224 df3c 314a a8bc bc2b 9abd 60b2 aebc

sequential_14/dense_17/MatMul/ReadVariableOp/transpose f4 [64, 128]
0.25474954 0.1678171 -0.10957838 -0.03873124 0.16530375 0.3104775 -0.035675023 -0.12437255
-0.09978079 -0.14060633 -0.14739263 -0.042620048 0.1419048 0.039772276 0.12131514 -0.014772824
-0.1288457 -0.09065151 -0.012041498 -0.15920708 -0.27877203 0.25620422 0.1121812 0.065769754
-0.3890536 -0.048808485 0.043973397 0.028071264 -0.11068212 0.21722145 -0.14393929 0.07214324
-0.042970993 -0.21612468 -0.021821 -0.012124562 -0.26234958 0.16141006 -0.26282972 0.10524098
-0.08347585 -0.040290568 0.15845722 -0.09763439 0.12492497 0.14475597 0.021339897 0.058679204
0.04153874 -0.14844131 -0.009030533 -0.083902456 -0.16095576 0.083379135 0.18646754 -0.01948275
-0.11193733 0.026189655 0.050646268 -0.18564275 -0.1368016 -0.16687688 0.24266684 0.034722883
0.008535186 -0.07831829 -0.07382238 -0.0968414 0.16505098 0.23862652 -0.0059682615 -0.18475868
-0.13535053 0.33748114 -0.052202605 0.17017521 0.127311 -0.26542953 -0.06997039 -0.021628115
0.058103207 0.19268718 0.044647463 0.12922834 0.2288938 0.043014828 0.28799888 0.054174274
0.0061032022 -0.088080265 0.11558297 0.08827993 0.04937369 -0.18200168 -0.012193543 0.11754086
-0.09209 -0.22274463 0.047903866 0.13749063 0.06753971 -0.19184123 -0.059073366 0.24064553
0.19091724 0.058713563 0.14612675 -0.04030415 -0.01148075 0.2290307 0.03166896 -0.00075747934
-0.14025487 -0.1461794 0.25000188 0.13174832 -0.05698795 -0.040524576 0.24865794 0.110814795
0.23882766 0.23421311 0.17556639 -0.067105286 0.07289319 0.014020586 0.102452874 -0.14020993
0.009919428 0.001422547 -0.094247386 0.08943016 0.071800105 0.0740593 -0.12565145 0.023204584
-0.01377288 -0.1826088 0.051970802 -0.11820926 0.0145397065 0.18785106 -0.14395164 -0.26035804
0.26346928 -0.06654945 0.18435255 0.078073144 -0.18893415 0.041896194 0.21378988 0.09054307
0.0095758 -0.17312495 -0.04285033 0.07309266 0.17811318 0.11928169 0.037467197 -0.08293488
-0.09214563 0.20982662 0.0068409475 -0.20100132 0.27507412 -0.102685235 0.055534832 -0.06815809
0.031133149 0.05877729 0.10585423 -0.075479805 -0.02883807 -0.032320786 -0.014008821 0.0806946
-0.07513402 0.40888348 0.16741037 0.2935416 -0.13249594 0.16595277 0.086351775 0.00066934706
0.22465189 -0.23951714 0.059104893 -0.014773047 0.06933436 -0.039258163 0.10122502 0.13647944
0.10323111 0.17080206 -0.083582126 0.08094305 -0.12282823 0.20710145 0.12681112 -0.09057672
0.1890451 0.02692998 0.025166286 -0.0898566 -0.18584615 0.1250054 -0.1452073 -0.137553
-0.059774105 -0.065030366 0.1816213 0.10013051 -0.17716922 -0.028758852 -0.035203494 -0.1091824
-0.21695538 -0.028938785 -0.32660764 -0.18259834 -0.058070336 0.152691 -0.012752935 0.09864099
-0.08906735 0.10497101 0.14606209 0.44965434 0.21355568 0.21664296 0.29235435 -0.187857
0.09920817 0.036573693 -0.04994462 0.028475918 -0.12118938 0.15332638 0.1570266 0.107527696
0.008849705 0.06058424 0.13904324 0.11456032 0.13582897 -0.16216516 0.06122199 -0.024187326
0.24586937 0.0077195032 -0.016424475 -0.23708747 0.048491083 -0.03259142 -0.08385469 -0.117111
00000000: 886e 823e 3fd8 2b3e a16a e0bd a6a4 1ebd
00000010: 6345 293e e8f6 9e3e f91f 12bd 09b7 febd
00000020: df59 ccbd 1bfb 0fbe 18ee 16be 5c92 2ebd
00000030: 7e4f 113e 41e8 223d 1274 f83d b709 72bc
00000040: 21f0 03be 80a7 b9bd b449 45bc 2e07 23be
00000050: 35bb 8ebe 332d 833e 42bf e53d 4bb2 863d
00000060: 0932 c7be 68eb 47bd 731d 343d b5f5 e53c
00000070: 4fad e2bd 4d6f 5e3e d264 13be d6bf 933d
00000080: 5a02 30bd ca4f 5dbe f4c1 b2bc 19a6 46bc
00000090: af52 86be ae48 253e 9e91 86be 9588 d73d
000000a0: 63f5 aabd b907 25bd 9c42 223e 8af4 c7bd
000000b0: aad8 ff3d e93a 143e 02d1 ae3c 9b59 703d
000000c0: 8724 2a3d 0001 18be cdf4 13bc 0dd5 abbd
000000d0: 96d1 24be aec2 aa3d 59f1 3e3e 4a9a 9fbc
000000e0: 663f e5bd b08b d63c 7672 4f3d 2219 3ebe
000000f0: b815 0cbe c6e1 2abe a87d 783e 9539 0e3d
00000100: 2ad7 0b3c 5765 a0bd 3030 97bd c954 c6bd
00000110: 2003 293e 835a 743e 6891 c3bb 6131 3dbe
00000120: 5499 0abe 54ca ac3e 66d2 55bd 6942 2e3e
00000130: d15d 023e 61e6 87be a34c 8fbd 722d b1bc
00000140: a1fd 6d3d ca4f 453e 42e0 363d 6f54 043e
00000150: 2363 6a3e 5130 303d 9774 933e d8e5 5d3d
00000160: 5ffd c73b 6d63 b4bd c4b6 ec3d 1ccc b43d
00000170: 113c 4a3d a65e 3abe 6dc7 47bc 43b9 f03d
00000180: af99 bcbd 2b17 64be d836 443d 58ca 0c3e
00000190: 4252 8a3d 0772 44be eaf6 71bd c86b 763e
000001a0: cf7f 433e a27d 703d 40a2 153e f715 25bd
000001b0: c119 3cbc 0687 6a3e 50b7 013d 9491 46ba
000001c0: f99e 0fbe 0db0 15be 3f00 803e 08e9 063e
000001d0: 326c 69bd 19fd 25bd 30a0 7e3e def2 e23d
000001e0: 3d8f 743e 90d5 6f3e adc7 333e 7f6e 89bd
000001f0: 0649 953d 9ab6 653c d0d2 d13d 3193 0fbe
00000200: 1985 223c c274 ba3a c604 c1bd 2927 b73d
00000210: ef0b 933d 67ac 973d c6aa 00be 8a17 be3c
00000220: a5a7 61bc cdfd 3abe 56df 543d b217 f2bd
00000230: f337 6e3c 075c 403e 0f68 13be a64d 85be
00000240: 72e5 863e 144b 88bd eac6 3c3e d0e4 9f3d
00000250: f477 41be 589b 2b3d bceb 5a3e a56e b93d
00000260: d1e3 1c3c ab47 31be d483 2fbd 9bb1 953d
00000270: 4d63 363e f549 f43d 3477 193d c3d9 a9bd
00000280: d9b6 bcbd cadc 563e 072a e03b 4ad3 4dbe
00000290: 84d6 8c3e a34c d2bd 7e78 633d 7896 8bbd
000002a0: f20a ff3c 75c0 703d 1aca d83d 2895 9abd
000002b0: d13d ecbc cd62 04bd 4185 65bc 3643 a53d
000002c0: dddf 99bd 2d59 d13e a06d 2b3e 164b 963e
000002d0: 04ad 07be 86ef 293e 33d9 b03d 1f77 2f3a
000002e0: 250b 663e fb43 75be f917 723d a60a 72bc
000002f0: 2cff 8d3d 2bcd 20bd 104f cf3d 44c1 0b3e
00000300: d56a d33d bce6 2e3e 1b2d abbd 78c5 a53d
00000310: 5e8d fbbd 6712 543e c6da 013e 4a80 b9bd
00000320: 0a95 413e 439c dc3c 8729 ce3c bd06 b8bd
00000330: 744e 3ebe 6a01 003e 39b1 14be b2da 0cbe
00000340: b1d5 74bd a42e 85bd effa 393e 3a11 cd3d
00000350: d96b 35be af97 ebbc 8a31 10bd 069b dfbd
00000360: 8d29 5ebe 0811 edbc 1e39 a7be 0ffb 3abe
00000370: 29db 6dbd 085b 1c3e b0f1 50bc 4a04 ca3d
00000380: f168 b6bd 0afb d63d 4d91 153e 1839 e63e
00000390: 57ae 5a3e a7d7 5d3e 78af 953e 965d 40be
000003a0: a72d cb3d 4cce 153d bb92 4cbd 5446 e93c
000003b0: 2332 f8bd 9701 1d3e 95cb 203e 7b37 dc3d
000003c0: 5afe 103c 2e27 783d 5a61 0e3e 9a9e ea3d
000003d0: c016 0b3e a00e 26be e9c3 7a3d 8024 c6bc
000003e0: 2ec5 7b3e e3f3 fc3b 9f8c 86bc 0fc7 72be
000003f0: 969e 463d 957e 05bd 02bc abbd e4d7 efbd

sequential_14/dense_17/MatMul_bias f4 [64]
0.026589977 0.020224778 0.057863615 -0.013322084 0.009975799 0.022489319 0.012902235 0.061327577
0.07612961 0.043277543 0.043019935 0.03132182 0.10689444 0.07978664 0.027332399 -0.0031557556
0.08254802 0.03671656 0.061696332 0.09163557 0.053509813 0.04580289 0.0011276891 0.010053168
-0.054731406 0.00923762 -0.014626628 0.055282068 0.07053642 0.03653402 0.08722786 0.08742431
0.08858605 0.07730577 0.0066214604 -0.032576386 0.017473739 0.009006414 0.006334413 0.020217182
0.035078324 0.041835308 0.12249957 0.03314363 0.0022072515 0.07137038 0.07912013 0.031956647
0.10541171 0.041504286 0.11439573 0.0302809 0.12285711 -0.023938285 0.099069275 0.09413149
0.011163209 0.07285624 0.057147443 0.08023186 0.06664627 0.13857469 0.0049903365 0.04304953
00000000: 39d3 d93c 6fae a53c 6602 6d3d df44 5abc
00000010: 8971 233c 853b b83c e563 533c a032 7b3d
00000020: d7e9 9b3d cb43 313d ac35 303d 4f4b 003d
00000030: 79eb da3d 2e67 a33d 32e8 df3c cbd0 4ebb
00000040: f00e a93d 1b64 163d 4bb5 7c3d 6eab bb3d
00000050: 1b2d 5b3d d09b 3b3d f8ce 933a 0bb6 243c
00000060: 0a2e 60bd 6359 173c 86a4 6fbc 736f 623d
00000070: 6675 903d b2a4 153d 85a4 b23d 840b b33d
00000080: 9a6c b53d 7d52 9e3d d6f8 d83b d16e 05bd
00000090: 1625 8f3c a38f 133c e890 cf3b 819e a53c
000000a0: 4aae 0f3d 805b 2b3d 0ee1 fa3d 9dc1 073d
000000b0: 89a7 103b a22a 923d bc09 a23d f9e4 023d
000000c0: 18e2 d73d 6600 2a3d 4f48 ea3d a60f f83c
000000d0: 829c fb3d 391a c4bc d5e4 ca3d 03c8 c03d
000000e0: e4e5 363c a735 953d 7013 6a3d 9a50 a43d
000000f0: d77d 883d 86e6 0d3e fa85 a33b b454 303d

sequential_14/dense_18/MatMul/ReadVariableOp/transpose f4 [10, 64]
0.23585165 -0.51987046 0.2219689 -0.48215938 -0.012575895 0.37891367 -0.32877207 -0.1455479
0.25151184 0.28889182 0.25440904 0.3155473 -0.15740724 -0.5200714 -0.31229374 0.14444812
-0.31550154 0.102518916 -0.15535165 -0.30329594 -0.534634 -0.010205585 0.22208901 0.2216621
-0.31845897 0.15021417 -0.23965399 0.12241857 0.28647038 0.38752243 0.038043562 -0.009241664
0.155241 0.15169066 0.18067077 -0.19942074 0.28952563 -0.08597399 -0.23820779 -0.16272351
-0.13259381 -0.38276836 -0.03734623 -0.1786214 0.053169634 -0.5036504 -0.27756345 -0.25777656
0.15366425 -0.29314476 -0.2163497 -0.0737296 0.22912404 -0.14509617 0.32355547 0.111166365
0.3163654 -0.23313425 -0.042531803 0.16170186 -0.4886921 -0.39648467 -0.03362222 -0.20816916
0.2160705 0.29594994 -0.16354722 -0.107513584 0.008551485 -0.2653136 0.33133948 -0.36531997
0.0533615 -0.22448072 -0.30298862 -0.24388114 0.21612379 0.29911026 -0.31758642 0.32649383
-0.70839936 -0.14428613 0.07548773 -0.33430842 0.007041078 -0.36522287 0.33062494 -0.08510522
0.17333737 -0.0056623057 -0.19862342 0.21067731 -0.26748937 -0.2781771 -0.31352225 -0.3737639
0.2734399 -0.22541995 -0.26043937 -0.17520589 -0.27934846 0.14461175 -0.18563817 0.36970788
0.2500884 0.22096397 0.07841499 -0.28201407 -0.3049125 0.28377354 0.18846571 -0.104115464
0.020158213 -0.15363954 -0.153266 0.2866745 -0.68316984 -0.3313893 -0.24470115 -0.10066217
-0.32978216 -0.31339684 0.28414652 -0.34720007 -0.23779537 -0.038630046 0.42167425 -0.42967367
0.28805158 -0.14844482 -0.13678616 0.07694844 0.21399635 0.16768241 -0.023940766 -0.1468282
0.029007316 -0.019315364 -0.2622094 0.054151792 -0.2985214 -0.23261307 0.13519193 0.27775308
-0.061900046 0.2544647 -0.05618635 0.09135973 0.2831858 0.3063206 0.2393643 0.21728437
0.038407817 0.24182379 0.21417698 0.22813071 -0.24070765 -0.19660452 -0.27916902 -0.21678059
-0.34985703 -0.15965912 0.1656642 0.2161944 0.1431817 0.18125866 0.24923907 -0.09863928
-0.19570166 0.18050101 -0.512803 0.34383944 -0.1447632 0.18737961 -0.3374113 0.24209343
-0.21566345 0.07055102 -0.40441328 -0.37452215 -0.09547 0.043358393 0.41843534 -0.37344983
0.10305112 -0.45243087 -0.17333153 -0.32558984 -0.18822941 -0.3697839 0.18617173 -0.28961387
0.10952811 0.23524673 0.21215147 0.12676613 -0.26900315 -0.21233806 -0.027237983 0.06293251
-0.43805316 0.12439273 -0.1887587 -0.24444224 -0.27329972 0.10537055 0.30208614 -0.050352354
-0.011787636 -0.19052656 -0.16964595 -0.12938456 0.28053522 -0.19765438 0.24680407 0.23418546
0.19421324 0.29749098 -0.15501358 -0.2783125 0.2850135 -0.25354475 -0.19174641 -0.28411227
-0.24600631 0.32977274 -0.20960808 0.3636859 -0.15690178 0.22463681 -0.17789216 -0.23389824
0.12760198 0.043113377 -0.3082863 -0.28504264 0.2697281 -0.16495913 -0.22759235 -0.12878047
-0.15355167 0.00055616215 -0.38170734 0.33928066 -0.3291228 0.25855738 -0.15129423 -0.08853756
-0.26954508 0.11628497 -0.024459187 -0.32266557 0.23273616 0.07740855 -0.1111316 0.19280194
00000000: 1883 713e 3b16 05bf d14b 633e 98dd f6be
00000010: 200b 4ebc f900 c23e d054 a8be 820a 15be
00000020: 29c6 803e a1e9 933e e741 823e 6a8f a13e
00000030: 5d2f 21be 6623 05bf f7e4 9fbe 35ea 133e
00000040: 6b89 a1be 70f5 d13d 8114 1fbe 9b49 9bbe
00000050: c6dd 08bf 5335 27bc 4d6b 633e 64fb 623e
00000060: 0e0d a3be bed1 193e db67 75be 96b6 fa3d
00000070: 3fac 923e 5769 c63e 91d3 1b3d 596a 17bc
00000080: 7ff7 1e3e cc54 1b3e c201 393e f334 4cbe
00000090: b43c 943e 2213 b0bd beec 73be fea0 26be
000000a0: acc6 07be 37fa c3be 5cf8 18bd 87e8 36be
000000b0: 67c8 593d 3cef 00bf cc1c 8ebe 4afb 83be
000000c0: 295a 1d3e 1217 96be c78a 5dbe 8bff 96bd
000000d0: 7e9f 6a3e 1794 14be 10a9 a53e 31ab e33d
000000e0: a5fa a13e bfba 6ebe d435 2ebd 2c95 253e
000000f0: da35 fabe 0a00 cbbe 74b7 09bd 4c2a 55be
00000100: 9641 5d3e c086 973e ec78 27be 1530 dcbd
00000110: 871b 0c3c 2fd7 87be 54a5 a93e 380b bbbe
00000120: 9791 5a3d 46de 65be 5321 9bbe fabb 79be
00000130: 8e4f 5d3e fb24 993e b09a a2be 332a a73e
00000140: a959 35bf bebf 13be 5099 9a3d 792a abbe
00000150: d8b8 e63b 7efe babe ac47 a93e a54b aebd
00000160: 5a7f 313e dd8a b9bb f063 4bbe cbbb 573e
00000170: 5ef4 88be 3b6d 8ebe fd85 a0be fb5d bfbe
00000180: 5100 8c3e 7dd4 66be 4f58 85be 2c69 33be
00000190: c306 8fbe 1a15 143e ef17 3ebe 5a4a bd3e
000001a0: 960b 803e 6144 623e 0a98 a03d 2664 90be
000001b0: 7e1d 9cbe c44a 913e 28fd 403e 7d3a d5bd
000001c0: d622 a53c af53 1dbe c3f1 1cbe 00c7 923e
000001d0: 38e4 2ebf dcab a9be f092 7abe f827 cebd
000001e0: 35d9 a8be 8d75 a0be a77b 913e 35c4 b1be
000001f0: a180 73be 8a3a 1ebd b0e5 d73e 30fe dbbe
00000200: 7f7b 933e eb01 18be ac11 0cbe 2597 9d3d
00000210: dc21 5b3e f0b4 2b3e 6d1f c4bc 225a 16be
00000220: c0a0 ed3c 413b 9ebc 4f40 86be 45ce 5d3d
00000230: ccd7 98be 1f32 6ebe c16f 0a3e a735 8e3e
00000240: e78a 7dbd 3249 823e a823 66bd cf1a bb3d
00000250: bbfd 903e 0ed6 9c3e ea1b 753e cb7f 5e3e
00000260: 8451 1d3d a8a0 773e 3651 5b3e 199b 693e
00000270: 117c 76be b252 49be 3eef 8ebe bbfb 5dbe
00000280: 7620 b3be ae7d 23be e0a3 293e 1162 5d3e
00000290: 399e 123e df9b 393e 8738 7f3e 6403 cabd
000002a0: 0466 48be 42d5 383e 0f47 03bf b90b b03e
000002b0: ce3c 14be 71e0 3f3e 2dc1 acbe 57e7 773e
000002c0: e1d6 5cbe 0e7d 903d 420f cfbe 5ec1 bfbe
000002d0: c685 c3bd 9298 313d 283d d63e d134 bfbe
000002e0: 770c d33d 05a5 e7be d27d 31be b6b3 a6be
000002f0: 36bf 40be 5154 bdbe cda3 3e3e 4548 94be
00000300: 4650 e03d 85e4 703e 3c3e 593e fbce 013e
00000310: c8ba 89be 266f 59be 3122 dfbc c3e2 803d
00000320: 8148 e0be 9ec1 fe3d f649 41be 114f 7abe
00000330: f1ed 8bbe 84cc d73d 09ab 9a3e 453e 4ebd
00000340: ee20 41bc 6519 43be abb7 2dbe 637d 04be
00000350: 50a2 8f3e e965 4abe 35ba 7c3e 50ce 6f3e
00000360: d6df 463e bd50 983e e1bb 1ebe fa7e 8ebe
00000370: 4aed 913e 9ed0 81be 2c59 44be 2a77 91be
00000380: 14e9 7bbe f9d7 a83e 80a3 56be 0a35 ba3e
00000390: dcaa 20be 3107 663e 5d29 36be 0583 6fbe
000003a0: 18aa 023e a797 303d b4d7 9dbe 1cf1 91be
000003b0: cd19 8a3e 0ceb 28be f80d 69be 07df 03be
000003c0: a63c 1dbe 69cb 113a 256f c3be 32b6 ad3e
000003d0: c982 a8be a261 843e e0ec 1abe 2e53 b5bd
000003e0: d001 8abe d026 ee3d a25e c8bc 6c34 a5be
000003f0: 6352 6e3e 6088 9e3d f798 e3bd df6d 453e

sequential_14/dense_18/MatMul_bias f4 [10]
-0.03822229 0.056809675 -0.065921895 -0.02745078 -0.07429298 0.07355358 -0.07493797 -0.042825494
0.054990508 0.07956098
00000000: fa8e 1cbd 43b1 683d 0f02 87bd 75e0 e0bc
00000010: eb26 98bd 42a3 963d 1479 99bd c969 2fbd
00000020: ba3d 613d def0 a23d
