Auto_TF_to_uC/Converted_model_files/pruned_EMNIST_model.tflite (tflite, 54832 bytes, 12 tensors)

sequential_39/conv2d_95/Conv2D/ReadVariableOp f4 [1, 3, 3, 20]
000000 35 1e 71 3c 23 6c 81 be 90 8a 74 be 07 96 2c 3e
       0.014716675 -0.25277814 -0.23880982 0.16854106
000010 19 6a 85 3e 33 82 b0 3e c7 d2 14 bd 15 1c a6 3e
       0.2605751 0.34474334 -0.036333825 0.324433
000020 a2 e6 fc 3d 7a 04 d4 3d 3b 44 f2 be ed 50 d7 3d
       0.12348677 0.10352416 -0.4731768 0.10513482
000030 44 fd 75 be a6 57 6e 3e 03 97 b5 be 8b 53 17 3e
       -0.24022394 0.23275623 -0.35466775 0.14777963
000040 cc f8 1d be cf a6 8d be 38 2c 0a 3e b5 3e 87 be
       -0.1542694 -0.27666327 0.1349343 -0.2641503
000050 a2 25 75 be 5c 13 42 be d7 c5 cc bd f4 b1 77 3e
       -0.23940137 -0.18952698 -0.099986725 0.24188977
000060 ff 48 82 3d fb d4 22 3e 43 7e 0f 3e ee 78 99 3e
       0.06361579 0.15901558 0.14013009 0.29975075
000070 31 f2 f1 3d c6 66 77 3e 22 b4 b5 be 39 2e 6f bc
       0.118137725 0.24160299 -0.35488993 -0.014598423
000080 a1 b8 14 3e 35 e9 94 3e 02 68 b5 bc eb a4 82 bb
       0.14523555 0.29084173 -0.022144321 -0.003986945
000090 ba 14 3d be e8 d9 5a be 1a 89 f2 bc 2f 1f 64 be
       -0.18464938 -0.21372187 -0.02960639 -0.2227752
0000a0 b3 a3 34 bc 84 5e da bd 63 43 55 be ce 74 11 3e
       -0.011025357 -0.10662559 -0.20826487 0.14204714
0000b0 f5 c4 a4 3e 33 5a fc be 86 4a 7d 3e 01 b7 62 be
       0.32181516 -0.49287567 0.2473546 -0.22140123
0000c0 74 24 4e be 64 a1 8d 3d 15 79 a5 bd be e6 ac be
       -0.20131093 0.069155484 -0.08079735 -0.33769792
0000d0 9a 53 bd 3e 05 ed 89 3d ab 50 2c 3e d0 08 95 bd
       0.36977845 0.06734661 0.16827647 -0.072770715
0000e0 65 fa 2c be 61 b7 d8 3d 9b 88 a4 be 50 44 67 3e
       -0.16892393 0.10581852 -0.32135472 0.22584653
0000f0 00 95 8f be 9f b3 65 3e db 71 22 3e e7 e6 96 3d
       -0.28043365 0.22431801 0.15863745 0.0736826
000100 41 8d 8b be 35 e9 a1 3d 5f b5 a3 be c6 9b 40 3e
       -0.27256206 0.07905809 -0.31974313 0.18809423
000110 9c 86 11 bf 1c 1c b4 3e fd 31 1a bf 61 5b 3e 3d
       -0.5684602 0.35177696 -0.60232526 0.046473864
000120 d0 96 c6 3c 1c 19 25 bc 0e 2f 69 bf 49 e8 b9 3e
       0.024241835 -0.010076787 -0.91087425 0.36310032
000130 bd bc 0e 3e 69 5a 24 be f0 3f 52 3e ec 29 1e 3e
       0.13939185 -0.16050114 0.20532203 0.1544568
000140 0d 70 ee bc 75 11 95 3d b7 cb c5 3c b3 5e 7f bd
       -0.029106164 0.0727872 0.02414499 -0.06234617
000150 ee 91 ca bd 93 0e f0 be cd 2e ae 3d 42 9a c3 3d
       -0.09891115 -0.4688612 0.0850502 0.09550907
000160 bc ba 99 be e9 04 43 3d 1a e2 2f bd 92 f0 10 be
       -0.3002528 0.047612105 -0.042940237 -0.1415427
000170 82 68 2b bd f6 52 2a bd 06 4f 6d be 87 a5 5e 3e
       -0.041847713 -0.041583024 -0.23174676 0.21742831
000180 bf d7 ee 3d 09 37 17 bd f2 96 59 bc 7d 50 93 3d
       0.11662244 -0.03691772 -0.013280617 0.07193086
000190 f2 cd 20 3e c4 06 44 3e 7e 2c 03 3e a2 ca 35 3e
       0.15703562 0.19143206 0.12809941 0.1775308
0001a0 02 a6 ac 3d 92 98 9d be 03 1e 39 3e 8a 67 3a bd
       0.08430101 -0.30780464 0.18077855 -0.0455089
0001b0 b2 ec 46 bf 05 01 cc bd 8f 58 1f 3e 82 10 5c be
       -0.7770492 -0.09961132 0.15561126 -0.21490672
0001c0 65 ff 75 3e 48 7a 9f bc 85 4e 12 3e 56 6a a0 bd
       0.24023207 -0.019467488 0.14287765 -0.07832782
0001d0 3a 30 c1 3e 30 90 20 3e 62 c6 87 be fd b1 bc bd
       0.37732106 0.15680003 -0.26518542 -0.09213636
0001e0 89 20 3a be b2 39 a7 3e 86 fd 20 3e 45 16 af be
       -0.18176474 0.32661206 0.15721712 -0.34196678
0001f0 1f 38 8a be 02 aa bf be 54 08 90 be f6 4e 24 be
       -0.26995942 -0.37434393 -0.28131354 -0.16045746
000200 be ec 63 3d f9 4b 84 3e 87 89 c1 be 8c c5 a5 3e
       0.055645697 0.25839213 -0.37800238 0.3237728
000210 11 4f 86 be bf 17 34 be 1e f4 07 bf 2b 5c ca 3d
       -0.26232198 -0.17587183 -0.5310687 0.09880861
000220 4c 6c 20 be 5d 8b eb 3d 52 a4 a5 3e de 81 ab 3d
       -0.15666312 0.11501191 0.3235193 0.083743796
000230 93 4e 1b 3e 39 3b b4 3d 8d 58 b3 3e 3a 89 04 bd
       0.15166692 0.08800358 0.35028496 -0.032357432
000240 27 a5 4b be bf b5 b9 bd 15 bd b2 bc 3e b7 6e bd
       -0.1988722 -0.090678684 -0.021818677 -0.058280222
000250 ae d6 3d 3e a9 0a 8d be 08 5c cc 3d f7 ba 19 3e
       0.18538925 -0.27547196 0.09978491 0.15012728
000260 7d a9 ba 3d 0e cd 8a be dc 50 5f bf fd be 17 3e
       0.091143586 -0.2710957 -0.87232757 0.1481895
000270 cf e9 8a bd 7d d3 f0 3d b4 b9 bf 3d c4 48 18 be
       -0.06782877 0.11759088 0.09361592 -0.14871508
000280 73 1a ac 3e 95 27 8e bc 86 ff 84 3e 3a a0 bb bd
       0.3361393 -0.017352859 0.259762 -0.0916142
000290 5e 90 3e 3e 68 e1 70 3e 51 82 db 3d 5c 42 1c be
       0.18609759 0.23523486 0.10718215 -0.15259689
0002a0 29 27 f0 3d 72 20 04 bf 42 6d 99 3e 5a 44 0f 3e
       0.11726219 -0.5161201 0.2996617 0.13990918
0002b0 2f 0f 0b 3b 59 40 fa 3d ae a4 0e bf 45 8a 98 be
       0.0021218767 0.122193046 -0.5572003 -0.2979299
0002c0 c4 e9 a8 3e 49 52 82 3e d3 4c 0e be dc 60 d6 be
       0.3299085 0.25453404 -0.13896494 -0.41870773

sequential_39/conv2d_95/Conv2D_bias f4 [20]
000000 79 ad af 3d 0b de 2e 3c e2 a2 2a 3d 94 f3 f6 3c
       0.08578009 0.010673056 0.041659243 0.030145444
000010 31 af e3 3c bb 26 27 3e ae 44 b9 b9 55 f6 87 3b
       0.027793499 0.16323368 -0.0003533712 0.004149238
000020 15 7e 80 3e 3d 66 20 3c 64 9e 42 3e 95 6c 4a 3d
       0.25096193 0.0097900005 0.19005734 0.04941996
000030 72 7e f6 b9 30 5f 4c 3c 0d 5c b0 3e 65 26 c5 b9
       -0.00047014985 0.012473866 0.3444523 -0.00037603374
000040 a3 a8 bf b8 5b f3 f1 3c ce 66 b9 3d 38 3d 1c 3e
       -9.139001e-05 0.029534986 0.090528116 0.15257728

sequential_39/conv2d_96/Conv2D/ReadVariableOp i1 [20, 3, 3, 20] scale=0.005239707 zero_point=0
000000 17 ee 1c 03 ee 05 10 12 17 04 00 00 07 00 e0 10
       0.12051326 -0.094314724 0.1467118 0.015719121 -0.094314724 0.026198534 0.08383531 0.094314724 0.12051326 0.020958828 0.0 0.0 0.03667795 0.0 -0.16767062 0.08383531
000010 1a f8 f5 02 1d 09 1f f2 e0 d9 ea 0b 01 f1 04 01
       0.13623238 -0.041917656 -0.057636775 0.010479414 0.1519515 0.047157362 0.16243091 -0.0733559 -0.16767062 -0.20434856 -0.11527355 0.057636775 0.005239707 -0.0785956 0.020958828 0.005239707
000020 06 d9 f0 fd 18 19 1a 1a fc 24 26 c2 bd d9 e9 ef
       0.031438243 -0.20434856 -0.08383531 -0.015719121 0.12575297 0.13099268 0.13623238 0.13623238 -0.020958828 0.18862945 0.19910887 -0.32486182 -0.35106036 -0.20434856 -0.12051326 -0.08907502
000030 13 00 f7 16 fb e5 fb 15 26 14 19 08 ef ec dc 1a
       0.099554434 0.0 -0.047157362 0.11527355 -0.026198534 -0.14147209 -0.026198534 0.11003385 0.19910887 0.10479414 0.13099268 0.041917656 -0.08907502 -0.10479414 -0.18862945 0.13623238
000040 25 d9 0f 13 ea 03 ec de 1b 1f f5 f3 24 f4 cb 2f
       0.19386916 -0.20434856 0.0785956 0.099554434 -0.11527355 0.015719121 -0.10479414 -0.17815004 0.14147209 0.16243091 -0.057636775 -0.06811619 0.18862945 -0.062876485 -0.27770448 0.24626623
000050 f8 fc f8 29 02 f9 07 0a e9 00 08 ef 0c 16 fd 14
       -0.041917656 -0.020958828 -0.041917656 0.21482798 0.010479414 -0.03667795 0.03667795 0.05239707 -0.12051326 0.0 0.041917656 -0.08907502 0.062876485 0.11527355 -0.015719121 0.10479414
000060 2b db c3 22 e1 f6 0d 09 f6 cc 1a 0c ed 04 ee f0
       0.2253074 -0.19386916 -0.31962213 0.17815004 -0.16243091 -0.05239707 0.06811619 0.047157362 -0.05239707 -0.27246475 0.13623238 0.062876485 -0.099554434 0.020958828 -0.094314724 -0.08383531
000070 1e 12 eb 01 20 e2 ee 2b cd ec cb 1a 34 0d 27 0f
       0.1571912 0.094314724 -0.11003385 0.005239707 0.16767062 -0.1571912 -0.094314724 0.2253074 -0.26722506 -0.10479414 -0.27770448 0.13623238 0.27246475 0.06811619 0.20434856 0.0785956
000080 07 dd ca f3 1b 10 49 d6 c6 bf ad 21 e0 c2 d2 2a
       0.03667795 -0.18338974 -0.28294417 -0.06811619 0.14147209 0.08383531 0.38249862 -0.2200677 -0.303903 -0.34058094 -0.43489566 0.17291033 -0.16767062 -0.32486182 -0.24102652 0.2200677
000090 30 ff 23 12 fc d4 d1 d3 02 0d 26 e9 ff be cf 0a
       0.25150594 -0.005239707 0.18338974 0.094314724 -0.020958828 -0.2305471 -0.24626623 -0.23578681 0.010479414 0.06811619 0.19910887 -0.12051326 -0.005239707 -0.34582067 -0.25674564 0.05239707
0000a0 c8 cc d1 2c 37 e8 11 14 f8 ea cf d9 16 20 12 f5
       -0.2934236 -0.27246475 -0.24626623 0.2305471 0.28818387 -0.12575297 0.08907502 0.10479414 -0.041917656 -0.11527355 -0.25674564 -0.20434856 0.11527355 0.16767062 0.094314724 -0.057636775
0000b0 f4 bc d9 0b 10 e7 fb 0a 1f f8 ff 0f f0 e5 26 11
       -0.062876485 -0.3563001 -0.20434856 0.057636775 0.08383531 -0.13099268 -0.026198534 0.05239707 0.16243091 -0.041917656 -0.005239707 0.0785956 -0.08383531 -0.14147209 0.19910887 0.08907502
0000c0 f4 24 f4 f3 18 ef 0e f2 05 00 18 f0 dd d6 f2 ed
       -0.062876485 0.18862945 -0.062876485 -0.06811619 0.12575297 -0.08907502 0.0733559 -0.0733559 0.026198534 0.0 0.12575297 -0.08383531 -0.18338974 -0.2200677 -0.0733559 -0.099554434
0000d0 f0 04 ee 18 e5 d3 e3 13 d9 de 3e 4e df 18 ee d9
       -0.08383531 0.020958828 -0.094314724 0.12575297 -0.14147209 -0.23578681 -0.1519515 0.099554434 -0.20434856 -0.17815004 0.32486182 0.40869713 -0.17291033 0.12575297 -0.094314724 -0.20434856
0000e0 bf cf 99 c6 36 02 c9 0e ab e5 f7 f3 c9 ed 26 76
       -0.34058094 -0.25674564 -0.53968984 -0.303903 0.28294417 0.010479414 -0.28818387 0.0733559 -0.44537508 -0.14147209 -0.047157362 -0.06811619 -0.28818387 -0.099554434 0.19910887 0.6182854
0000f0 31 f0 f8 36 2e e3 2d 26 d2 cc 13 da 15 13 fa fa
       0.25674564 -0.08383531 -0.041917656 0.28294417 0.24102652 -0.1519515 0.23578681 0.19910887 -0.24102652 -0.27246475 0.099554434 -0.19910887 0.11003385 0.099554434 -0.031438243 -0.031438243

sequential_39/conv2d_96/Conv2D_bias f4 [20]
000000 f2 4d 5d 3d 2c eb 02 bb 10 44 8a 3d b4 76 e3 3d
       0.054029413 -0.00199766 0.06751263 0.11106625
000010 92 7a 82 3d aa 63 c1 3d ff a4 ea 3d cf bb 89 3d
       0.06371035 0.094428375 0.11457252 0.06725275
000020 5f b1 9b 3d 17 ed a9 3d c1 db 5a 3d 64 92 ed 3c
       0.0760219 0.082971744 0.05343223 0.029000469
000030 6b 8b 1d bd c3 b6 1d 3d d5 ba 7c 3d 1b 9f 32 3d
       -0.038463037 0.038504373 0.061701614 0.043608766
000040 bc 3c fa 3d 12 76 49 bc eb 6a c2 3d 02 7b dc 3c
       0.122186154 -0.012296217 0.09493049 0.026914123

sequential_39/conv2d_97/Conv2D/ReadVariableOp i1 [39, 3, 3, 20] scale=0.005683003 zero_point=0
000000 16 0b 0d 00 f8 fb cf f2 0c 03 fe e8 fc ee 04 d8
       0.12502606 0.06251303 0.07387904 0.0 -0.045464024 -0.028415015 -0.27846715 -0.07956204 0.068196036 0.017049009 -0.011366006 -0.13639207 -0.022732012 -0.10229406 0.022732012 -0.22732012
000010 ed 13 0f e5 10 07 f3 04 02 20 10 fb 17 18 00 f6
       -0.107977055 0.107977055 0.08524504 -0.15344109 0.09092805 0.03978102 -0.07387904 0.022732012 0.011366006 0.1818561 0.09092805 -0.028415015 0.13070907 0.13639207 0.0 -0.05683003
000020 f1 ee cd ce ea 12 fc ce 11 1a f3 f8 0d 07 f3 eb
       -0.08524504 -0.10229406 -0.28983316 -0.28415015 -0.12502606 0.10229406 -0.022732012 -0.28415015 0.09661105 0.14775808 -0.07387904 -0.045464024 0.07387904 0.03978102 -0.07387904 -0.119343065
000030 0b 03 fb 0b 14 0f ec 0a 03 01 ec 07 02 02 f3 11
       0.06251303 0.017049009 -0.028415015 0.06251303 0.11366006 0.08524504 -0.11366006 0.05683003 0.017049009 0.005683003 -0.11366006 0.03978102 0.011366006 0.011366006 -0.07387904 0.09661105
000040 e5 e8 eb 0e 02 e9 13 f2 04 fa fe d4 e1 14 0f e8
       -0.15344109 -0.13639207 -0.119343065 0.07956204 0.011366006 -0.13070907 0.107977055 -0.07956204 0.022732012 -0.034098018 -0.011366006 -0.25005212 -0.17617309 0.11366006 0.08524504 -0.13639207
000050 f8 1b 00 f1 f3 03 05 e7 e8 fb 14 1b ed 15 f1 05
       -0.045464024 0.15344109 0.0 -0.08524504 -0.07387904 0.017049009 0.028415015 -0.14207508 -0.13639207 -0.028415015 0.11366006 0.15344109 -0.107977055 0.119343065 -0.08524504 0.028415015
000060 f5 03 f2 eb f1 29 10 ff 21 19 dc 12 26 0f ff f8
       -0.06251303 0.017049009 -0.07956204 -0.119343065 -0.08524504 0.23300312 0.09092805 -0.005683003 0.1875391 0.14207508 -0.20458812 0.10229406 0.21595411 0.08524504 -0.005683003 -0.045464024
000070 09 11 14 05 fa 23 fe 08 d4 2b 11 e5 d2 df 03 30
       0.05114703 0.09661105 0.11366006 0.028415015 -0.034098018 0.19890511 -0.011366006 0.045464024 -0.25005212 0.24436913 0.09661105 -0.15344109 -0.26141813 -0.1875391 0.017049009 0.27278414
000080 05 c8 f6 f6 0d f2 fb f5 f9 1b ec f9 02 0c 0d e9
       0.028415015 -0.31824815 -0.05683003 -0.05683003 0.07387904 -0.07956204 -0.028415015 -0.06251303 -0.03978102 0.15344109 -0.11366006 -0.03978102 0.011366006 0.068196036 0.07387904 -0.13070907
000090 f5 f4 fc fc 19 f0 ee 0d 14 0a 0a 0d 07 ff 02 0d
       -0.06251303 -0.068196036 -0.022732012 -0.022732012 0.14207508 -0.09092805 -0.10229406 0.07387904 0.11366006 0.05683003 0.05683003 0.07387904 0.03978102 -0.005683003 0.011366006 0.07387904
0000a0 18 00 f8 f2 e8 df ef 37 12 06 19 19 24 ff 00 f5
       0.13639207 0.0 -0.045464024 -0.07956204 -0.13639207 -0.1875391 -0.09661105 0.31256518 0.10229406 0.034098018 0.14207508 0.14207508 0.20458812 -0.005683003 0.0 -0.06251303
0000b0 f3 09 16 08 1e 00 fc 0d fc 1c fd f4 ed 30 11 1a
       -0.07387904 0.05114703 0.12502606 0.045464024 0.17049009 0.0 -0.022732012 0.07387904 -0.022732012 0.15912408 -0.017049009 -0.068196036 -0.107977055 0.27278414 0.09661105 0.14775808
0000c0 e1 f1 d9 d1 07 fb 05 d0 02 2d 09 ea 21 22 19 f7
       -0.17617309 -0.08524504 -0.22163711 -0.26710114 0.03978102 -0.028415015 0.028415015 -0.27278414 0.011366006 0.25573513 0.05114703 -0.12502606 0.1875391 0.1932221 0.14207508 -0.05114703
0000d0 fb 29 10 0a cf 16 c4 f0 10 0a fb e0 fa 25 02 ea
       -0.028415015 0.23300312 0.09092805 0.05683003 -0.27846715 0.12502606 -0.34098017 -0.09092805 0.09092805 0.05683003 -0.028415015 -0.1818561 -0.034098018 0.2102711 0.011366006 -0.12502606
0000e0 15 28 06 da 00 11 14 28 c3 2d d3 f6 f7 15 f7 17
       0.119343065 0.22732012 0.034098018 -0.21595411 0.0 0.09661105 0.11366006 0.22732012 -0.34666318 0.25573513 -0.25573513 -0.05683003 -0.05114703 0.119343065 -0.05114703 0.13070907
0000f0 f4 ec 00 fe fd 07 f3 f6 eb 06 15 fd ca 0f ef ed
       -0.068196036 -0.11366006 0.0 -0.011366006 -0.017049009 0.03978102 -0.07387904 -0.05683003 -0.119343065 0.034098018 0.119343065 -0.017049009 -0.30688217 0.08524504 -0.09661105 -0.107977055

sequential_39/conv2d_97/Conv2D_bias f4 [39]
000000 90 04 70 bd 9e af 82 bd 90 ae b5 3d aa 07 da 3d
       -0.0585981 -0.063811526 0.08871186 0.10645993
000010 43 9d bc 3d 69 92 91 3d db f7 f0 bc 46 36 c7 3d
       0.09209683 0.07108004 -0.029415062 0.09727149
000020 2c 82 15 3e 8f be 6e 3d 30 05 9b bb 4a f2 a3 bc
       0.14600438 0.0582872 -0.004730843 -0.020012993
000030 3b d4 b2 bc e8 e3 f4 3d 79 4a e7 3d 65 42 28 3d
       -0.021829715 0.11957532 0.112935014 0.041078944
000040 db 22 9f 3d fa 6d d5 3c f3 10 6a 3c f3 e1 e8 3c
       0.0777032 0.026053417 0.014286268 0.028428053
000050 a0 75 d3 ba 53 5b d7 3d 1d 8d 72 39 01 47 8c 3d
       -0.0016133077 0.105154656 0.00023131487 0.068494804
000060 68 b7 f0 3d 95 f5 8d 3d 63 8d b1 bd 46 4b 23 3e
       0.11753732 0.06931607 -0.086695455 0.15946683
000070 2e ea 9a 3d 72 1a b1 3d a2 f8 da 3d 2e 7a 97 3d
       0.075641975 0.08647622 0.10691954 0.07396351
000080 1e c7 f1 bc 8e 03 af 3d 8c c7 98 3d 67 f7 7f 3c
       -0.029513892 0.085456 0.074599355 0.01562295
000090 3d f6 c8 3c 22 32 bd 3d 1b d1 08 3e
       0.024531478 0.09238078 0.13361017

sequential_39/conv2d_98/Conv2D/ReadVariableOp i1 [39, 3, 3, 39] scale=0.004355344 zero_point=0
000000 14 fb 03 ca f1 f9 e7 f8 1e f0 0c 08 02 09 ea ef
       0.08710688 -0.02177672 0.013066032 -0.23518857 -0.06533016 -0.030487407 -0.1088836 -0.034842752 0.13066033 -0.069685504 0.052264128 0.034842752 0.008710688 0.039198097 -0.095817566 -0.074040845
000010 de e4 04 04 f6 13 14 df f2 f8 12 ec 08 02 eb f6
       -0.14808169 -0.12194963 0.017421376 0.017421376 -0.04355344 0.082751535 0.08710688 -0.14372635 -0.060974814 -0.034842752 0.07839619 -0.08710688 0.034842752 0.008710688 -0.091462225 -0.04355344
000020 2e 20 02 04 01 16 ef ed ec ed cf fb ee ff ee f2
       0.20034583 0.13937101 0.008710688 0.017421376 0.004355344 0.095817566 -0.074040845 -0.082751535 -0.08710688 -0.082751535 -0.21341185 -0.02177672 -0.07839619 -0.004355344 -0.07839619 -0.060974814
000030 0c 18 10 24 00 00 e5 e7 ef 15 1b f0 05 10 e5 ec
       0.052264128 0.104528256 0.069685504 0.15679239 0.0 0.0 -0.11759429 -0.1088836 -0.074040845 0.091462225 0.11759429 -0.069685504 0.02177672 0.069685504 -0.11759429 -0.08710688
000040 11 09 eb f8 0d e5 0f 16 da 00 0f 0b 12 06 e0 f3
       0.074040845 0.039198097 -0.091462225 -0.034842752 0.056619473 -0.11759429 0.06533016 0.095817566 -0.16550307 0.0 0.06533016 0.047908783 0.07839619 0.026132064 -0.13937101 -0.056619473
000050 f4 05 02 05 07 fe fc bd e5 eb 0c f6 fd f4 0c 07
       -0.052264128 0.02177672 0.008710688 0.02177672 0.030487407 -0.008710688 -0.017421376 -0.29180804 -0.11759429 -0.091462225 0.052264128 -0.04355344 -0.013066032 -0.052264128 0.052264128 0.030487407
000060 01 1c 06 08 fa f1 06 03 d8 02 c4 fa ff 19 1a 87
       0.004355344 0.12194963 0.026132064 0.034842752 -0.026132064 -0.06533016 0.026132064 0.013066032 -0.17421377 0.008710688 -0.26132065 -0.026132064 -0.004355344 0.1088836 0.113238946 -0.5269966
000070 02 0a fb fa 18 f3 e1 02 ef ed fb ec 18 04 08 10
       0.008710688 0.04355344 -0.02177672 -0.026132064 0.104528256 -0.056619473 -0.13501567 0.008710688 -0.074040845 -0.082751535 -0.02177672 -0.08710688 0.104528256 0.017421376 0.034842752 0.069685504
000080 13 13 ee d0 c4 f4 f1 1c f3 fa 05 15 f8 00 e6 08
       0.082751535 0.082751535 -0.07839619 -0.20905651 -0.26132065 -0.052264128 -0.06533016 0.12194963 -0.056619473 -0.026132064 0.02177672 0.091462225 -0.034842752 0.0 -0.113238946 0.034842752
000090 e2 24 16 fa 04 11 c6 fc 1c f7 11 01 ec e0 0a e5
       -0.13066033 0.15679239 0.095817566 -0.026132064 0.017421376 0.074040845 -0.25260994 -0.017421376 0.12194963 -0.039198097 0.074040845 0.004355344 -0.08710688 -0.13937101 0.04355344 -0.11759429
0000a0 f9 ed 01 06 0e 08 ee fa fe fd 0c c8 04 0e fc 0c
       -0.030487407 -0.082751535 0.004355344 0.026132064 0.060974814 0.034842752 -0.07839619 -0.026132064 -0.008710688 -0.013066032 0.052264128 -0.24389926 0.017421376 0.060974814 -0.017421376 0.052264128
0000b0 ed 0e f6 fc 0e 0a df e8 f6 0f ee eb 02 84 1e 10
       -0.082751535 0.060974814 -0.04355344 -0.017421376 0.060974814 0.04355344 -0.14372635 -0.104528256 -0.04355344 0.06533016 -0.07839619 -0.091462225 0.008710688 -0.54006267 0.13066033 0.069685504
0000c0 ed 00 0e 12 f6 f3 f1 0c 1b f5 08 ec d7 25 0d 0f
       -0.082751535 0.0 0.060974814 0.07839619 -0.04355344 -0.056619473 -0.06533016 0.052264128 0.11759429 -0.047908783 0.034842752 -0.08710688 -0.17856911 0.16114773 0.056619473 0.06533016
0000d0 eb 0d 14 35 19 e9 df df e0 fc 21 eb 0e 0e 17 e1
       -0.091462225 0.056619473 0.08710688 0.23083323 0.1088836 -0.100172915 -0.14372635 -0.14372635 -0.13937101 -0.017421376 0.14372635 -0.091462225 0.060974814 0.060974814 0.100172915 -0.13501567
0000e0 f4 0e 06 d9 03 05 f7 dd 06 e8 d9 05 0a fa 0f d8
       -0.052264128 0.060974814 0.026132064 -0.16985841 0.013066032 0.02177672 -0.039198097 -0.15243705 0.026132064 -0.104528256 -0.16985841 0.02177672 0.04355344 -0.026132064 0.06533016 -0.17421377
0000f0 dd 05 1c 0d f6 07 ef f0 03 cf 04 03 17 ed 06 cc
       -0.15243705 0.02177672 0.12194963 0.056619473 -0.04355344 0.030487407 -0.074040845 -0.069685504 0.013066032 -0.21341185 0.017421376 0.013066032 0.100172915 -0.082751535 0.026132064 -0.22647789

sequential_39/conv2d_98/Conv2D_bias f4 [39]
000000 61 f2 92 bc 2a c2 cb 3d 8a 17 41 bc b4 ef 03 3d
       -0.01793784 0.09949143 -0.011785397 0.03221102
000010 f3 fc a3 3c 91 98 bc 3c 5d 6d 89 3d c7 68 44 3d
       0.020018077 0.023021968 0.067103125 0.047951486
000020 9e 1c 5e 3c 0d 2f 8b 3d 69 bc 0d 3e d8 67 92 3d
       0.013556628 0.067960836 0.13841404 0.07148713
000030 18 95 2d 3c 3f 7d f4 3c 05 70 11 3d 19 65 8a 3d
       0.010594629 0.029844878 0.03550722 0.06757564
000040 7c 42 d1 3d 19 e0 6b 3d 0c f5 5f 3d eb 2e 45 3d
       0.10217759 0.057586763 0.054677054 0.048140448
000050 86 58 de 3c e7 29 82 3d da d1 09 bc ba c2 58 3d
       0.02714182 0.063556485 -0.008411849 0.05292008
000060 1c 5b 47 3c 59 8a f5 bc e2 5f 15 3c 5c 9f 00 bd
       0.012167718 -0.029973196 0.0091170985 -0.031401977
000070 c9 a1 30 3d 86 81 9f 3c b0 19 39 bc 53 72 22 3d
       0.04312304 0.019470941 -0.011297628 0.03965981
000080 02 2b 5c 3d 56 fa 00 bc e9 39 5e 3d 40 a9 84 3d
       0.053751953 -0.007872185 0.054254446 0.064775944
000090 12 17 6a 3d 87 1e 9c 3a 84 5e b0 3c
       0.057150908 0.0011910953 0.021529444

sequential_39/dense_111/MatMul/ReadVariableOp/transpose i1 [39, 624] scale=0.004381718 zero_point=0
000000 10 f0 ea 0a f8 02 fc 14 2a 15 06 d9 e3 e7 03 f8
       0.07010749 -0.07010749 -0.0963978 0.04381718 -0.035053745 0.008763436 -0.017526872 0.08763436 0.18403216 0.09201608 0.026290309 -0.17088701 -0.12706983 -0.10954295 0.013145154 -0.035053745
000010 d4 07 f2 ed ee f7 f6 12 e7 00 fe f7 f7 df 03 07
       -0.1927956 0.030672027 -0.061344054 -0.083252646 -0.07887092 -0.03943546 -0.04381718 0.07887092 -0.10954295 0.0 -0.008763436 -0.03943546 -0.03943546 -0.1445967 0.013145154 0.030672027
000020 bc f4 02 ee 09 28 04 eb 0f 16 f6 13 e7 f9 e2 0f
       -0.29795682 -0.052580617 0.008763436 -0.07887092 0.03943546 0.17526872 0.017526872 -0.09201608 0.06572577 0.0963978 -0.04381718 0.083252646 -0.10954295 -0.030672027 -0.13145155 0.06572577
000030 d2 ee e5 f2 e1 ed de c6 f8 16 11 13 fc f3 fe fb
       -0.20155904 -0.07887092 -0.11830639 -0.061344054 -0.13583326 -0.083252646 -0.14897841 -0.25413966 -0.035053745 0.0963978 0.074489206 0.083252646 -0.017526872 -0.056962334 -0.008763436 -0.02190859
000040 1c e1 fc fb 01 0d f8 e8 ea fe 07 ce 24 16 13 10
       0.12268811 -0.13583326 -0.017526872 -0.02190859 0.004381718 0.056962334 -0.035053745 -0.105161235 -0.0963978 -0.008763436 0.030672027 -0.2190859 0.15774184 0.0963978 0.083252646 0.07010749
000050 0f e3 f5 f2 fd f5 ff 10 d1 09 f1 fc f5 f5 e4 f3
       0.06572577 -0.12706983 -0.0481989 -0.061344054 -0.013145154 -0.0481989 -0.004381718 0.07010749 -0.20594075 0.03943546 -0.06572577 -0.017526872 -0.0481989 -0.0481989 -0.12268811 -0.056962334
000060 ec d6 0d fc fb 22 fe f4 0a 22 ea 16 18 f8 f3 f1
       -0.08763436 -0.18403216 0.056962334 -0.017526872 -0.02190859 0.14897841 -0.008763436 -0.052580617 0.04381718 0.14897841 -0.0963978 0.0963978 0.105161235 -0.035053745 -0.056962334 -0.06572577
000070 06 00 02 0b df e4 23 1b 18 2d 14 07 d6 e8 15 df
       0.026290309 0.0 0.008763436 0.0481989 -0.1445967 -0.12268811 0.15336013 0.11830639 0.105161235 0.19717732 0.08763436 0.030672027 -0.18403216 -0.105161235 0.09201608 -0.1445967
000080 08 08 e3 13 f2 11 2c 07 f1 ec 04 0e e4 c1 09 ff
       0.035053745 0.035053745 -0.12706983 0.083252646 -0.061344054 0.074489206 0.1927956 0.030672027 -0.06572577 -0.08763436 0.017526872 0.061344054 -0.12268811 -0.27604824 0.03943546 -0.004381718
000090 e7 1b f8 17 fb c9 e7 e5 fc fc 2c f5 d9 e9 12 08
       -0.10954295 0.11830639 -0.035053745 0.10077952 -0.02190859 -0.2409945 -0.10954295 -0.11830639 -0.017526872 -0.017526872 0.1927956 -0.0481989 -0.17088701 -0.10077952 0.07887092 0.035053745
0000a0 ec ed ef f5 ef e7 f6 fd 0f 1e ed e1 05 08 26 eb
       -0.08763436 -0.083252646 -0.074489206 -0.0481989 -0.074489206 -0.10954295 -0.04381718 -0.013145154 0.06572577 0.13145155 -0.083252646 -0.13583326 0.02190859 0.035053745 0.16650529 -0.09201608
0000b0 fc e2 ec f1 0e 03 e1 05 0f 01 0e f4 fb 15 fb e8
       -0.017526872 -0.13145155 -0.08763436 -0.06572577 0.061344054 0.013145154 -0.13583326 0.02190859 0.06572577 0.004381718 0.061344054 -0.052580617 -0.02190859 0.09201608 -0.02190859 -0.105161235
0000c0 ef 1e f4 f3 d7 f2 0a fb 02 f6 ee fe e5 df cc f1
       -0.074489206 0.13145155 -0.052580617 -0.056962334 -0.17965044 -0.061344054 0.04381718 -0.02190859 0.008763436 -0.04381718 -0.07887092 -0.008763436 -0.11830639 -0.1445967 -0.22784933 -0.06572577
0000d0 fc 08 0d 1c f3 25 f1 04 f8 f8 21 f8 f6 e6 f6 fe
       -0.017526872 0.035053745 0.056962334 0.12268811 -0.056962334 0.16212358 -0.06572577 0.017526872 -0.035053745 -0.035053745 0.1445967 -0.035053745 -0.04381718 -0.11392467 -0.04381718 -0.008763436
0000e0 e2 0f 08 dc fe ea 14 01 29 24 08 f7 f8 16 fc fd
       -0.13145155 0.06572577 0.035053745 -0.15774184 -0.008763436 -0.0963978 0.08763436 0.004381718 0.17965044 0.15774184 0.035053745 -0.03943546 -0.035053745 0.0963978 -0.017526872 -0.013145154
0000f0 0c f6 05 18 1f dd f3 ee 0f 3b 1a f9 0d df fe f9
       0.052580617 -0.04381718 0.02190859 0.105161235 0.13583326 -0.15336013 -0.056962334 -0.07887092 0.06572577 0.25852138 0.11392467 -0.030672027 0.056962334 -0.1445967 -0.008763436 -0.030672027

sequential_39/dense_111/MatMul_bias f4 [39]
000000 fd 76 90 bd 66 69 17 3c 28 4d 77 bc 78 e4 6a bd
       -0.07053945 0.009241438 -0.015094079 -0.05734679
000010 ec e8 57 3d 75 b8 fa 3c bd 01 f7 bc 82 2c 18 be
       0.052712366 0.030605534 -0.030152196 -0.14860728
000020 11 0a df 3d 50 66 69 bc 54 96 37 3d ee ad bf 3d
       0.10890592 -0.014245585 0.0448211 0.09359346
000030 81 be 58 bd 94 54 90 3d e5 3e 4f bd ef 77 c0 3c
       -0.052916054 0.07047382 -0.05059709 0.023494689
000040 df cc b0 bd a4 5e 76 3d c7 b4 ae bd b3 63 a5 ba
       -0.08632826 0.06014885 -0.08530574 -0.0012618214
000050 67 b8 04 bd 7b 20 89 3d 3a 9f 62 3e 7b 63 44 3d
       -0.032402422 0.06695648 0.22131053 0.047946434
000060 68 8c cd 3c d6 c5 e3 bc 46 60 a5 ba 5d c3 ec bd
       0.025091365 -0.027804296 -0.0012617193 -0.115607
000070 54 3e 86 3d db 22 3d 3d e6 c9 e1 3d b6 20 fe bc
       0.06554857 0.04617582 0.11024837 -0.031021457
000080 73 f8 26 bd a9 18 2b 3e 97 9c 53 3b e5 fb 26 3d
       -0.040764283 0.16708626 0.003228938 0.04076757
000090 89 70 d2 3d 30 d3 1c 3e 73 f6 70 3d
       0.10275371 0.15314937 0.058828782

sequential_39/dense_112/MatMul/ReadVariableOp/transpose i1 [36, 39] scale=0.006896193 zero_point=0
000000 ec d8 da d7 1f 05 13 d2 20 f3 dd 09 e0 1d dc e0
       -0.13792387 -0.27584773 -0.26205534 -0.28274393 0.21378198 0.034480967 0.13102767 -0.3172249 0.22067818 -0.08965051 -0.24136676 0.06206574 -0.22067818 0.1999896 -0.24826296 -0.22067818
000010 ff 01 17 ea 05 e4 dc c8 db ec c7 db f3 fa e4 dc
       -0.006896193 0.006896193 0.15861244 -0.15171625 0.034480967 -0.1930934 -0.24826296 -0.3861868 -0.25515914 -0.13792387 -0.393083 -0.25515914 -0.08965051 -0.041377157 -0.1930934 -0.24826296
000020 eb bf 0e 20 22 e3 18 fe e7 04 07 d7 00 ef e8 1a
       -0.14482005 -0.44825256 0.0965467 0.22067818 0.23447056 -0.1999896 0.16550863 -0.013792386 -0.17240483 0.027584773 0.04827335 -0.28274393 0.0 -0.11723528 -0.16550863 0.17930102
000030 24 05 1b d3 c9 d9 01 ba d1 be f6 b8 04 27 14 12
       0.24826296 0.034480967 0.18619722 -0.3103287 -0.3792906 -0.26895154 0.006896193 -0.48273352 -0.3241211 -0.45514876 -0.06896193 -0.4965259 0.027584773 0.26895154 0.13792387 0.12413148
000040 f5 f1 cb 14 e1 1d eb e7 1b d8 fc 0f 1e e6 e1 1c
       -0.07585812 -0.1034429 -0.36549824 0.13792387 -0.21378198 0.1999896 -0.14482005 -0.17240483 0.18619722 -0.27584773 -0.027584773 0.1034429 0.2068858 -0.17930102 -0.21378198 0.1930934
000050 1d 00 11 ba d7 e7 eb 0e 06 26 fe df 0d 08 d3 13
       0.1999896 0.0 0.11723528 -0.48273352 -0.28274393 -0.17240483 -0.14482005 0.0965467 0.041377157 0.26205534 -0.013792386 -0.22757438 0.08965051 0.055169545 -0.3103287 0.13102767
000060 00 ed dc e8 f0 18 d7 e1 db 22 11 dd 1f 0b e1 e0
       0.0 -0.13102767 -0.24826296 -0.16550863 -0.11033909 0.16550863 -0.28274393 -0.21378198 -0.25515914 0.23447056 0.11723528 -0.24136676 0.21378198 0.07585812 -0.21378198 -0.22067818
000070 d9 1a e2 cf d2 c9 1e e2 ec f5 ca be 16 d9 f9 ad
       -0.26895154 0.17930102 -0.2068858 -0.33791345 -0.3172249 -0.3792906 0.2068858 -0.2068858 -0.13792387 -0.07585812 -0.37239444 -0.45514876 0.15171625 -0.26895154 -0.04827335 -0.57238406
000080 f7 ec e5 b9 cd ab e1 fa d9 0f d0 2b 28 e7 da e9
       -0.06206574 -0.13792387 -0.18619722 -0.48962972 -0.35170585 -0.5861764 -0.21378198 -0.041377157 -0.26895154 0.1034429 -0.33101726 0.2965363 0.27584773 -0.17240483 -0.26205534 -0.15861244
000090 fe 0d e5 d3 00 2a d2 d0 21 d4 cb f6 fa d1 1e 19
       -0.013792386 0.08965051 -0.18619722 -0.3103287 0.0 0.2896401 -0.3172249 -0.33101726 0.22757438 -0.3034325 -0.36549824 -0.06896193 -0.041377157 -0.3241211 0.2068858 0.17240483
0000a0 f1 cb fa 1e ea fa 21 b5 f4 f7 0f 05 23 ef dc 2d
       -0.1034429 -0.36549824 -0.041377157 0.2068858 -0.15171625 -0.041377157 0.22757438 -0.5172145 -0.082754314 -0.06206574 0.1034429 0.034480967 0.24136676 -0.11723528 -0.24826296 0.3103287
0000b0 0f 16 ea c7 1b db da 04 e4 ec 03 c4 cd 23 f2 d6
       0.1034429 0.15171625 -0.15171625 -0.393083 0.18619722 -0.25515914 -0.26205534 0.027584773 -0.1930934 -0.13792387 0.020688578 -0.4137716 -0.35170585 0.24136676 -0.0965467 -0.2896401
0000c0 fd 1e cd fc e5 e5 da 19 18 ae 16 ea d8 ee d0 07
       -0.020688578 0.2068858 -0.35170585 -0.027584773 -0.18619722 -0.18619722 -0.26205534 0.17240483 0.16550863 -0.56548786 0.15171625 -0.15171625 -0.27584773 -0.12413148 -0.33101726 0.04827335
0000d0 fc c0 d2 c8 d3 25 d1 04 f5 f6 22 1b d0 19 c5 15
       -0.027584773 -0.44135636 -0.3172249 -0.3861868 -0.3103287 0.25515914 -0.3241211 0.027584773 -0.07585812 -0.06896193 0.23447056 0.18619722 -0.33101726 0.17240483 -0.4068754 0.14482005
0000e0 f1 b2 04 0a e7 ee e5 fc 1a 1e 1a b1 d8 e6 d8 fa
       -0.1034429 -0.5379031 0.027584773 0.06896193 -0.17240483 -0.12413148 -0.18619722 -0.027584773 0.17930102 0.2068858 0.17930102 -0.54479927 -0.27584773 -0.17930102 -0.27584773 -0.041377157
0000f0 cd c7 c3 de d6 f3 e0 eb bc 10 e8 15 1d aa 10 d6
       -0.35170585 -0.393083 -0.42066777 -0.23447056 -0.2896401 -0.08965051 -0.22067818 -0.14482005 -0.46894112 0.11033909 -0.16550863 0.14482005 0.1999896 -0.5930726 0.11033909 -0.2896401

sequential_39/dense_112/MatMul_bias f4 [36]
000000 06 e6 7c 3e 43 8b ce 3e 53 c8 37 bd 5e 7b e6 bb
       0.24697122 0.40340623 -0.04486878 -0.0070337495
000010 ae 31 3d 3e 85 74 68 be bc 03 31 bd 27 c6 25 be
       0.18475983 -0.22700699 -0.043216452 -0.1618887
000020 af e5 63 3e 4b f3 c8 3d cd 28 d8 3d ff a3 8e bd
       0.22255586 0.098120295 0.10554657 -0.069648735
000030 b6 7d 30 3e bf 1f 91 bd be f5 c3 bd 7f 0b e7 3d
       0.17235455 -0.07086133 -0.09568356 0.112814896
000040 98 9f 85 be 06 85 33 be 78 4f df bc c1 7b 3f bd
       -0.26098323 -0.17531213 -0.027259573 -0.04674888
000050 81 f7 b2 bc 87 78 c7 bd ee fd 85 be 27 91 61 be
       -0.021846535 -0.09739786 -0.26170295 -0.22028027
000060 0c 46 cf 3d 5e 71 1e be 6a b4 f0 bd 75 58 1c be
       0.10120782 -0.15472934 -0.11753161 -0.15268119
000070 c0 76 83 3d 42 31 c8 3d 6c 7d cf 3d 9c 71 de 3d
       0.06419134 0.0977502 0.10131344 0.10861513
000080 74 cd 8b be 33 24 22 3e 04 95 a1 bd 07 2c 04 3d
       -0.27305186 0.15834121 -0.078897506 0.03226855
