src/Converter/Converted_model_files/cats_and_dogs_32x32_pruned.tflite (tflite, 20432 bytes, 5 tensors)

sequential/dense/MatMul i1 [58, 116] scale=0.0035806217 zero_point=0
0	0x29	0.1468055
1	0xfe	-0.0071612434
2	0xcd	-0.1826117
3	0xd0	-0.17186984
4	0x08	0.028644973
5	0xd0	-0.17186984
6	0x19	0.089515544
7	0x3e	0.22199854
8	0xf5	-0.03938684
9	0xff	-0.0035806217
10	0xf3	-0.046548083
11	0xce	-0.17903109
12	0xca	-0.19335356
13	0xf5	-0.03938684
14	0x20	0.11457989
15	0x40	0.22915979
16	0x39	0.20409544
17	0xc9	-0.1969342
18	0xfb	-0.017903108
19	0x0a	0.035806216
20	0xf1	-0.053709324
21	0x2f	0.16828921
22	0xfc	-0.014322487
23	0xe9	-0.0823543
24	0xde	-0.12174114
25	0x0f	0.053709324
26	0xc4	-0.2148373
27	0x09	0.032225594
28	0xee	-0.06445119
29	0x39	0.20409544
30	0xd3	-0.16112797
31	0xd8	-0.14322487
32	0xfd	-0.010741865
33	0x3c	0.2148373
34	0x24	0.12890238
35	0x21	0.118160516
36	0x17	0.0823543
37	0x02	0.0071612434
38	0xdb	-0.132483
39	0x25	0.132483
40	0xe5	-0.09667678
41	0x18	0.08593492
42	0xf9	-0.025064351
43	0x0b	0.03938684
44	0x0e	0.050128702
45	0x11	0.06087057
46	0xb6	-0.264966
47	0xf1	-0.053709324
48	0x47	0.25422415
49	0x3e	0.22199854
50	0x44	0.24348228
51	0xb4	-0.27212724
52	0x27	0.13964425
53	0x0b	0.03938684
54	0xc4	-0.2148373
55	0x02	0.0071612434
56	0x0b	0.03938684
57	0xcd	-0.1826117
58	0x2a	0.15038611
59	0xd9	-0.13964425
60	0xed	-0.06803181
61	0xc5	-0.21125668
62	0xd1	-0.16828921
63	0x01	0.0035806217
64	0x42	0.23632103
65	0x29	0.1468055
66	0xcc	-0.18619233
67	0xdf	-0.118160516
68	0xfb	-0.017903108
69	0xea	-0.07877368
70	0xdf	-0.118160516
71	0xd2	-0.1647086
72	0xa8	-0.3150947
73	0x03	0.010741865
74	0xd4	-0.15754735
75	0xa4	-0.3294172
76	0xe5	-0.09667678
77	0x38	0.20051481
78	0x46	0.25064352
79	0x0d	0.046548083
80	0xe6	-0.09309617
81	0xbf	-0.2327404
82	0x29	0.1468055
83	0xf2	-0.050128702
84	0x07	0.025064351
85	0x1c	0.100257404
86	0xf0	-0.057289947
87	0xe8	-0.08593492
88	0x03	0.010741865
89	0x04	0.014322487
90	0xc8	-0.20051481
91	0x25	0.132483
92	0x41	0.2327404
93	0xf3	-0.046548083
94	0x21	0.118160516
95	0xd9	-0.13964425
96	0xc2	-0.22199854
97	0x2e	0.1647086
98	0xe0	-0.11457989
99	0x34	0.18619233
100	0xfb	-0.017903108
101	0xf2	-0.050128702
102	0x58	0.3150947
103	0x00	0.0
104	0xe9	-0.0823543
105	0x23	0.12532176
106	0xe3	-0.10383803
107	0xdc	-0.12890238
108	0xf1	-0.053709324
109	0xc6	-0.20767605
110	0x1e	0.10741865
111	0xfd	-0.010741865
112	0x22	0.12174114
113	0xcc	-0.18619233
114	0x0d	0.046548083
115	0xdd	-0.12532176
116	0x5a	0.32225594
117	0xa5	-0.32583657
118	0xd4	-0.15754735
119	0xfe	-0.0071612434
120	0xf8	-0.028644973
121	0x11	0.06087057
122	0x0f	0.053709324
123	0x50	0.28644973
124	0xe5	-0.09667678
125	0xdf	-0.118160516
126	0x01	0.0035806217
127	0xdf	-0.118160516
128	0x19	0.089515544
129	0xe1	-0.11099927
130	0xda	-0.13606362
131	0x1f	0.11099927
132	0xee	-0.06445119
133	0xbb	-0.24706289
134	0xde	-0.12174114
135	0x32	0.17903109
136	0x28	0.14322487
137	0xf1	-0.053709324
138	0x11	0.06087057
139	0xec	-0.07161243
140	0xe0	-0.11457989
141	0xe7	-0.089515544
142	0xf5	-0.03938684
143	0x36	0.19335356
144	0x25	0.132483
145	0x26	0.13606362
146	0x04	0.014322487
147	0xc2	-0.22199854
148	0xc7	-0.20409544
149	0x2b	0.15396672
150	0x10	0.057289947
151	0x13	0.06803181
152	0x3d	0.21841793
153	0x29	0.1468055
154	0x0e	0.050128702
155	0x30	0.17186984
156	0x0b	0.03938684
157	0xef	-0.06087057
158	0xd2	-0.1647086
159	0xe0	-0.11457989
160	0xf7	-0.032225594
161	0x19	0.089515544
162	0xe5	-0.09667678
163	0xfc	-0.014322487
164	0x4b	0.2685466
165	0x21	0.118160516
166	0x4a	0.264966
167	0xed	-0.06803181
168	0x1d	0.10383803
169	0xe4	-0.100257404
170	0xf9	-0.025064351
171	0xe9	-0.0823543
172	0x1a	0.09309617
173	0xd1	-0.16828921
174	0x27	0.13964425
175	0xbd	-0.23990165
176	0x49	0.26138538
177	0xfd	-0.010741865
178	0xbf	-0.2327404
179	0x1b	0.09667678
180	0xf8	-0.028644973
181	0x1a	0.09309617
182	0xd1	-0.16828921
183	0x08	0.028644973
184	0x1c	0.100257404
185	0xf4	-0.04296746
186	0x1f	0.11099927
187	0x02	0.0071612434
188	0xb3	-0.27570787
189	0x42	0.23632103
190	0xec	-0.07161243
191	0x16	0.07877368
192	0xdd	-0.12532176
193	0x5a	0.32225594
194	0x01	0.0035806217
195	0x0c	0.04296746
196	0xe3	-0.10383803
197	0xe7	-0.089515544
198	0x3a	0.20767605
199	0x1c	0.100257404
200	0xf0	-0.057289947
201	0x0a	0.035806216
202	0xd4	-0.15754735
203	0x1e	0.10741865
204	0x1f	0.11099927
205	0x11	0.06087057
206	0xfb	-0.017903108
207	0x36	0.19335356
208	0x41	0.2327404
209	0x32	0.17903109
210	0x14	0.07161243
211	0xef	-0.06087057
212	0xdd	-0.12532176
213	0x2c	0.15754735
214	0x04	0.014322487
215	0x59	0.31867534
216	0xc2	-0.22199854
217	0xe0	-0.11457989
218	0x4a	0.264966
219	0x11	0.06087057
220	0xc9	-0.1969342
221	0x24	0.12890238
222	0xe7	-0.089515544
223	0x05	0.017903108
224	0xfa	-0.02148373
225	0xf0	-0.057289947
226	0x01	0.0035806217
227	0xf6	-0.035806216
228	0x10	0.057289947
229	0x0e	0.050128702
230	0x39	0.20409544
231	0xd5	-0.15396672
232	0x44	0.24348228
233	0xda	-0.13606362
234	0xb1	-0.2828691
235	0x1a	0.09309617
236	0x6c	0.38670713
237	0xf2	-0.050128702
238	0x0b	0.03938684
239	0x29	0.1468055
240	0x12	0.06445119
241	0xdd	-0.12532176
242	0xc6	-0.20767605
243	0x9b	-0.36164278
244	0xdc	-0.12890238
245	0xfe	-0.0071612434
246	0xdc	-0.12890238
247	0x71	0.40461025
248	0x2b	0.15396672
249	0xe2	-0.10741865
250	0xe4	-0.100257404
251	0xfa	-0.02148373
252	0x3d	0.21841793
253	0xfd	-0.010741865
254	0xec	-0.07161243
255	0x11	0.06087057

sequential/dense_1/MatMul i1 [1, 58] scale=0.0039492687 zero_point=0
0	0x7c	0.48970932
1	0x58	0.34753564
2	0x43	0.264601
3	0x03	0.011847806
4	0x66	0.40282542
5	0xcc	-0.20536198
6	0xbd	-0.264601
7	0xa1	-0.37518054
8	0xac	-0.33173856
9	0x3b	0.23300685
10	0x55	0.33568785
11	0xac	-0.33173856
12	0x98	-0.41072395
13	0x95	-0.42257175
14	0x63	0.3909776
15	0xf3	-0.051340494
16	0xc3	-0.24090539
17	0x66	0.40282542
18	0xab	-0.33568785
19	0xa8	-0.34753564
20	0x96	-0.4186225
21	0xc2	-0.24485466
22	0x9f	-0.38307905
23	0x6e	0.43441957
24	0xa5	-0.35938346
25	0x35	0.20931125
26	0x56	0.3396371
27	0x6d	0.4304703
28	0x6b	0.42257175
29	0x9c	-0.39492688
30	0x52	0.32384002
31	0xbc	-0.26855028
32	0xa5	-0.35938346
33	0x36	0.21326052
34	0x4e	0.30804297
35	0x3c	0.23695612
36	0x47	0.28039807
37	0x94	-0.42652103
38	0xb2	-0.30804297
39	0x7f	0.5015571
40	0x76	0.4660137
41	0x54	0.33173856
42	0xd9	-0.15402149
43	0xd1	-0.18561563
44	0x43	0.264601
45	0xa4	-0.36333272
46	0x26	0.15007222
47	0x24	0.14217368
48	0xe4	-0.11057952
49	0x2b	0.16981855
50	0x91	-0.43836883
51	0x4e	0.30804297
52	0x52	0.32384002
53	0x8e	-0.45021662
54	0xc3	-0.24090539
55	0xd6	-0.16586928
56	0x4c	0.30014443
57	0xaf	-0.31989077

sequential/conv2d/Conv2D i1 [15, 3, 3, 1]
0	0xbf	-65
1	0xd4	-44
2	0x93	-109
3	0xb4	-76
4	0xe8	-24
5	0xf8	-8
6	0x82	-126
7	0x81	-127
8	0xdb	-37
9	0x3e	62
10	0x5f	95
11	0xbd	-67
12	0x15	21
13	0xc8	-56
14	0x6e	110
15	0x7f	127
16	0x5e	94
17	0x0f	15
18	0x1b	27
19	0x81	-127
20	0x28	40
21	0x88	-120
22	0x64	100
23	0x24	36
24	0x65	101
25	0x2d	45
26	0xe9	-23
27	0x1f	31
28	0x9d	-99
29	0xa9	-87
30	0x61	97
31	0x19	25
32	0x93	-109
33	0xd1	-47
34	0x26	38
35	0x7f	127
36	0x21	33
37	0xfc	-4
38	0xfa	-6
39	0x7f	127
40	0xf3	-13
41	0xdb	-37
42	0x6f	111
43	0x93	-109
44	0xa1	-95
45	0x5e	94
46	0x6f	111
47	0x1d	29
48	0xfb	-5
49	0xd4	-44
50	0xdd	-35
51	0x81	-127
52	0xaa	-86
53	0xa6	-90
54	0x8a	-118
55	0x81	-127
56	0x42	66
57	0xad	-83
58	0xa3	-93
59	0x12	18
60	0x50	80
61	0x5e	94
62	0x34	52
63	0xcf	-49
64	0x70	112
65	0x05	5
66	0x01	1
67	0x6c	108
68	0x96	-106
69	0xc0	-64
70	0x6d	109
71	0x81	-127
72	0x76	118
73	0x3f	63
74	0xb7	-73
75	0x29	41
76	0x81	-127
77	0xb1	-79
78	0xd9	-39
79	0xea	-22
80	0x48	72
81	0x04	4
82	0xa6	-90
83	0xb3	-77
84	0x5a	90
85	0x59	89
86	0x81	-127
87	0x1c	28
88	0x7f	127
89	0x0a	10
90	0xc3	-61
91	0xb5	-75
92	0x26	38
93	0x81	-127
94	0xee	-18
95	0x23	35
96	0xbc	-68
97	0xb5	-75
98	0x2c	44
99	0x3d	61
100	0xf8	-8
101	0x69	105
102	0x7f	127
103	0xc5	-59
104	0x99	-103
105	0xdb	-37
106	0xae	-82
107	0xdd	-35
108	0x1e	30
109	0xff	-1
110	0x81	-127
111	0xfd	-3
112	0x45	69
113	0x4c	76
114	0xd6	-42
115	0xc7	-57
116	0x34	52
117	0x81	-127
118	0x01	1
119	0x1e	30
120	0xd3	-45
121	0x36	54
122	0x2d	45
123	0x02	2
124	0x66	102
125	0xca	-54
126	0xda	-38
127	0xe9	-23
128	0x6c	108
129	0x6e	110
130	0x5f	95
131	0x81	-127
132	0xca	-54
133	0xf8	-8
134	0x59	89

sequential/conv2d_1/Conv2D i1 [15, 3, 3, 15]
0	0xe9	-23
1	0x24	36
2	0xd3	-45
3	0xb2	-78
4	0x20	32
5	0x56	86
6	0xb9	-71
7	0x50	80
8	0xe4	-28
9	0xfd	-3
10	0xfa	-6
11	0x0c	12
12	0xbe	-66
13	0xb8	-72
14	0xe3	-29
15	0xd4	-44
16	0xf8	-8
17	0xce	-50
18	0xb9	-71
19	0xf8	-8
20	0x42	66
21	0xf8	-8
22	0x22	34
23	0x0d	13
24	0xb7	-73
25	0xd0	-48
26	0x39	57
27	0xd5	-43
28	0xd3	-45
29	0x32	50
30	0xcd	-51
31	0x45	69
32	0xe7	-25
33	0xaa	-86
34	0x1c	28
35	0x7f	127
36	0xe9	-23
37	0x4b	75
38	0x1b	27
39	0xa7	-89
40	0xc1	-63
41	0x21	33
42	0xe3	-29
43	0xca	-54
44	0x3e	62
45	0x27	39
46	0xb3	-77
47	0xb4	-76
48	0xeb	-21
49	0xd1	-47
50	0x56	86
51	0x1e	30
52	0x13	19
53	0xfd	-3
54	0xca	-54
55	0x39	57
56	0xf1	-15
57	0xf8	-8
58	0xfe	-2
59	0xb6	-74
60	0x22	34
61	0xbe	-66
62	0xfb	-5
63	0x05	5
64	0xec	-20
65	0x51	81
66	0x16	22
67	0xf3	-13
68	0x19	25
69	0xee	-18
70	0xec	-20
71	0xf3	-13
72	0xe7	-25
73	0xee	-18
74	0xc3	-61
75	0x11	17
76	0xcd	-51
77	0xe0	-32
78	0xba	-70
79	0xd8	-40
80	0x3d	61
81	0x03	3
82	0x15	21
83	0x12	18
84	0x12	18
85	0xd1	-47
86	0xd9	-39
87	0xfd	-3
88	0xd6	-42
89	0xad	-83
90	0x52	82
91	0xd0	-48
92	0x37	55
93	0x23	35
94	0xda	-38
95	0x12	18
96	0x1d	29
97	0x33	51
98	0xe8	-24
99	0xec	-20
100	0x4a	74
101	0x1c	28
102	0xfc	-4
103	0xf0	-16
104	0xf2	-14
105	0x1b	27
106	0x2b	43
107	0xef	-17
108	0xde	-34
109	0x49	73
110	0xe8	-24
111	0x19	25
112	0x26	38
113	0x0b	11
114	0x21	33
115	0x40	64
116	0x47	71
117	0x11	17
118	0x58	88
119	0x06	6
120	0x28	40
121	0x13	19
122	0x11	17
123	0x07	7
124	0x55	85
125	0xdb	-37
126	0xf1	-15
127	0x29	41
128	0xcc	-52
129	0x10	16
130	0xed	-19
131	0x26	38
132	0xce	-50
133	0xcf	-49
134	0x05	5
135	0x37	55
136	0xf3	-13
137	0xdf	-33
138	0xee	-18
139	0xe6	-26
140	0x0b	11
141	0xe6	-26
142	0xd1	-47
143	0x0c	12
144	0x15	21
145	0x46	70
146	0xbf	-65
147	0xe9	-23
148	0x21	33
149	0xfd	-3
150	0x43	67
151	0x03	3
152	0xf4	-12
153	0x12	18
154	0xf2	-14
155	0xf6	-10
156	0xfb	-5
157	0xed	-19
158	0x20	32
159	0xf5	-11
160	0x43	67
161	0xec	-20
162	0x08	8
163	0xf3	-13
164	0x0f	15
165	0x5d	93
166	0x18	24
167	0x13	19
168	0xf5	-11
169	0xd4	-44
170	0xd6	-42
171	0x11	17
172	0xd8	-40
173	0xef	-17
174	0x05	5
175	0x4b	75
176	0xc9	-55
177	0xf2	-14
178	0xef	-17
179	0x0c	12
180	0x29	41
181	0x02	2
182	0x04	4
183	0xef	-17
184	0xc3	-61
185	0x13	19
186	0x00	0
187	0xc4	-60
188	0xeb	-21
189	0x15	21
190	0x30	48
191	0xe7	-25
192	0x13	19
193	0x10	16
194	0xf3	-13
195	0x2e	46
196	0x1c	28
197	0x1d	29
198	0x24	36
199	0xb0	-80
200	0x0c	12
201	0x19	25
202	0xb5	-75
203	0xef	-17
204	0x0b	11
205	0xff	-1
206	0xf2	-14
207	0xf0	-16
208	0xe7	-25
209	0xee	-18
210	0x39	57
211	0x15	21
212	0x14	20
213	0x1e	30
214	0xf0	-16
215	0xf2	-14
216	0x26	38
217	0xc3	-61
218	0xf5	-11
219	0x14	20
220	0x2e	46
221	0xc0	-64
222	0xe5	-27
223	0x16	22
224	0x09	9
225	0x0d	13
226	0x0a	10
227	0xef	-17
228	0x00	0
229	0x8e	-114
230	0x22	34
231	0x12	18
232	0x9b	-101
233	0xc5	-59
234	0x06	6
235	0xff	-1
236	0xdd	-35
237	0x17	23
238	0x0a	10
239	0x0f	15
240	0xff	-1
241	0x24	36
242	0x1f	31
243	0x07	7
244	0x81	-127
245	0x03	3
246	0x24	36
247	0xa3	-93
248	0xbe	-66
249	0x16	22
250	0x05	5
251	0xb9	-71
252	0x0b	11
253	0x0e	14
254	0x0f	15
255	0xf8	-8

sequential/conv2d_2/Conv2D i1 [29, 3, 3, 15]
0	0x20	32
1	0xc0	-64
2	0x10	16
3	0x0c	12
4	0x92	-110
5	0x11	17
6	0xd8	-40
7	0x42	66
8	0x14	20
9	0x0f	15
10	0xf5	-11
11	0x27	39
12	0x18	24
13	0xdb	-37
14	0xe2	-30
15	0x26	38
16	0xf8	-8
17	0x3b	59
18	0xe2	-30
19	0xdd	-35
20	0x0a	10
21	0x05	5
22	0x19	25
23	0x19	25
24	0xee	-18
25	0xdf	-33
26	0x04	4
27	0x29	41
28	0xde	-34
29	0xd2	-46
30	0xcb	-53
31	0x05	5
32	0x8e	-114
33	0xd9	-39
34	0xbd	-67
35	0x14	20
36	0x20	32
37	0x41	65
38	0x29	41
39	0x9c	-100
40	0x4e	78
41	0x36	54
42	0xda	-38
43	0xb9	-71
44	0x69	105
45	0x0e	14
46	0xff	-1
47	0xeb	-21
48	0x08	8
49	0xf4	-12
50	0xce	-50
51	0xfa	-6
52	0xf0	-16
53	0x0f	15
54	0xfa	-6
55	0xe9	-23
56	0x06	6
57	0xb7	-73
58	0x0f	15
59	0xf0	-16
60	0xe7	-25
61	0x05	5
62	0xbe	-66
63	0xf1	-15
64	0x0c	12
65	0x21	33
66	0x16	22
67	0x81	-127
68	0xc2	-62
69	0x27	39
70	0x0b	11
71	0xbb	-69
72	0xb1	-79
73	0xd3	-45
74	0x22	34
75	0xc4	-60
76	0xed	-19
77	0xc9	-55
78	0xf0	-16
79	0x15	21
80	0xe1	-31
81	0xe4	-28
82	0x03	3
83	0xf2	-14
84	0xcf	-49
85	0x18	24
86	0xfc	-4
87	0xb6	-74
88	0xc9	-55
89	0x30	48
90	0xe1	-31
91	0xdb	-37
92	0xb5	-75
93	0xfc	-4
94	0x19	25
95	0x2b	43
96	0xf1	-15
97	0x9b	-101
98	0xed	-19
99	0x36	54
100	0xd4	-44
101	0xf0	-16
102	0xe1	-31
103	0x25	37
104	0xe8	-24
105	0xf8	-8
106	0x07	7
107	0xe5	-27
108	0xf2	-14
109	0x25	37
110	0x39	57
111	0xeb	-21
112	0x81	-127
113	0xd6	-42
114	0x34	52
115	0x98	-104
116	0xa7	-89
117	0xc9	-55
118	0x08	8
119	0x16	22
120	0xfc	-4
121	0x15	21
122	0xd5	-43
123	0xe3	-29
124	0x01	1
125	0xf5	-11
126	0xcf	-49
127	0x49	73
128	0xe9	-23
129	0xd1	-47
130	0xe5	-27
131	0xa1	-95
132	0xca	-54
133	0xef	-17
134	0x31	49
135	0x07	7
136	0xdf	-33
137	0xb7	-73
138	0xd7	-41
139	0xfe	-2
140	0xf9	-7
141	0xe5	-27
142	0xd4	-44
143	0x06	6
144	0xce	-50
145	0x0d	13
146	0xed	-19
147	0xce	-50
148	0x18	24
149	0x14	20
150	0x0e	14
151	0x03	3
152	0xc5	-59
153	0x05	5
154	0x2a	42
155	0xe3	-29
156	0xe9	-23
157	0xfd	-3
158	0xe7	-25
159	0x1f	31
160	0x1b	27
161	0xf2	-14
162	0xce	-50
163	0x23	35
164	0x4d	77
165	0xe4	-28
166	0xec	-20
167	0xb1	-79
168	0x16	22
169	0xed	-19
170	0xdf	-33
171	0x06	6
172	0xde	-34
173	0xe5	-27
174	0x28	40
175	0xca	-54
176	0xdf	-33
177	0x81	-127
178	0x59	89
179	0xd5	-43
180	0xd4	-44
181	0xf0	-16
182	0x10	16
183	0xc7	-57
184	0xe9	-23
185	0xec	-20
186	0x2e	46
187	0xcd	-51
188	0x14	20
189	0xe3	-29
190	0xff	-1
191	0x06	6
192	0xf4	-12
193	0xe6	-26
194	0xee	-18
195	0xc8	-56
196	0xe5	-27
197	0x19	25
198	0x18	24
199	0x09	9
200	0xda	-38
201	0x04	4
202	0xec	-20
203	0x12	18
204	0x15	21
205	0x05	5
206	0x03	3
207	0xd7	-41
208	0x30	48
209	0x37	55
210	0xb9	-71
211	0xfe	-2
212	0x1b	27
213	0x26	38
214	0xef	-17
215	0x2a	42
216	0xe2	-30
217	0xfc	-4
218	0x29	41
219	0xe2	-30
220	0x06	6
221	0x11	17
222	0xec	-20
223	0x03	3
224	0x07	7
225	0xbc	-68
226	0xff	-1
227	0x0d	13
228	0xbc	-68
229	0xf1	-15
230	0x3b	59
231	0xfe	-2
232	0xca	-54
233	0xdd	-35
234	0xee	-18
235	0xe9	-23
236	0xf4	-12
237	0x0c	12
238	0xe7	-25
239	0xb2	-78
240	0xf2	-14
241	0xfa	-6
242	0x27	39
243	0x0f	15
244	0x08	8
245	0x2e	46
246	0xde	-34
247	0x1d	29
248	0xed	-19
249	0xee	-18
250	0x1a	26
251	0xf9	-7
252	0x24	36
253	0xfa	-6
254	0xfb	-5
255	0xe1	-31
