example/data/mnist_model.tflite (tflite, 8784 bytes, 7 tensors)

model/conv2d/Conv2D i1 [11, 3, 3, 1]
67 92 30 127 0 -41 -40 -60
-18 127 89 57 12 -54 19 -81
-101 -111 73 19 -54 61 33 -120
73 -1 -127 55 70 67 -17 34
42 -127 -116 -46 6 27 35 -50
-1 -3 -127 -68 -75 71 109 102
117 -22 -35 14 -127 -116 107 77
69 30 -30 90 -110 -127 -27 46
-2 -24 -10 15 -68 -127 -111 -126
43 12 -103 127 -7 -113 97 71
-29 -63 -127 -63 -21 -53 51 81
61 99 31 57 104 -73 -42 81
-127 -37 50
00000000: 435c 1e7f 00d7 d8c4 ee7f 5939 0cca 13af
00000010: 9b91 4913 ca3d 2188 49ff 8137 4643 ef22
00000020: 2a81 8cd2 061b 23ce fffd 81bc b547 6d66
00000030: 75ea dd0e 818c 6b4d 451e e25a 9281 e52e
00000040: fee8 f60f bc81 9182 2b0c 997f f98f 6147
00000050: e3c1 81c1 ebcb 3351 3d63 1f39 68b7 d651
00000060: 81db 32

model/conv2d_1/Conv2D i1 [6, 3, 3, 11]
17 -82 -12 -21 -114 -33 -4 -17
71 26 -34 -51 -119 -69 -34 -114
-62 -43 -41 4 57 -8 -53 -42
-70 4 -109 -24 -101 -61 -32 72
-17 -17 -22 -70 41 -22 -48 25
-55 44 67 -9 -24 -5 -108 25
51 -20 -19 -2 -2 47 -22 17
-1 -78 22 127 31 -11 50 -28
25 -25 9 42 -61 47 61 5
18 25 -18 3 15 33 28 -83
16 58 48 27 48 -21 -66 -11
76 77 -33 65 45 83 70 68
-21 -116 37 33 -32 38 -23 6
11 -70 -8 110 43 -25 31 82
-6 69 96 35 70 -11 40 17
-6 1 114 -45 108 72 7 122
12 -34 -16 79 -4 -107 -5 -8
-59 -97 -117 -37 95 58 -73 -86
-77 -27 -50 35 -117 -127 -27 103
66 -95 -102 15 -23 31 86 -45
-37 14 24 34 -54 15 -12 -86
125 73 -46 56 -103 17 -51 64
38 -78 -75 53 13 -26 -19 -77
38 -9 -17 -17 -50 -1 -1 8
-32 -67 -59 54 65 -23 27 47
10 75 64 15 61 24 -21 -37
42 18 -4 20 10 2 -5 19
-59 12 -9 12 9 -32 46 -16
-54 -4 -28 -127 28 9 3 -20
51 -72 61 67 -27 31 19 -50
-10 29 -11 -22 -43 0 -31 -15
25 -81 4 -3 24 10 -33 16
00000000: 11ae f4eb 8edf fcef 471a decd 89bb de8e
00000010: c2d5 d704 39f8 cbd6 ba04 93e8 9bc3 e048
00000020: efef eaba 29ea d019 c92c 43f7 e8fb 9419
00000030: 33ec edfe fe2f ea11 ffb2 167f 1ff5 32e4
00000040: 19e7 092a c32f 3d05 1219 ee03 0f21 1cad
00000050: 103a 301b 30eb bef5 4c4d df41 2d53 4644
00000060: eb8c 2521 e026 e906 0bba f86e 2be7 1f52
00000070: fa45 6023 46f5 2811 fa01 72d3 6c48 077a
00000080: 0cde f04f fc95 fbf8 c59f 8bdb 5f3a b7aa
00000090: b3e5 ce23 8b81 e567 42a1 9a0f e91f 56d3
000000a0: db0e 1822 ca0f f4aa 7d49 d238 9911 cd40
000000b0: 26b2 b535 0de6 edb3 26f7 efef ceff ff08
000000c0: e0bd c536 41e9 1b2f 0a4b 400f 3d18 ebdb
000000d0: 2a12 fc14 0a02 fb13 c50c f70c 09e0 2ef0
000000e0: cafc e481 1c09 03ec 33b8 3d43 e51f 13ce
000000f0: f61d f5ea d500 e1f1 19af 04fd 180a df10

model/conv2d_2/Conv2D i1 [6, 3, 3, 6]
-51 -10 32 -19 43 47 -10 8
25 -5 -14 16 -14 -38 -19 4
-33 12 -15 -25 40 -5 19 56
-5 -28 29 15 5 25 -9 -43
-30 -8 25 -59 -18 -40 4 7
46 17 -65 -31 -2 -13 35 17
-103 -11 -14 20 22 -127 44 -39
-12 29 83 3 94 -32 -96 34
66 31 117 22 -49 62 31 -2
-31 5 -73 -14 -3 -46 -12 28
-70 17 4 -34 -12 -19 -67 37
-43 -68 -39 8 -30 102 -124 7
16 77 11 93 -53 -9 126 127
3 80 -72 9 -39 -37 77 -16
-62 36 55 -36 -4 -19 39 58
97 -23 -1 -3 62 125 -31 40
71 -38 -59 95 52 47 28 -58
29 15 119 18 -14 -24 84 -33
-63 39 66 -58 -5 11 16 17
30 -25 13 -77 34 44 -24 7
40 -127 32 31 48 34 -54 0
74 114 24 -44 31 3 35 -13
73 -41 96 11 -35 -127 55 6
-89 45 -45 -15 79 4 16 20
-45 62 98 -63 115 -33 -110 -67
11 -28 41 40 -84 -8 64 19
40 23 47 87 61 -16 50 1
22 -22 -56 -14 -39 13 -1 -60
31 44 6 32 -19 -58 7 88
13 41 49 13 -37 28 -127 39
-20 -30 13 42 20 25 -77 -63
16 20 23 81 43 -28 9 24
00000000: cdf6 20ed 2b2f f608 19fb f210 f2da ed04
00000010: df0c f1e7 28fb 1338 fbe4 1d0f 0519 f7d5
00000020: e2f8 19c5 eed8 0407 2e11 bfe1 fef3 2311
00000030: 99f5 f214 1681 2cd9 f41d 5303 5ee0 a022
00000040: 421f 7516 cf3e 1ffe e105 b7f2 fdd2 f41c
00000050: ba11 04de f4ed bd25 d5bc d908 e266 8407
00000060: 104d 0b5d cbf7 7e7f 0350 b809 d9db 4df0
00000070: c224 37dc fced 273a 61e9 fffd 3e7d e128
00000080: 47da c55f 342f 1cc6 1d0f 7712 f2e8 54df
00000090: c127 42c6 fb0b 1011 1ee7 0db3 222c e807
000000a0: 2881 201f 3022 ca00 4a72 18d4 1f03 23f3
000000b0: 49d7 600b dd81 3706 a72d d3f1 4f04 1014
000000c0: d33e 62c1 73df 92bd 0be4 2928 acf8 4013
000000d0: 2817 2f57 3df0 3201 16ea c8f2 d90d ffc4
000000e0: 1f2c 0620 edc6 0758 0d29 310d db1c 8127
000000f0: ece2 0d2a 1419 b3c1 1014 1751 2be4 0918

model/conv2d_3/Conv2D i1 [6, 3, 3, 6]
-79 52 -29 3 -71 54 0 55
-37 46 44 81 29 33 -18 2
88 78 8 -49 -37 4 34 61
107 -17 -60 -18 57 10 108 9
-35 -2 58 -77 69 -114 -62 -12
6 -69 57 -81 -55 -41 3 -127
-15 -59 -24 -53 -25 -77 48 -100
73 102 -45 -61 -1 -21 34 2
-15 -98 -65 -19 58 58 -11 -65
1 6 54 85 9 -105 -13 9
41 46 -14 -35 -15 5 41 39
-54 -3 -72 23 84 14 6 -51
-127 49 46 3 -60 -13 -83 48
58 119 -126 30 127 -14 45 56
26 74 69 -60 45 38 45 53
36 -123 67 79 56 19 36 -49
6 20 49 -32 -30 -85 35 -9
86 31 23 -84 76 58 50 55
47 -39 75 70 102 64 2 -62
53 27 62 -6 -10 -38 44 39
-54 32 -18 18 34 -6 7 20
-25 52 20 -2 -23 19 -81 55
58 22 33 1 -127 0 -9 -40
-36 10 -14 19 -20 16 -35 7
1 34 -4 4 -1 13 -19 16
39 18 8 48 -37 33 32 17
-3 40 -20 68 39 -31 -34 19
-41 -10 51 49 -86 53 -21 -30
-36 112 -127 -8 -19 -66 -52 85
-106 -53 -1 -31 -20 35 -50 65
-1 -8 -33 59 -69 43 25 -61
2 69 -42 -8 18 4 -28 27
00000000: b134 e303 b936 0037 db2e 2c51 1d21 ee02
00000010: 584e 08cf db04 223d 6bef c4ee 390a 6c09
00000020: ddfe 3ab3 458e c2f4 06bb 39af c9d7 0381
00000030: f1c5 e8cb e7b3 309c 4966 d3c3 ffeb 2202
00000040: f19e bfed 3a3a f5bf 0106 3655 0997 f309
00000050: 292e f2dd f105 2927 cafd b817 540e 06cd
00000060: 8131 2e03 c4f3 ad30 3a77 821e 7ff2 2d38
00000070: 1a4a 45c4 2d26 2d35 2485 434f 3813 24cf
00000080: 0614 31e0 e2ab 23f7 561f 17ac 4c3a 3237
00000090: 2fd9 4b46 6640 02c2 351b 3efa f6da 2c27
000000a0: ca20 ee12 22fa 0714 e734 14fe e913 af37
000000b0: 3a16 2101 8100 f7d8 dc0a f213 ec10 dd07
000000c0: 0122 fc04 ff0d ed10 2712 0830 db21 2011
000000d0: fd28 ec44 27e1 de13 d7f6 3331 aa35 ebe2
000000e0: dc70 81f8 edbe cc55 96cb ffe1 ec23 ce41
000000f0: fff8 df3b bb2b 19c3 0245 d6f8 1204 e41b

model/dense/MatMul i1 [6, 96] scale=0.0058738412 zero_point=0
-0.24082749 -0.05873841 0.023495365 0.21145828 0.123350665 0.12922451 -0.0058738412 0.04699073
-0.017621525 0.41116887 -0.05286457 -0.12922451 0.04111689 -0.088107616 0.15859371 0.31718743
0.0 -0.31718743 0.064612255 -0.0704861 0.099855304 0.09398146 0.076359935 -0.19383676
0.08223378 0.41704273 -0.05286457 0.023495365 0.18208908 0.10572914 -0.27607054 0.10572914
0.21145828 -0.04111689 0.064612255 -0.21733212 0.25257516 0.1409722 0.088107616 0.04699073
0.088107616 0.17621523 0.31718743 -0.111602984 -0.2819444 0.04111689 0.0117476825 -0.05873841
-0.05286457 -0.19383676 -0.35243046 0.0704861 0.0704861 -0.099855304 0.10572914 0.05873841
-0.023495365 0.09398146 -0.111602984 0.017621525 0.023495365 0.023495365 -0.017621525 -0.04699073
0.0 0.18208908 -0.111602984 -0.20558444 -0.12922451 -0.22907981 -0.0058738412 -0.45815963
-0.21733212 -0.2819444 0.15859371 0.03524305 0.0 0.39354736 0.15271987 -0.123350665
0.39942122 0.0117476825 0.04111689 0.22320597 0.064612255 -0.19383676 0.12922451 -0.1703414
-0.25257516 -0.088107616 0.029369205 0.0704861 0.35243046 -0.2701967 -0.023495365 0.09398146
0.09398146 0.41704273 0.17621523 -0.15271987 0.0 0.064612255 -0.15271987 0.26432285
0.0058738412 -0.0058738412 -0.23495364 0.17621523 -0.37592584 0.029369205 -0.04699073 0.23495364
-0.27607054 0.12922451 -0.13509835 0.19971061 -0.09398146 0.45228577 0.0 0.12922451
0.12922451 0.5286457 0.04111689 0.017621525 0.41704273 0.16446756 -0.05286457 0.18796292
0.10572914 0.29369205 0.30543974 -0.10572914 -0.15859371 0.31718743 -0.1409722 -0.04699073
0.111602984 0.16446756 0.123350665 0.24670133 -0.11747682 -0.05873841 -0.04699073 0.064612255
0.088107616 0.14684603 -0.123350665 -0.064612255 0.35243046 0.19383676 0.31718743 -0.0117476825
0.34655663 -0.04111689 0.30543974 0.22320597 -0.099855304 0.21733212 0.064612255 -0.13509835
-0.05873841 -0.03524305 -0.30543974 0.123350665 0.029369205 -0.088107616 0.09398146 -0.20558444
0.41116887 0.15271987 0.19971061 -0.023495365 -0.064612255 0.13509835 0.25257516 0.0058738412
0.20558444 0.04111689 0.1703414 0.26432285 0.029369205 0.029369205 -0.111602984 0.0058738412
-0.05873841 -0.14684603 0.123350665 -0.5638888 -0.0117476825 -0.370052 0.0117476825 -0.2995659
-0.076359935 -0.10572914 -0.023495365 -0.0704861 -0.08223378 0.15271987 -0.11747682 -0.05873841
0.08223378 -0.0058738412 0.017621525 -0.076359935 0.0058738412 -0.111602984 -0.03524305 0.111602984
-0.017621525 0.0117476825 -0.111602984 0.099855304 -0.12922451 -0.029369205 0.076359935 -0.05286457
-0.14684603 -0.0704861 -0.0058738412 -0.05873841 0.088107616 -0.076359935 0.064612255 0.0704861
-0.064612255 0.03524305 -0.13509835 -0.076359935 -0.076359935 0.023495365 0.0 -0.076359935
-0.08223378 0.13509835 -0.029369205 -0.111602984 -0.0058738412 -0.1409722 -0.08223378 -0.076359935
-0.10572914 0.10572914 -0.05286457 -0.13509835 -0.11747682 -0.076359935 -0.10572914 -0.05286457
0.0704861 0.029369205 0.0704861 -0.10572914 -0.05873841 -0.0117476825 -0.08223378 0.0117476825
00000000: d7f6 0424 1516 ff08 fd46 f7ea 07f1 1b36
00000010: 00ca 0bf4 1110 0ddf 0e47 f704 1f12 d112
00000020: 24f9 0bdb 2b18 0f08 0f1e 36ed d007 02f6
00000030: f7df c40c 0cef 120a fc10 ed03 0404 fdf8
00000040: 001f eddd ead9 ffb2 dbd0 1b06 0043 1aeb
00000050: 4402 0726 0bdf 16e3 d5f1 050c 3cd2 fc10
00000060: 1047 1ee6 000b e62d 01ff d81e c005 f828
00000070: d116 e922 f04d 0016 165a 0703 471c f720
00000080: 1232 34ee e536 e8f8 131c 152a ecf6 f80b
00000090: 0f19 ebf5 3c21 36fe 3bf9 3426 ef25 0be9
000000a0: f6fa cc15 05f1 10dd 461a 22fc f517 2b01
000000b0: 2307 1d2d 0505 ed01 f6e7 15a0 fec1 02cd
000000c0: f3ee fcf4 f21a ecf6 0eff 03f3 01ed fa13
000000d0: fd02 ed11 eafb 0df7 e7f4 fff6 0ff3 0b0c
000000e0: f506 e9f3 f304 00f3 f217 fbed ffe8 f2f3
000000f0: ee12 f7e9 ecf3 eef7 0c05 0cee f6fe f202

model/dense_1/MatMul i1 [6, 6] scale=0.0058641494 zero_point=0
0.60400736 -0.13487543 0.11728299 0.3811697 -0.27561504 0.33425653 0.26388672 0.19351692
0.08209809 0.5395017 0.070369795 -0.5688225 0.39289802 -0.035184897 -0.12314714 -0.2990716
0.5805508 0.25215843 -0.29320747 -0.24629427 0.058641493 -0.13487543 -0.011728299 -0.3225282
-0.42221877 0.09382639 0.15833203 0.31666407 0.3577131 0.62159985 0.14073959 0.744747
0.070369795 -0.046913195 -0.30493578 0.35184896
00000000: 67e9 1441 d139 2d21 0e5c 0c9f 43fa ebcd
00000010: 632b ced6 0ae9 fec9 b810 1b36 3d6a 187f
00000020: 0cf8 cc3c

model/dense_2/MatMul i1 [10, 6] scale=0.006968057 zero_point=0
0.08361668 -0.39717925 -0.8361668 -0.34143478 0.26478615 0.034840286 -0.8849432 -0.055744454
0.5156362 0.20207365 0.11148891 -0.2717542 -0.16723336 -0.055744454 -0.25085005 0.13239308
0.5365404 -0.7595182 0.2926584 0.034840286 0.07664862 -0.32749867 -0.48776397 -0.5644126
-0.3065945 -0.8082946 0.18813753 -0.19510558 0.11845697 0.18116948 0.11148891 -0.11148891
-0.06271251 0.09755279 -0.8291988 0.24388199 -0.63409317 -0.33446673 -0.63409317 -0.2717542
-0.17420141 0.66196537 0.013936114 -0.45989174 0.3832431 -0.31356254 0.13936114 -0.5086681
-0.2787223 0.22297782 -0.20207365 0.3065945 0.02090417 0.02090417 0.22994587 -0.44595563
-0.006968057 -0.44595563 -0.2787223 0.16723336
00000000: 0cc7 88cf 2605 81f8 4a1d 10d9 e8f8 dc13
00000010: 4d93 2a05 0bd1 baaf d48c 1be4 111a 10f0
00000020: f70e 8923 a5d0 a5d9 e75f 02be 37d3 14b7
00000030: d820 e32c 0303 21c0 ffc0 d818
